python_models/matmul_test/model_quantized.tflite (tflite, 792040 bytes, 1 tensors)

sequential/dense/MatMul1 i1 [1008, 784] scale=0.0004556199 zero_point=0
00000000: df86 bfe9 3be1 ea71 5540 dec0 ba8b 4629
00000010: e4cd d206 0c38 d152 9b9b bf73 6e3e 5b49
00000020: fc09 75ab b52e b4ec 5851 068f 9d82 c9f8
00000030: f3a5 70b2 1010 7ba6 d0ef 1f92 df74 b6af
00000040: f512 7be3 e1da 4d88 e4c9 7f73 54e3 d5ea
00000050: 1b57 a6d0 95ba 3728 ffb9 a9c0 3830 181a
00000060: 6c0f a659 7ef3 c4ea c21e 45ad 16af 12ca
00000070: 9a54 532e 9c62 2bf2 485b 0e38 128f 4419
00000080: 6dde 3007 6f24 6bf8 8367 2547 49e7 2d64
00000090: bdb5 6451 ee2b a486 f28d 1453 1f57 e2c9
000000a0: 4a7b 3345 3bed 5946 9118 03be f299 1af1
000000b0: d468 c76f 8172 8132 b4be b79e e7f8 4b89
000000c0: 8cd4 a619 08df 9017 5779 7961 dfd1 1d0c
000000d0: 5c13 8de9 b517 f031 7f16 c779 e49d 9565
000000e0: 0f53 3bc5 f7c0 3473 e847 b5a8 efa5 840c
000000f0: a93c 3d07 7666 4e6d 003b 5dc0 5111 3dc6
-0.015035457 -0.05558563 -0.029615294 -0.010479258 0.026881576 -0.014124217 -0.010023638 0.05148505
0.038727693 0.029159674 -0.015491077 -0.029159674 -0.031893395 -0.05330753 0.031893395 0.018680416
-0.012757357 -0.023236616 -0.020958517 0.0027337195 0.005467439 0.025514714 -0.021414137 0.037360832
-0.04601761 -0.04601761 -0.029615294 0.05239629 0.05011819 0.028248435 0.041461412 0.033260252
-0.0018224797 0.0041005793 0.05330753 -0.038727693 -0.03417149 0.020958517 -0.034627113 -0.009112398
0.04009455 0.036905214 0.0027337195 -0.05148505 -0.04510637 -0.05740811 -0.025059095 -0.0036449593
-0.005923059 -0.041461412 0.05102943 -0.035538353 0.0072899186 0.0072899186 0.05604125 -0.041005794
-0.021869756 -0.0077455384 0.014124217 -0.05011819 -0.015035457 0.05285191 -0.033715874 -0.036905214
-0.005011819 0.008201159 0.05604125 -0.013212978 -0.014124217 -0.017313557 0.035082735 -0.05467439
-0.012757357 -0.025059095 0.057863727 0.05239629 0.03827207 -0.013212978 -0.019591656 -0.010023638
0.012301737 0.039638933 -0.041005794 -0.021869756 -0.048751332 -0.031893395 0.025059095 0.018224796
-0.0004556199 -0.032349013 -0.039638933 -0.029159674 0.025514714 0.021869756 0.010934878 0.011846118
0.04920695 0.006834299 -0.041005794 0.040550172 0.05740811 -0.005923059 -0.027337195 -0.010023638
-0.028248435 0.013668598 0.031437773 -0.037816454 0.010023638 -0.036905214 0.008201159 -0.024603475
-0.04647323 0.03827207 0.037816454 0.020958517 -0.04556199 0.044650752 0.019591656 -0.0063786786
0.032804634 0.041461412 0.0063786786 0.025514714 0.008201159 -0.05148505 0.030982153 0.011390498
0.04966257 -0.015491077 0.021869756 0.0031893393 0.05057381 0.016402317 0.048751332 -0.0036449593
-0.056952488 0.046928853 0.016857937 0.032349013 0.033260252 -0.011390498 0.020502897 0.04556199
-0.030526534 -0.03417149 0.04556199 0.036905214 -0.008201159 0.019591656 -0.041917033 -0.05558563
-0.0063786786 -0.05239629 0.009112398 0.037816454 0.014124217 0.039638933 -0.013668598 -0.025059095
0.033715874 0.05604125 0.023236616 0.031437773 0.026881576 -0.008656778 0.040550172 0.031893395
-0.05057381 0.010934878 0.0013668598 -0.030070914 -0.0063786786 -0.046928853 0.011846118 -0.006834299
-0.020047275 0.04738447 -0.025970334 0.05057381 -0.057863727 0.05194067 -0.057863727 0.022780996
-0.034627113 -0.030070914 -0.033260252 -0.044650752 -0.011390498 -0.0036449593 0.03417149 -0.05421877
-0.05285191 -0.020047275 -0.041005794 0.011390498 0.0036449593 -0.015035457 -0.05102943 0.010479258
0.039638933 0.05513001 0.05513001 0.04419513 -0.015035457 -0.021414137 0.013212978 0.005467439
0.041917033 0.008656778 -0.05239629 -0.010479258 -0.03417149 0.010479258 -0.0072899186 0.022325376
0.057863727 0.010023638 -0.025970334 0.05513001 -0.012757357 -0.04510637 -0.048751332 0.04601761
0.006834299 0.037816454 0.026881576 -0.026881576 -0.0041005793 -0.029159674 0.023692235 0.05239629
-0.010934878 0.032349013 -0.03417149 -0.04009455 -0.0077455384 -0.041461412 -0.05649687 0.005467439
-0.039638933 0.027337195 0.027792815 0.0031893393 0.05376315 0.04647323 0.035538353 0.04966257
0.0 0.026881576 0.04237265 -0.029159674 0.036905214 0.0077455384 0.027792815 -0.026425956
