python_models/matmul_test/saved_models/tflite_vela/tflite_model_vela.tflite (tflite, 2528 bytes, 2 tensors)

main_split_1_command_stream u1 [456]
67 79 80 49 1 0 16 0
8 48 0 0 0 0 6 16
5 0 0 0 5 0 0 0
5 0 0 0 2 0 106 0
15 1 1 0 0 64 0 0
0 0 0 0 1 64 0 0
0 0 0 0 2 64 0 0
0 0 0 0 3 64 0 0
0 0 0 0 11 1 0 0
12 1 0 0 10 1 0 0
4 1 15 0 6 64 0 0
1 0 0 0 5 64 0 0
16 0 0 0 4 64 0 0
16 0 0 0 9 1 0 0
5 1 0 0 7 1 0 0
0 1 0 0 1 1 0 0
3 1 0 0 2 1 0 0
31 1 1 0 16 64 0 0
32 0 0 0 17 64 0 0
0 0 0 0 18 64 0 0
0 0 0 0 19 64 0 0
0 0 0 0 27 1 0 0
28 1 0 0 26 1 0 0
18 1 0 0 17 1 0 0
19 1 15 0 22 64 0 0
16 0 0 0 21 64 0 0
16 0 0 0 20 64 0 0
16 0 0 0 24 1 128 255
20 1 65 1 33 1 0 0
32 1 0 0 34 1 0 0
37 1 0 0 38 1 128 255
39 1 127 0 22 1 1 0
00000000: 434f 5031 0100 1000 0830 0000 0000 0610
00000010: 0500 0000 0500 0000 0500 0000 0200 6a00
00000020: 0f01 0100 0040 0000 0000 0000 0140 0000
00000030: 0000 0000 0240 0000 0000 0000 0340 0000
00000040: 0000 0000 0b01 0000 0c01 0000 0a01 0000
00000050: 0401 0f00 0640 0000 0100 0000 0540 0000
00000060: 1000 0000 0440 0000 1000 0000 0901 0000
00000070: 0501 0000 0701 0000 0001 0000 0101 0000
00000080: 0301 0000 0201 0000 1f01 0100 1040 0000
00000090: 2000 0000 1140 0000 0000 0000 1240 0000
000000a0: 0000 0000 1340 0000 0000 0000 1b01 0000
000000b0: 1c01 0000 1a01 0000 1201 0000 1101 0000
000000c0: 1301 0f00 1640 0000 1000 0000 1540 0000
000000d0: 1000 0000 1440 0000 1000 0000 1801 80ff
000000e0: 1401 4101 2101 0000 2001 0000 2201 0000
000000f0: 2501 0000 2601 80ff 2701 7f00 1601 0100

main_split_1_flash u1 [784]
0 0 0 0 0 0 0 0
0 0 0 0 0 0 0 0
0 0 0 0 0 0 0 0
0 0 0 0 0 0 0 0
0 0 0 0 0 0 0 0
0 0 0 0 0 0 0 0
0 0 0 0 0 0 0 0
0 0 0 0 0 0 0 0
0 0 0 0 0 0 0 0
0 0 0 0 0 0 0 0
0 0 0 0 0 0 0 0
0 0 0 0 0 0 0 0
0 0 0 0 0 0 0 0
0 0 0 0 0 0 0 0
0 0 0 0 0 0 0 0
0 0 0 0 0 0 0 0
0 0 0 0 0 0 0 0
0 0 0 0 0 0 0 0
0 0 0 0 0 0 0 0
0 0 0 0 0 0 0 0
0 0 0 0 0 0 0 0
0 0 0 0 0 0 0 0
0 0 0 0 0 0 0 0
0 0 0 0 0 0 0 0
0 0 0 0 0 0 0 0
0 0 0 0 0 0 0 0
0 0 0 0 0 0 0 0
0 0 0 0 0 0 0 0
0 0 0 0 0 0 0 0
0 0 0 0 0 0 0 0
0 0 0 0 0 0 0 0
0 0 0 0 0 0 0 0
00000000: 0000 0000 0000 0000 0000 0000 0000 0000
00000010: 0000 0000 0000 0000 0000 0000 0000 0000
00000020: 0000 0000 0000 0000 0000 0000 0000 0000
00000030: 0000 0000 0000 0000 0000 0000 0000 0000
00000040: 0000 0000 0000 0000 0000 0000 0000 0000
00000050: 0000 0000 0000 0000 0000 0000 0000 0000
00000060: 0000 0000 0000 0000 0000 0000 0000 0000
00000070: 0000 0000 0000 0000 0000 0000 0000 0000
00000080: 0000 0000 0000 0000 0000 0000 0000 0000
00000090: 0000 0000 0000 0000 0000 0000 0000 0000
000000a0: 0000 0000 0000 0000 0000 0000 0000 0000
000000b0: 0000 0000 0000 0000 0000 0000 0000 0000
000000c0: 0000 0000 0000 0000 0000 0000 0000 0000
000000d0: 0000 0000 0000 0000 0000 0000 0000 0000
000000e0: 0000 0000 0000 0000 0000 0000 0000 0000
000000f0: 0000 0000 0000 0000 0000 0000 0000 0000
