snn_models/n_mnist_qat_snn/784x56x56x56x10/model_state_dict.pkl (torch, 215979 bytes, 8 tensors)

linear_layers.0.weight f4 [56, 784]
0.06482373 -0.017981099 0.07511187 0.04476684 -0.04790274 -0.044944603 0.004320016 -0.1266767
0.050201748 -0.07501166 -0.10242608 0.023990849 -0.03806003 -0.018352624 0.04169588 -0.16918267
-0.23613432 -0.26182353 -0.23757082 -0.12519847 -0.09765118 -0.017212925 -0.20800973 -0.14303997
-0.21265806 -0.04717115 0.004909584 -0.113440976 -0.13434368 0.057061497 -0.088177994 -0.038784143
-0.031450532 -0.19781223 -0.038627833 0.055920824 0.088492535 -0.09877976 0.10334138 0.15311472
0.065871514 0.091386735 0.12510572 0.0015930039 -0.06223766 -0.27071077 -0.33357078 -0.44564357
-0.27252117 -0.30606195 -0.27110705 -0.1915626 -0.18101862 -0.18203478 -0.12102358 -0.17019048
-0.03903071 -0.030364176 -0.03125175 -0.007210601 0.14409079 0.092156105 -0.074888796 0.039581038
0.2244217 0.1609278 0.087761916 0.144745 0.22242215 0.25754237 0.2097306 0.0057461536
-0.0989704 -0.11774854 -0.23465636 -0.118522614 -0.4764008 -0.3958787 -0.36355448 -0.28520924
-0.28828028 -0.21781619 -0.1775596 -0.058833998 -0.017772948 -0.21078387 -0.16724902 -0.22754435
0.023195047 -0.092227325 -0.14149766 -0.10484271 -0.068503514 -0.0019925616 -0.07716727 -0.058907386
0.014345371 0.096144594 0.1768974 0.0301866 0.036775492 -0.09268533 -0.0906666 -0.24409638
-0.21506828 -0.31659377 -0.3568938 -0.18179342 -0.29946265 -0.17003977 -0.17408766 0.026809845
-0.10646992 -0.12835222 -0.033322904 -0.23087502 -0.15368137 -0.06384653 -0.0687224 -0.08285272
-0.054546833 -0.068938114 -0.03147162 0.0082411 0.030556727 -0.020688163 -0.015415901 -0.0024717455
-0.059289884 -0.03703169 -0.083253734 -0.102715805 -0.07404704 -0.12846227 -0.12453992 -0.2299897
-0.15713827 -0.12169534 -0.19508836 -0.17990203 -0.19822997 -0.041924484 -0.079777814 -0.09957981
-0.11805856 -0.05911222 -0.06531272 -0.050577167 -0.0251849 0.0034050709 -0.07208847 -0.058848087
-0.011485642 0.02633727 -0.0017086886 -0.028418608 -0.028245257 -0.016968299 -0.04820539 -0.03419956
-0.029048469 -0.07766533 -0.048083488 -0.064849034 -0.12425602 -0.097265005 -0.06952147 -0.107951686
-0.051819365 -0.100675285 -0.11351509 -0.016373051 -0.004458698 -0.027590275 -0.017590037 0.0039943573
-0.014853101 -0.011023085 -0.025759805 -0.002906055 0.024035342 -0.0290143 0.0080545135 0.010396091
0.050844457 0.023709698 -0.0064814375 -0.029882615 0.035583332 0.0044040554 0.04399069 -0.034387227
-0.034936845 -0.02895065 -0.09097387 -0.06633663 -0.03525092 0.0052272202 0.0019090069 -0.013138325
0.05043377 0.004992187 -0.020602394 0.057318684 -0.012251883 -0.00989865 -0.00732457 0.018021414
0.04695693 0.048878573 0.04110115 0.10150906 0.11959974 0.084132 0.015562819 0.06204248
0.060984675 0.08331273 0.022409832 0.008346324 0.033123437 0.008469489 0.07137885 0.017230876
0.014204178 -0.06918565 0.011700033 0.04843124 0.026325157 -0.019958703 0.0086451825 0.023885693
0.0153018255 -0.039331798 -0.044923365 0.014762963 0.08878628 0.07278101 0.03398356 -0.0030769515
0.029944396 -0.008691213 0.066072926 0.019329293 0.12832667 0.060977615 0.07620756 0.08847476
0.0628392 0.057159793 0.13297674 0.1035417 0.04058342 0.0347383 0.057728857 0.061430775
00000000: 4ec2 843d 194d 93bc 41d4 993d 6f5d 373d
00000010: aa35 44bd d517 38bd ec8e 8d3b 89b7 01be
00000020: 59a0 4d3d b79f 99bd c4c4 d1bd 7588 c43c
00000030: d6e4 1bbd 3e58 96bc 4dc9 2a3d 393e 2dbe
00000040: 32cd 71be bc0d 86be c445 73be 0734 00be
00000050: 58fd c7bd 1f02 8dbc 8100 55be 1279 12be
00000060: 09c3 59be 8936 41bd 93e0 a03b be53 e8bd
00000070: 6491 09be 51b9 693d aa96 b4bd 1fdc 1ebd
00000080: 46d2 00bd 4a8f 4abe 3838 1ebd 3c0d 653d
00000090: 933b b53d 0b4d cabd a5a4 d33d 1bca 1c3e
000000a0: a5e7 863d f828 bb3d b71b 003e 57cc d03a
000000b0: ebec 7ebd 9a9a 8abe cac9 aabe 652b e4be
000000c0: e587 8bbe 27b4 9cbe 8bce 8abe fc28 44be
000000d0: f25c 39be 5367 3abe 36db f7bd 6a46 2ebe
000000e0: aade 1fbd 4bbe f8bc d601 00bd e846 ecbb
000000f0: 898c 133e 57bc bc3d 4c5f 99bd ba1f 223d
00000100: cdce 653e 42ca 243e 85bc b33d 0938 143e
00000110: a2c2 633e 98dc 833e 9ec3 563e 3b4a bc3b
00000120: feb0 cabd 2626 f1bd c249 70be fcbb f2bd
00000130: ceea f3be 9db0 cabe d023 babe f206 92be
00000140: 7999 93be 350b 5fbe 2fd2 35be ebfb 70bd
00000150: 9398 91bc bad7 57be 5443 2bbe 6301 69be
00000160: 8a03 be3c aee1 bcbd c3e4 10be c6b7 d6bd
00000170: 924b 8cbd a395 02bb e009 9ebd df48 71bd
00000180: d908 6b3c 75e7 c43d 9824 353e e349 f73c
00000190: e6a1 163d ced1 bdbd 69af b9bd 67f4 79be
000001a0: dc3a 5cbe 9418 a2be c9ba b6be 0e28 3abe
000001b0: 2b53 99be e81e 2ebe 0944 32be 52a0 db3c
000001c0: e70c dabd c46e 03be 997d 08bd 806a 6cbe
000001d0: a65e 1dbe f8c1 82bd 54be 8cbd b0ae a9bd
000001e0: 806c 5fbd 6d2f 8dbd 63e8 00bd ae05 073c
000001f0: 1a52 fa3c 397a a9bc fa92 7cbc 02fd 21bb
00000200: f3d9 72bd 8bae 17bd ef80 aabd aa5c d2bd
00000210: f9a5 97bd 9d8b 03be c90e ffbd 6b82 6bbe
00000220: dbe8 20be 683b f9bd 3ec5 47be 3d38 38be
00000230: ccfc 4abe 02b9 2bbd 8d62 a3bd 80f0 cbbd
00000240: b0c8 f1bd a81f 72bd adc2 85bd 012a 4fbd
00000250: 9050 cebc 9c27 5f3b 1fa3 93bd b10a 71bd
00000260: 462e 3cbc 42c1 d73c 13f6 dfba 24ce e8bc
00000270: 9962 e7bc 1a01 8bbc 0473 45bd d614 0cbd
00000280: 0ef7 edbc 000f 9fbd 31f3 44bd 92cf 84bd
00000290: f179 febd e032 c7bd 4661 8ebd c615 ddbd
000002a0: 8b40 54bd d82e cebd 997a e8bd c720 86bc
000002b0: 451a 92bb 0005 e2bc fb18 90bc 19e3 823b
000002c0: 6c5a 73bc 2b9a 34bc 3a06 d3bc 8373 3ebb
000002d0: c4e5 c43c 66af edbc 14f7 033c 5e54 2a3c
000002e0: 4742 503d d73a c23c 3d62 d4bb 63cc f4bc
000002f0: d4bf 113d e54f 903b 952f 343d 9fd9 0cbd
00000300: f019 0fbd ea29 edbc 8250 babd 80db 87bd
00000310: 4563 10bd 1a49 ab3b a437 fa3a 2142 57bc
00000320: a493 4e3d 8095 a33b 5ac6 a8bc ffc6 6a3d
00000330: 1fbc 48bc f32d 22bc f202 f0bb a5a1 933c
00000340: e955 403d e634 483d ae59 283d fbe3 cf3d
00000350: b5f0 f43d 664d ac3d 32fb 7e3c 4120 7e3d
00000360: 11cb 793d dd9f aa3d d394 b73c 05bf 083c
00000370: 71ac 073d 9dc3 0a3c 132f 923d c427 8d3c
00000380: a4b8 683c 35b1 8dbd 7fb1 3f3c d65f 463d
00000390: dba7 d73c 6f80 a3bc 86a4 0d3c eeab c33c
000003a0: 82b4 7a3c 611a 21bd 9001 38bd 5be0 713c
000003b0: 95d5 b53d 360e 953d 5832 0b3d aea6 49bb
000003c0: f34d f53c 9765 0ebc 3e51 873d 7758 9e3c
000003d0: 1168 033e aac3 793d b612 9c3d 4132 b53d
000003e0: d7b1 803d 6320 6a3d 0e2b 083e ac0d d43d
000003f0: cd3a 263d bf49 0e3d 1875 6c3d d69e 7b3d

linear_layers.0.bias f4 [56]
-0.12878071 -0.24842344 0.14966579 -0.17007728 -0.20861124 -0.18505551 -0.14684613 -0.018702067
-0.25898454 -0.19666618 -0.26570812 0.18364155 -0.11284112 0.085919105 -0.12073862 -0.21503237
-0.2228855 0.010982491 0.20283924 -0.1071566 -0.24135797 -0.23319171 -0.15766962 -0.21347985
-0.2321067 -0.10810653 -0.18739705 -0.043901905 -0.30323893 -0.43547833 -0.21582966 -0.28897747
0.010363529 -0.24115586 -0.09619816 -0.09919914 -0.11141567 -0.18702751 -0.11654397 0.005137572
0.109007165 0.09497973 -0.11505187 -0.14079818 -0.089224085 0.12128119 -0.12804267 -0.18347307
0.10677892 -0.10306094 -0.1584871 -0.2040651 -0.122148424 -0.25071764 -0.16255768 0.38894686
00000000: 17df 03be b762 7ebe fd41 193e bd28 2ebe
00000010: 2f9e 55be 317f 3dbe d55e 16be 1435 99bc
00000020: 9f99 84be dc62 49be e50a 88be 880c 3c3e
00000030: 3f19 e7bd 5bf6 af3d cf45 f7bd 7231 5cbe
00000040: 193c 64be e8ef 333c 17b5 4f3e eb74 dbbd
00000050: 8b26 77be cfc9 6ebe 2574 21be 769a 5abe
00000060: 61ad 6dbe f566 ddbd 03e5 3fbe 7cd2 33bd
00000070: 2242 9bbe 04f7 debe 7302 5dbe dbf4 93be
00000080: cbcb 293c 90f1 76be 8a03 c5bd eb28 cbbd
00000090: e62d e4bd 2484 3fbe 9bae eebd 1459 a83b
000000a0: 263f df3d bc84 c23d 51a0 ebbd 662d 10be
000000b0: 1ebb b6bd 4662 f83d 9e1d 03be 5de0 3bbe
000000c0: e8ae da3d 9d11 d3bd 714a 22be 71f6 50be
000000d0: f428 fabd 105e 80be 8575 26be 0b24 c73e

linear_layers.1.weight f4 [56, 56]
-0.44124442 -0.057127636 -0.10299884 0.025212683 0.07839852 -0.05597698 -0.012893633 -0.63460886
-0.110288724 -0.12537478 -0.07157729 -0.0782227 -0.12017714 -0.43024585 -0.02088122 -0.34282988
-0.10882304 -0.37977847 -0.10194557 0.00071709126 0.04194328 -0.10777978 -0.03141593 -0.11077415
-0.048452567 -0.04498397 0.043304656 -0.24599391 -0.08853578 -0.1016135 0.10508984 -0.101443835
-0.031657483 0.0299699 0.11087779 -0.33746704 0.031314585 -0.11924651 -0.045102984 -0.33479103
-0.2809041 -0.13090502 0.07637726 0.057862014 0.10762541 0.077679045 -0.10498764 0.14256255
-0.18884213 -0.06617865 -0.13629916 0.02172679 -0.03391161 0.0941346 -0.03241506 0.04230322
-0.4237805 -0.047345653 -0.43344185 0.08302294 -0.0109826885 -0.12487637 0.042510588 -0.8854068
-0.029839884 0.023126157 0.003518423 -0.4989672 0.04485783 -0.5283129 0.0051681064 -0.364838
-0.012683267 -0.5312185 -0.2859097 0.12630433 0.041475207 -0.00697939 0.12520516 -0.10641345
-0.053668633 0.03858484 -0.020236984 -0.51505035 -0.008405989 -0.0796051 0.08635778 -0.029607935
-0.32515028 -0.02701256 0.033049062 -0.88587314 0.050182536 0.07107257 0.017436592 -0.47553053
-0.6362029 -0.5217431 0.10190924 0.05089685 0.034804147 -0.21149749 -0.13178527 0.058096208
-0.264423 -0.124540284 0.10208734 0.04584612 -0.088836476 0.114544585 0.104685575 -0.3850886
-0.4756013 -0.018373715 -0.5852203 0.11556285 0.0036037476 0.039007418 -0.01404653 -0.90580136
0.035779636 -0.056529243 -0.08418738 -0.26757896 -0.0002452591 -0.73681635 -0.05213676 -0.37973425
-0.10329045 -0.50299567 -0.3544382 0.032099735 0.07437348 -0.094031684 0.11992634 0.03965302
0.09303484 -0.080835015 0.025892451 -0.4219373 -0.02284494 -0.0026955637 -0.05196402 -0.10962115
-0.26575422 -0.0893027 0.080494486 -0.6431891 0.06665981 0.07993175 0.0010450322 -0.20719208
-0.24809444 -0.6072494 0.055201463 -0.114658855 0.01534345 -0.27948806 -0.07605729 -0.017247185
-0.3590762 0.01714348 0.064389266 -0.029499352 -0.118145466 0.08451027 -0.09304763 -0.61482537
0.22798453 -0.06334333 -0.23612426 -0.08602593 -0.026593378 -0.024379056 -0.1146108 0.4296536
-0.032811113 0.1317578 0.10083268 -0.22733857 0.08224113 0.18813407 -0.062762804 0.2476358
-0.06897934 0.10558138 -0.34756973 -0.027846111 -0.0067147757 -0.015530051 0.040692125 -0.057371303
-0.055032987 -0.08318419 0.058428522 -0.023969937 -0.05593566 -0.12398202 0.027017528 0.06507648
0.37116936 -0.030123765 -0.09043466 -0.44232166 0.09468969 -0.08507441 -0.10862162 0.23804435
-0.21581185 -0.10484077 -0.03704986 -0.04629607 -0.078885034 -0.23455413 -0.12659155 -0.031861637
0.51196194 0.10331441 -0.032510985 -0.123154454 0.025564123 0.063713506 0.11770917 -0.7747252
-0.42640305 0.023136752 -0.6963741 -0.09114365 0.123941965 0.050556544 -0.049279645 -0.8309566
-4.840104e-05 -0.019195762 -0.019170292 -0.22894055 -0.018780679 -0.5243892 -0.037143297 -0.38196662
-0.0870646 -0.35584134 -0.303006 -0.13033974 -0.02253051 0.03156307 0.11997205 -0.038685296
0.012539223 0.12230034 -0.12579216 -0.52902764 -0.12654133 0.11484514 -0.11470542 0.11861998
00000000: caea e1be abfe 69bd 0ef1 d2bd d48a ce3c
00000010: 678f a03d 1e48 65bd d13f 53bc ba75 22bf
00000020: 0edf e1bd 3f62 00be 1d97 92bd 3933 a0bd
00000030: 6f1f f6bd 2f49 dcbe 180f abbc 6687 afbe
00000040: 9dde debd 5372 c2be d7c8 d0bd 2efb 3b3a
00000050: b7cc 2b3d a5bb dcbd fdad 00bd 8fdd e2bd
00000060: 3376 46bd 1c41 38bd 3960 313d d4e5 7bbe
00000070: 3f52 b5bd bd1a d0bd 5839 d73d c9c1 cfbd
00000080: 47ab 01bd 7083 f53c e513 e33d 7bc8 acbe
00000090: b943 003d 8437 f4bd e8bd 38bd bb69 abbe
000000a0: aad2 8fbe f70b 06be ae6b 9c3d b800 6d3d
000000b0: b66a dc3d 3116 9f3d c303 d7bd ebfb 113e
000000c0: d55f 41be ac88 87bd 0292 0bbe 62fc b13c
000000d0: e6e6 0abd a4c9 c03d a7c5 04bd 2446 2d3d
000000e0: c2f9 d8be 84ed 41bd 17ec ddbe ee07 aa3d
000000f0: bcf0 33bc 2fbf ffbd 951f 2e3d 05aa 62bf
00000100: c672 f4bc 1173 bd3c 5895 663b a178 ffbe
00000110: d8bc 373d 843f 07bf 3859 a93b 0ccc babe
00000120: 7acd 4fbc f0fd 07bf c262 92be ec55 013e
00000130: e8e1 293d 5eb3 e4bb c835 003e 4bef d9bd
00000140: a4d3 5bbd 230b 1e3d 08c8 a5bc 57da 03bf
00000150: 46b9 09bc 0008 a3bd 59dc b03d 578c f2bc
00000160: 197a a6be 7249 ddbc 745e 073d 95c8 62bf
00000170: 348c 4d3d 7f8e 913d 2fd7 8e3c bd78 f3be
00000180: 31de 22bf f590 05bf cbb5 d03d 3779 503d
00000190: cb8e 0e3d cc92 58be b8f2 06be 4af6 6d3d
000001a0: 7462 87be fa0e ffbd 2b13 d13d 24c9 3b3d
000001b0: e6ef b5bd 5a96 ea3d 6465 d63d 552a c5be
000001c0: 0382 f3be 7984 96bc ffd0 15bf 37ac ec3d
000001d0: da2c 6c3b 3ec6 1f3d 6b23 66bc 99e2 67bf
000001e0: ab8d 123d 358b 67bd 6f6a acbd 1c00 89be
000001f0: 1f96 80b9 ff9f 3cbf 5b8d 55bd 876c c2be
00000200: f289 d3bd 53c4 00bf ec78 b5be 037b 033d
00000210: 2051 983d af93 c0bd f19b f53d 356b 223d
00000220: 0d89 be3d d48c a5bd 681c d43c 2a08 d8be
00000230: 5025 bbbc 0ea8 30bb 39d8 54bd 0e81 e0bd
00000240: f010 88be 55e4 b6bd 4bda a43d 0aa8 24bf
00000250: f084 883d 42b3 a33d 76f9 883a 292a 54be
00000260: 780c 7ebe b274 1bbf ee1a 623d 43d2 eabd
00000270: 1863 7b3c 0f19 8fbe edc3 9bbd f849 8dbc
00000280: d6d8 b7be 7c70 8c3c 85de 833d a0a8 f1bc
00000290: 40f6 f1bd b813 ad3d c18f bebd 3265 1dbf
000002a0: c774 693e 26ba 81bd 8fca 71be 5d2e b0bd
000002b0: 5bda d9bc 96b6 c7bc 11b9 eabd 8ffb db3e
000002c0: f264 06bd 84eb 063e 5d81 ce3d 71cb 68be
000002d0: 0a6e a83d 38a6 403e c989 80bd 3d94 7d3e
000002e0: 0a45 8dbd 0d3b d83d a9f4 b1be 871d e4bc
000002f0: 9f07 dcbb c171 7ebc c9ac 263d 2cfe 6abd
00000300: 456a 61bd 795c aabd bf52 6f3d 9a5c c4bc
00000310: ca1c 65bd 49ea fdbd dd53 dd3c d146 853d
00000320: e909 be3e 1dc6 f6bc cf35 b9bd fc77 e2be
00000330: abec c13d 7e3b aebd 0375 debd e6c1 733e
00000340: c8fd 5cbe c2b6 d6bd 98c1 17bd f3a0 3dbd
00000350: 7a8e a1bd f52e 70be 37a1 01be 5981 02bd
00000360: f00f 033f 8196 d33d 3d2a 05bd 6738 fcbd
00000370: da6b d13c 3a7c 823d 8111 f13d 6454 46bf
00000380: 8051 dabe 4989 bd3c 9345 32bf 86a9 babd
00000390: 49d5 fd3d 6114 4f3d 74d9 49bd 92b9 54bf
000003a0: 3902 4bb8 6e40 9dbc 040b 9dbc 646f 6abe
000003b0: f0d9 99bc 5f3e 06bf 9223 18bd 2191 c3be
000003c0: ed4e b2bd d630 b6be 9a23 9bbe c877 05be
000003d0: e791 b8bc 4748 013d e8b3 f53d 7974 1ebd
000003e0: 5071 4d3c 9a78 fa3d a9cf 00be 5b6e 07bf
000003f0: 0d94 01be ee33 eb3d adea eabd 08ef f23d

linear_layers.1.bias f4 [56]
-0.20915762 -0.1818411 -0.43959972 -0.009030898 -0.4590978 -0.1861269 -0.5534382 -0.25487655
0.12665083 0.17130925 0.1715358 -0.4353037 0.06906985 -0.052401002 -0.18534274 -0.3881495
-0.0206866 -0.4611383 -0.38980097 -0.4320383 -0.48722976 -0.24118215 -0.26813146 0.0055886726
-0.1993474 -0.45193392 -0.16193064 -0.31438085 -0.09444834 -0.16448739 -0.42071286 -0.6070771
-0.14635688 -0.02058095 -0.5081594 0.016362138 -0.27906367 -0.38585657 -0.2686279 -0.002992928
0.026493262 -0.20244138 -0.113694355 -0.064130045 0.012388915 0.023478674 -0.36983854 -0.21837346
0.027235396 0.043458376 -0.21372409 -0.15811187 -0.24418603 -0.14024076 -0.31088454 -0.41697985
00000000: 6a2d 56be 8e34 3abe 3713 e1be 55f6 13bc
00000010: de0e ebbe 0d98 3ebe 20ae 0dbf 2e7f 82be
00000020: c1b0 013e b16b 2f3e 15a7 2f3e 20e0 debe
00000030: 7e74 8d3d 6fa2 56bd 7dca 3dbe 88bb c6be
00000040: f276 a9bc 521a ecbe fe93 c7be 2034 ddbe
00000050: 2e76 f9be 74f8 76be 8748 89be 2f21 b73b
00000060: ba21 4cbe e263 e7be 25d1 25be 87f6 a0be
00000070: 226e c1bd 626f 28be ad67 d7be 6869 1bbf
00000080: 94de 15be 6199 a8bc bc16 02bf e409 863c
00000090: 6fe1 8ebe fe8e c5be 9989 89be 0025 44bb
000000a0: 6608 d93c cb4c 4fbe 96d8 e8bd 9d56 83bd
000000b0: e0fa 4a3c 5956 c03c 7a5b bdbe 4b9d 5fbe
000000c0: c41c df3c 6901 323d 7dda 5abe 14e8 21be
000000d0: e70b 7abe 469b 0fbe 422c 9fbe 627e d5be

linear_layers.2.weight f4 [56, 56]
0.028541738 0.03504279 0.061235443 -0.79909307 -0.11951575 -0.28701234 0.047247227 -0.040955257
-0.82277125 0.0014771641 -0.815745 -0.07885025 -0.98589534 -0.48140824 0.10709543 0.043579567
0.12931821 0.04299784 -0.10864674 -0.028485127 0.09822362 0.055941015 -0.0062586903 -0.48946968
-0.3249407 -0.07850227 0.2478508 0.008018964 -0.34355035 -0.012097972 -0.13078395 0.025425859
0.10355434 -0.47087422 -0.0057086004 -0.76694596 0.016457653 -0.08622804 -0.06850377 -0.7457456
-0.33997822 -0.29011208 0.11967323 -0.44470486 0.08611044 -0.11025939 -0.018093666 -0.32148653
-0.6017901 0.1286005 0.16411197 -0.080030225 -0.036307327 -0.096566215 -0.25978544 0.08040791
-0.057167213 -0.064719856 -0.1174631 -0.66177636 -0.12842624 -0.19366111 -0.039354563 -0.00818792
-0.3248459 -0.06521977 -1.243102 -0.078090854 -0.6176673 -0.09140285 -0.10272692 -0.19925156
-0.4558794 -0.09893144 -0.045704693 0.09404691 -0.07236123 -0.061947208 -0.081377536 -1.0901041
0.09724469 -0.113136835 -0.18273382 0.02019293 -0.30704316 0.33848485 -0.2258119 0.121127315
-0.13323686 0.03162061 0.039652295 -0.8699276 -0.17261745 0.17040452 0.03982419 -1.1512208
-0.1739266 -0.3784278 0.14170362 0.036748484 -0.43724743 0.39930117 -0.08112173 -0.31621706
0.3119394 0.124052085 -0.2765871 -0.2009119 -0.28971404 -0.3860255 -0.53832924 0.036605507
-0.117666066 0.05681146 -0.107909456 -0.3726614 0.13539167 0.006812756 -0.040778548 -0.06728096
-0.6813087 -0.6453867 -0.4951419 -0.014407729 0.268046 0.091873646 -0.10330493 -0.14912845
-0.059900723 -0.024784071 -0.11372632 -0.07170131 0.06499116 0.10204333 0.06350354 -0.2991574
-0.1164002 -0.09226565 -0.015231857 -0.011621351 -0.21601526 -0.25141945 0.133178 -0.079614565
0.002530366 -0.23671667 0.078615025 -0.9501681 -0.017490374 0.11531774 0.012271026 -0.5322412
-0.42882308 0.061531384 -0.15043443 -0.33141854 0.013520639 -0.30985373 0.08471164 -0.09006767
-0.60473776 -0.42129326 -0.1736438 -0.23773347 -0.0087739825 -0.07315653 -0.12789603 -0.021176942
0.06602121 0.025240015 0.045168407 -0.8449342 0.07610909 -0.39578953 0.11606803 0.013470614
0.14296295 -0.052159972 -0.49256712 -0.081449814 -0.63691986 -0.50612396 -0.037794605 -0.24789847
-0.39975953 0.13338034 -0.045710202 0.14915015 0.027688416 0.06382247 -0.17607017 -0.86787957
0.15454987 0.043954916 -0.13105807 -0.013801633 -0.20965654 0.2003509 -0.11750443 -0.04257652
-0.11629351 0.35292324 0.048780892 -0.6727591 -0.025351988 0.18984775 -0.13905849 -0.8985737
0.2588186 -0.5786291 0.22321747 0.31162545 -0.6248924 0.23249902 -0.08549549 -0.13832338
0.35276845 0.35787234 -0.10546217 -0.32679784 -0.24364547 -0.38929945 -0.43318146 -0.13280751
0.19565095 -0.06564744 -0.00056354265 -0.6985197 -0.08822929 -0.23268186 0.016077954 -0.096112005
-0.2574865 -0.20632657 -1.1943383 -0.10828982 -0.4981374 -0.2988735 0.023236873 0.014182334
-0.21224917 -0.08812767 -0.12735152 0.088013485 0.087597355 -0.09067153 -0.08973626 -0.7307033
-0.18569595 -0.08299208 0.23058991 0.0134494705 -0.055030085 -0.058958452 -0.14919066 0.0849534
00000000: 5dd0 e93c 0789 0f3d 04d2 7a3d 5d91 4cbf
00000010: acc4 f4bd 48f3 92be 4f86 413d b3c0 27bd
00000020: 23a1 52bf 679d c13a aad4 50bf 3d7c a1bd
00000030: a363 7cbf 247b f6be d954 db3d 7d80 323d
00000040: fe6b 043e 811e 303d 2f82 debd a459 e9bc
00000050: 7729 c93d 6822 653d b315 cdbb c59b fabe
00000060: a15e a6be ccc5 a0bd 9acc 7d3e f961 033c
00000070: d5e5 afbe 9336 46bc 3aec 05be e449 d03c
00000080: 4c14 d43d 6d16 f1be 360f bbbb 9256 44bf
00000090: 33d2 863c 5498 b0bd b44b 8cbd 2fe9 3ebf
000000a0: a011 aebe 9289 94be 3d17 f53d 5bb0 e3be
000000b0: ac5a b03d adcf e1bd 2b39 94bc e299 a4be
000000c0: ea0e 1abf d9af 033e f80c 283e e3e6 a3bd
000000d0: feb6 14bd 82c4 c5bd 9902 85be e7ac a43d
000000e0: 2b28 6abd d88b 84bd 7e90 f0bd 2d6a 29bf
000000f0: 2b82 03be 194f 46be 4032 21bd a026 06bc
00000100: 3452 a6be f191 85bd f71d 9fbf 19ee 9fbd
00000110: 721f 1ebf 6b31 bbbd 7e62 d2bd 9a08 4cbe
00000120: 0669 e9be 919c cabd d834 3bbd ab9b c03d
00000130: 2032 94bd 5bbc 7dbd 44a9 a6bd 8888 8bbf
00000140: 3928 c73d 49b4 e7bd 931e 3bbe a56b a53c
00000150: c334 9dbe e34d ad3e 3c3b 67be 9911 f83d
00000160: 3e6f 08be 9d84 013d 726a 223d 93b3 5ebf
00000170: a1c2 30be 867e 2e3e b11e 233d 345b 93bf
00000180: d119 32be 4ac1 c1be c11a 113e 9485 163d
00000190: e5de dfbe 3471 cc3e 2623 a6bd 34e7 a1be
000001a0: 85b6 9f3e 050f fe3d d39c 8dbe d9bb 4dbe
000001b0: 6655 94be 22a5 c5be f2cf 09bf a8ef 153d
000001c0: e8fa f0bd 22b3 683d a2ff dcbd 7acd bebe
000001d0: 1da4 0a3e 8a3d df3b 6807 27bd 9aca 89bd
000001e0: 3f6a 2ebf 1038 25bf 3d83 fdbe 650e 6cbc
000001f0: 533d 893e 4028 bc3d 8991 d3bd 21b5 18be
00000200: 765a 75bd f707 cbbc 58e9 e8bd 23d8 92bd
00000210: 161a 853d 18fc d03d 250e 823d 292b 99be
00000220: 3a63 eebd c6f5 bcbd 0a8f 79bc 7b67 3ebc
00000230: 1b33 5dbe 0dba 80be d05f 083e f60c a3bd
00000240: 7fd4 253b db65 72be ea00 a13d 373e 73bf
00000250: f947 8fbc b52b ec3d 6a0c 493c f640 08bf
00000260: b38e dbbe 5508 7c3d 7c0b 1abe b1af a9be
00000270: ac85 5d3c 26a5 9ebe 4c7d ad3d 6675 b8bd
00000280: 18d0 1abf c0b3 d7be aecf 31be 6770 73be
00000290: c0c0 0fbc 17d3 95bd 2df7 02be 447b adbc
000002a0: 2136 873d 26c4 ce3c 8202 393d 9c4d 58bf
000002b0: 15df 9b3d eda4 cabe 13b5 ed3d dab3 5c3c
000002c0: e164 123e b2a5 55bd c231 fcbe 29cf a6bd
000002d0: 2e0d 23bf 5791 01bf 84ce 1abd 19d9 7dbe
000002e0: 48ad ccbe db94 083e 9f3a 3bbd d1ba 183e
000002f0: d1d2 e23c 5bb5 823d bd4b 34be 5b2d 5ebf
00000300: 5242 1e3e 120a 343d 1634 06be 3f20 62bc
00000310: 34b0 56be c928 4d3e 2aa6 f0bd b864 2ebd
00000320: 4b2b eebd 5bb2 b43e 79ce 473d f139 2cbf
00000330: f9ae cfbc 7367 423e 5965 0ebe ed08 66bf
00000340: df83 843e 0921 14bf 1f93 643e 5f8d 9f3e
00000350: f3f8 1fbf 3914 6e3e 4218 afbd a5a4 0dbe
00000360: 119e b43e 0b3b b73e 8dfc d7bd 0c52 a7be
00000370: 337e 79be 4252 c7be f6c9 ddbe b1fe 07be
00000380: b958 483e 2a72 86bd b5ba 13ba 30d2 32bf
00000390: 8fb1 b4bd 2744 6ebe eab5 833c 5fd6 c4bd
000003a0: 45d5 83be 4647 53be 14e0 98bf 0ec7 ddbd
000003b0: de0b ffbe f305 99be 415b be3c 055d 683c
000003c0: d957 59be 487c b4bd 7068 02be 6a40 b43d
000003d0: 3e66 b33d ffb1 b9bd a5c7 b7bd 5f0f 3bbf
000003e0: 1427 3ebe c0f7 a9bd c31f 6c3e 2b5b 5c3c
000003f0: 3a67 61bd 6b7e 71bd 70c5 18be 0cfc ad3d

linear_layers.2.bias f4 [56]
-0.3157939 -0.011018564 -0.21578665 0.0148092285 -0.2029443 0.010362062 -0.39323634 -0.25398347
-0.30934918 -0.028438408 -0.16626482 -0.117002495 -0.103641436 -0.021971712 -0.03403384 -0.19520636
-0.14603472 -0.06923757 -0.5089057 -0.19347462 -0.38477004 -0.2215645 -0.14088345 -0.1630245
-0.20143235 -0.32021615 0.030338082 -0.29531953 0.02828922 -0.111253306 -0.40197322 -0.26887026
0.04617662 -0.09113158 -0.23228528 -0.33759397 -0.34007823 -0.03517167 -0.028875269 -0.13774706
-0.14614356 -0.3891949 -0.40890437 -0.34434643 -0.16068074 -0.1711715 -0.43343115 -0.17971711
-0.14813347 0.0420052 -0.19362287 -0.15418573 -0.124134816 -0.16351539 -0.21038951 -0.19899979
00000000: bdaf a1be 3587 34bc 2df7 5cbe 68a2 723c
00000010: a1d0 4fbe a3c5 293c 4656 c9be 1f0a 82be
00000020: 0463 9ebe aaf7 e8bc 5341 2abe 019f efbd
00000030: f641 d4bd 05fe b3bc 1167 0bbd 2de4 47be
00000040: 208a 15be 6dcc 8dbd a547 02bf 361e 46be
00000050: 9400 c5be cee1 62be c043 10be e5ef 26be
00000060: 4844 4ebe 5ff3 a3be 9287 f83c 1f34 97be
00000070: cbbe e73c c6d8 e3bd 6fcf cdbe 5da9 89be
00000080: b223 3d3d 32a3 babd 31dc 6dbe 1ed9 acbe
00000090: bc1e aebe 2b10 10bd d48b ecbc 910d 0dbe
000000a0: a8a6 15be 8e44 c7be ea5b d1be 2d4e b0be
000000b0: 7e89 24be 9547 2fbe b0ea ddbe c307 38be
000000c0: 4db0 17be a50d 2c3d 1345 46be dde2 1dbe
000000d0: 653a febd 9470 27be 5970 57be 9ac6 4bbe

linear_layers.3.weight f4 [10, 56]
-0.19011615 -0.641502 0.06518139 -1.3686919 -0.36915106 0.6135537 -0.011698411 -0.10096594
0.10140089 -0.72757745 -0.29334152 -0.3953582 -0.23667762 -0.5318162 -0.61767375 -0.21565732
-0.2093777 -0.8237988 -0.062937595 -0.11211674 -0.41381612 0.0076224203 0.20410763 -0.0450527
-0.06624437 0.04529737 -0.6036078 -0.08663755 -0.1427793 -0.05117864 -0.06354328 -0.02090908
0.14792293 -0.6658606 -0.11274765 0.10307703 0.20129657 -0.3605371 -1.0111402 -0.8326386
-0.35627365 0.003597467 -0.009211767 0.014294572 0.011244046 0.058033016 -0.033036932 -0.20166095
0.2620493 -1.1076856 0.10135616 0.2707392 0.21921343 -0.06037951 -0.13991031 0.085569695
-0.07555505 -0.6657996 -0.19356787 -0.72958094 0.072020955 -0.9092474 -0.12720785 -0.12269
0.077365465 -0.7080835 0.07606851 0.28465745 -0.44199404 -1.096274 -0.4798705 0.1898468
0.117507406 0.22735818 -0.033887736 0.002327204 -0.33698735 -0.024389742 -0.17981552 0.23057649
0.12663119 -0.04399066 -0.07904576 0.21667665 -0.30020234 -0.8335861 -0.11448678 0.13192399
-0.69010735 0.6098157 -0.1275648 0.08789381 -0.1944571 0.2544018 0.467872 -1.0267704
-0.09815969 0.103080034 0.113049984 -0.01071529 -0.04734493 0.112164006 0.012508739 0.10303742
-0.20007476 -0.60116106 -0.02336325 -0.15430924 -0.23946634 -0.10026063 -0.051861536 -0.12069125
-0.33024856 -0.6147539 0.20981127 -0.78902215 -0.35112438 0.14075848 0.06033337 -0.023116162
0.0234719 0.16274466 0.20396806 -0.5806366 0.3914651 0.25023654 -0.11356679 0.25225234
-0.1815753 -0.084631346 0.06709042 -0.17081456 -0.24932551 -0.034139015 0.044951487 -0.07840424
0.10319874 0.13152441 -0.9752668 0.002854579 0.26172292 -0.14295855 0.052648112 -0.017734021
-0.99652815 -0.921701 -0.11631379 -0.118157275 0.039947603 -0.1459787 0.2931786 0.13414025
-0.30427143 0.038410213 -0.095264904 0.09658732 0.03945142 -0.019490175 0.07260068 -0.049639452
0.28368863 -1.3441777 0.08918838 0.153441 -0.43987545 0.24694706 0.013238189 -0.057993572
-0.23851809 0.25315863 -0.100788705 0.2810468 0.060989175 -0.8230272 0.12732024 -0.02965011
0.103253715 -0.4403705 -0.21022642 -0.38179305 0.2655633 -0.6708524 -0.48715797 0.015275708
0.011826717 0.2768564 0.018123366 -0.13382827 -0.19091299 0.074358694 -0.074368544 0.041515365
-0.19137606 0.104979075 -0.43212503 -0.0052520223 0.21087258 0.3255524 -0.0092132175 0.1291591
-0.6132186 -0.7719173 -0.13155913 0.019185469 0.14022227 -0.44867408 -0.5593932 -1.1325523
-0.1651391 0.039669625 0.028514672 -0.024497474 -0.10968315 -0.17652239 -0.07148866 -0.18299635
0.06883757 -0.70795137 0.053569067 -0.10253989 -0.2293203 -0.046041977 0.0005423547 -0.06572133
-0.07746661 -0.88501287 0.14460486 -1.2036436 -0.2907957 -0.11985738 -0.09346169 0.020973492
-0.0690617 0.27500156 -0.070618965 -0.021803202 -1.0743139 0.22710943 0.3209949 0.17081566
0.12978093 -1.0459582 -0.07586004 0.27340308 0.13083151 0.08601659 -0.2143919 0.13341334
-0.16807452 -0.014157575 0.21744996 0.048863586 -0.5680454 -0.6561153 0.013589112 -0.07411916
00000000: cfad 42be 7a39 24bf d27d 853d 4c31 afbf
00000010: 5e01 bdbe db11 1d3f b1aa 3fbc 3bc7 cebd
00000020: 45ab cf3d 8442 3abf dc30 96be 646c cabe
00000030: 9e5b 72be 1b25 08bf de1f 1ebf 46d5 5cbe
00000040: 1c67 56be 7ae4 52bf 6de5 80bd 769d e5bd
00000050: b5df d3be 7fc5 f93b 9701 513e 2e89 38bd
00000060: 21ab 87bd bc89 393d 0a86 1abf 076f b1bd
00000070: bd34 12be b2a0 51bd fb22 82bd 8549 abbc
00000080: 1c79 173e d775 2abf 3de8 e6bd 0d1a d33d
00000090: b020 4e3e 5298 b8be 0b6d 81bf ce27 55bf
000000a0: 8069 b6be 7bc3 6b3b f4ec 16bc c833 6a3c
000000b0: f238 383c 07b4 6d3d bc51 07bd 3580 4ebe
000000c0: 532b 863e a4c8 8dbf d293 cf3d 549e 8a3e
000000d0: 7c79 603e 8150 77bd a644 0fbe 2a3f af3d
000000e0: 9bbc 9abd d871 2abf a836 46be d1c5 3abf
000000f0: b97f 933d 70c4 68bf c642 02be e544 fbbd
00000100: c971 9e3d f644 35bf cfc9 9b3d 9fbe 913e
00000110: 0b4d e2be b552 8cbf 96b1 f5be 3367 423e
00000120: b9a7 f03d 95d0 683e decd 0abd 0184 183b
00000130: 9b89 acbe ffcc c7bc 8f21 38be 3e1c 6c3e
00000140: 9bab 013e 8d2f 34bd bee2 a1bd 7ce0 5d3e
00000150: 1fb4 99be e665 55bf 0b78 eabd 1517 073e
00000160: e0aa 30bf e21c 1c3f 59a0 02be ab01 b43d
00000170: c31f 47be f440 823e eb8c ef3e 366d 83bf
00000180: f307 c9bd a01b d33d c086 e73d 2f8f 2fbc
00000190: c2ec 41bd 3eb6 e53d 74f1 4c3c 4805 d33d
000001a0: 66e0 4cbe b1e5 19bf 4964 bfbc 3e03 1ebe
000001b0: aa36 75be 7255 cdbd c36c 54bd f92c f7bd
000001c0: 5716 a9be 8360 1dbf c4d8 563e 5bfd 49bf
000001d0: 93c6 b3be fe22 103e 2020 773d 1b5e bdbc
000001e0: 2448 c03c 89a6 263e 01dd 503e 9aa4 14bf
000001f0: 1d6e c83e 011f 803e b595 e8bd 3827 813e
00000200: e0ee 39be 3353 adbd b466 893d 03ea 2ebe
00000210: 304f 7fbe 5ad5 0bbd 0d1f 383d 6792 a0bd
00000220: dc59 d33d 56ae 063e 16ab 79bf e313 3b3b
00000230: 8c00 863e ba63 12be 8ca5 573d f046 91bc
00000240: 781c 7fbf 99f4 6bbf ed35 eebd 71fc f1bd
00000250: 19a0 233d 717b 15be 811b 963e 105c 093e
00000260: 77c9 9bbe 0754 1d3d 3f1a c3bd 93cf c53d
00000270: d097 213d dca9 9fbc aaaf 943d bd52 4bbd
00000280: a33f 913e 040e acbf 66a8 b63d a31f 1d3e
00000290: 5b37 e1be b1df 7c3e fde4 583c ab8a 6dbd
000002a0: 163e 74be 029e 813e 4f6a cebd 5ee5 8f3e
000002b0: c9cf 793d e9b1 52bf 3d60 023e cae4 f2bc
000002c0: af76 d33d 3e78 e1be 9845 57be 617a c3be
000002d0: eaf7 873e fcbc 2bbf c56c f9be f746 7a3c
000002e0: d9c4 413c 1fc0 8d3e 7477 943c 470a 09be
000002f0: b27e 43be 5f49 983d 894e 98bd 040c 2a3d
00000300: 16f8 43be 45ff d63d 7e3f ddbe 2819 acbb
00000310: fbee 573e ceae a63e 09f3 16bc 4842 043e
00000320: e5fb 1cbf 5f9c 45bf 70b7 06be d82a 9d3c
00000330: 6d96 0f3e 9cb8 e5be 6534 0fbf 79f7 90bf
00000340: 391a 29be 9e7c 223d 9a97 e93c edae c8bc
00000350: 8fa1 e0bd 49c2 34be a668 92bd 6563 3bbe
00000360: b6fa 8c3d 4d3c 35bf 3d6b 5b3d 6f00 d2bd
00000370: f1d2 6abe 8396 3cbd cf2c 0e3a e898 86bd
00000380: d0a6 9ebd 3490 62bf 4c13 143e fe10 9abf
00000390: 2de3 94be c977 f5bd d868 bfbd 9ad0 ab3c
000003a0: 3870 8dbd 01cd 8c3e ada0 90bd a19c b2bc
000003b0: 1e83 89bf 608f 683e 7259 a43e 4dea 2e3e
000003c0: 4be5 043e f5e1 85bf 825c 9bbd 7dfb 8b3e
000003d0: b2f8 053e 7729 b03d 8d89 5bbe 829d 083e
000003e0: ba1b 2cbe 2cf5 67bc 34ab 5e3e 2f25 483d
000003f0: 6c6b 11bf 2cf7 27bf dea4 5e3c c9cb 97bd

linear_layers.3.bias f4 [10]
0.012217092 -0.070385925 -0.044005178 0.027037788 0.0074205603 0.08252552 -0.018621191 -0.12705462
0.1578329 0.0016472855
00000000: 332a 483c 7f26 90bd c63e 34bd 5a7e dd3c
00000010: 2c28 f33b 2403 a93d 788b 98bc 9b1a 02be
00000020: f39e 213e bbe9 d73a
