snn_models/n_mnist_qat_snn/784x16x16x16x16x16x16x16x16x10/model_state_dict.pkl (torch, 84379 bytes, 18 tensors)

linear_layers.0.weight f4 [16, 784]
0	0xbe4de684	-0.20107466
1	0xbe918f2b	-0.2842954
2	0xbea04885	-0.31305328
3	0xbee539a9	-0.44770554
4	0xbec5ef76	-0.38659257
5	0xbebf8887	-0.3740885
6	0xbecbc4a7	-0.3979847
7	0xbed30eb5	-0.41222158
8	0xbec4fcd1	-0.38474134
9	0xbe325e10	-0.17418694
10	0xbe8daa5a	-0.2766903
11	0xbe592465	-0.2120529
12	0xbe2e18ec	-0.17001694
13	0xbe47fced	-0.19530077
14	0xbe8ac80a	-0.27105743
15	0xbe898105	-0.26856247
16	0xbe616651	-0.22011687
17	0xbdeb6a67	-0.11494904
18	0xbdba48c0	-0.09095907
19	0xbe28ea59	-0.16495647
20	0xbe294a75	-0.1653231
21	0xbe1dbf2f	-0.15404962
22	0xbe4b99b4	-0.19882852
23	0xbe88a73d	-0.26690093
24	0xbe6b54ef	-0.22981618
25	0xbe539588	-0.2066251
26	0xbe428abe	-0.18998238
27	0xbe527bc8	-0.20555031
28	0xbe9e01fd	-0.30860892
29	0xbeae31f3	-0.34022483
30	0xbeb76a49	-0.35823277
31	0xbed60a5f	-0.41804788
32	0xbe9283c6	-0.2861616
33	0xbe41ae91	-0.18914248
34	0xbea45dd4	-0.32102835
35	0xbe67036d	-0.225599
36	0xbe60ff42	-0.21972373
37	0xbe7e0a40	-0.24808598
38	0xbe59bf53	-0.2126439
39	0xbe56dcb9	-0.20982637
40	0xbe332b86	-0.17497072
41	0xbe596142	-0.21228507
42	0xbe35668b	-0.17714898
43	0xbe6800e9	-0.22656597
44	0xbe071554	-0.1319173
45	0xbde971ab	-0.113986336
46	0xbdca43dc	-0.098762244
47	0xbd8d3fa8	-0.06896907
48	0xbd9411b6	-0.072299406
49	0xbdf61576	-0.12015812
50	0xbe068f2c	-0.13140553
51	0xbe09ca3d	-0.13456054
52	0xbe188291	-0.14893557
53	0xbe33b602	-0.17549899
54	0xbe8c5e29	-0.27415588
55	0xbe1000cc	-0.14062804
56	0xbe58462e	-0.21120521
57	0xbe67a36b	-0.22620933
58	0xbe63dd7f	-0.22252463
59	0xbea8ab9f	-0.32943437
60	0xbed6b9b5	-0.41938558
61	0xbe9c8b4d	-0.30575028
62	0xbe92911d	-0.28626338
63	0xbe94f11b	-0.290902
64	0xbe66b61c	-0.22530407
65	0xbe545e11	-0.20739008
66	0xbe8e16d1	-0.27751783
67	0xbe5a97f7	-0.21347032
68	0xbe86dcc3	-0.26340303
69	0xbe22c5a1	-0.15895702
70	0xbe7c260c	-0.24623889
71	0xbe493bdc	-0.19651741
72	0xbe09c489	-0.13453878
73	0xbe19934b	-0.14997594
74	0xbdb66fb1	-0.08908022
75	0xbe3dfaf3	-0.18552761
76	0xbd367113	-0.04454143
77	0xbe131ac7	-0.14365683
78	0xbd9664a1	-0.07343412
79	0xbda96125	-0.08270482
80	0xbe0c31d8	-0.13690889
81	0xbe0fb794	-0.14034873
82	0xbdb30e9a	-0.087430194
83	0xbe93ddab	-0.28880057
84	0xbe48fa6f	-0.19626783
85	0xbe6ae471	-0.22938706
86	0xbe8c9081	-0.27453998
87	0xbe762810	-0.2403872
88	0xbe68e142	-0.22742179
89	0xbe5b7b1c	-0.21433681
90	0xbdfecb64	-0.124411374
91	0xbe4c33ad	-0.19941588
92	0xbe2387e0	-0.15969801
93	0xbe85adf8	-0.2610929
94	0xbe6ac07b	-0.22924988
95	0xbe70ca79	-0.23514737
96	0xbe6dd79d	-0.23226781
97	0xbe75f853	-0.2402051
98	0xbe7a7146	-0.24457273
99	0xbe208bdf	-0.15678357
100	0xbdf6559b	-0.12028047
101	0xbe19e493	-0.150286
102	0xbde180e5	-0.11010913
103	0xbdbc4250	-0.091923356
104	0xbd9b9320	-0.07596421
105	0xbdf783be	-0.12085675
106	0xbdb8acd3	-0.090173386
107	0xbd922df1	-0.07137669
108	0xbda4df34	-0.08050385
109	0xbdd93198	-0.106051624
110	0xbdda18b1	-0.10649241
111	0xbe3b3317	-0.18281208
112	0xbe5a0835	-0.21292193
113	0xbe67a616	-0.2262195
114	0xbe6927b7	-0.22769056
115	0xbe4ab033	-0.19793777
116	0xbe50a3ca	-0.2037498
117	0xbe4711fd	-0.19440456
118	0xbe4d1621	-0.20027973
119	0xbe3149c0	-0.1731329
120	0xbe2afc6c	-0.16697854
121	0xbe6d575d	-0.23177858
122	0xbe5f1418	-0.21785009
123	0xbe52c061	-0.20581199
124	0xbe5c0c4a	-0.21489063
125	0xbe72c5cd	-0.23708268
126	0xbe23f7d6	-0.1601251
127	0xbe251fe8	-0.16125453
128	0xbda01124	-0.07815769
129	0xbdaebe41	-0.08532382
130	0xbd48d4a2	-0.049030907
131	0xbd56a294	-0.05240114
132	0xbda9ec08	-0.082969725
133	0xbcc1e411	-0.02366832
134	0xbd0acd49	-0.03388718
135	0xbdc55026	-0.09634428
136	0xbc825bdc	-0.015912943
137	0xbda7795e	-0.08177446
138	0xbe20bc85	-0.15696914
139	0xbdb4b922	-0.08824374
140	0xbe36f5ef	-0.17867254
141	0xbe2959dc	-0.16538185
142	0xbe54178e	-0.2071211
143	0xbe49b747	-0.19698821
144	0xbe30cead	-0.1726634
145	0xbe474cfb	-0.1946296
146	0xbe3166e0	-0.173244
147	0xbe4ad188	-0.19806492
148	0xbe2636f6	-0.16231903
149	0xbe1d5354	-0.15363818
150	0xbe4ad264	-0.1980682
151	0xbe2a0e42	-0.16607001
152	0xbe5ae8e6	-0.21377906
153	0xbe22cb38	-0.15897834
154	0xbe23ca02	-0.15995029
155	0xbde255a7	-0.11051493
156	0xbddc7bdc	-0.10765812
157	0xbdd88caa	-0.105737045
158	0xbd8fc73c	-0.07020423
159	0xbd8a2a33	-0.0674633
160	0xbdb64ac9	-0.08900983
161	0xbdb967a2	-0.090529695
162	0xbd7750dd	-0.06037985
163	0xbd0e3e3e	-0.034727328
164	0xbc7a5676	-0.015279403
165	0xbd76f785	-0.060294647
166	0xbd14c33b	-0.036319
167	0xbe8143d1	-0.25247052
168	0xbe24848d	-0.16066189
169	0xbe509fdf	-0.20373486
170	0xbe255080	-0.1614399
171	0xbe4fa9e0	-0.20279646
172	0xbe38c29e	-0.1804299
173	0xbe5ac59e	-0.21364447
174	0xbe3bd272	-0.18341997
175	0xbe33ec7e	-0.17570683
176	0xbe1f98f6	-0.15585694
177	0xbdf2ceec	-0.118558735
178	0xbe0a70eb	-0.13519637
179	0xbe2813fa	-0.1641387
180	0xbe0d1239	-0.13776483
181	0xbdee351e	-0.11631225
182	0xbe07e478	-0.13270748
183	0xbde955b9	-0.113933034
184	0xbe102acf	-0.1407883
185	0xbde95192	-0.113925114
186	0xbd89c621	-0.06727243
187	0xbdd57a14	-0.10423675
188	0xbd6dc206	-0.058046363
189	0xbd22d40c	-0.039753005
190	0xbd9d8c11	-0.07692731
191	0xbd807d92	-0.06273951
192	0xbd5dee80	-0.05418253
193	0xbd7d6f2c	-0.0618736
194	0xbd62a4b6	-0.05533286
195	0xbd42e420	-0.04758084
196	0xbe42910a	-0.1900064
197	0xbe790661	-0.2431884
198	0xbe5a4641	-0.21315862
199	0xbe0f7930	-0.14011073
200	0xbe5b0a24	-0.21390587
201	0xbe416b18	-0.1888851
202	0xbe0ffe0c	-0.14061755
203	0xbe126e90	-0.14299989
204	0xbe2d5d4d	-0.16930123
205	0xbe0c2cef	-0.13689016
206	0xbe2c846d	-0.16847391
207	0xbe0e3b7b	-0.13889877
208	0xbddc1abb	-0.10747286
209	0xbde74ab0	-0.112935424
210	0xbddb0126	-0.106935784
211	0xbe098b71	-0.13432099
212	0xbda3cc9e	-0.07998012
213	0xbe03773b	-0.12838452
214	0xbda19bcb	-0.07891043
215	0xbd522f60	-0.05131471
216	0xbda730bb	-0.081635915
217	0xbd2e4944	-0.04255034
218	0xbcab622c	-0.020920835
219	0xbd6b2c67	-0.057415392
220	0xbd94058e	-0.07227622
221	0xbdd2e8ba	-0.10298295
222	0xbd599f9a	-0.053130724
223	0xbe2e2589	-0.17006506
224	0xbe579f57	-0.21056877
225	0xbe4c5980	-0.19956017
226	0xbe4b1a82	-0.1983433
227	0xbe125fda	-0.14294377
228	0xbe32cb2d	-0.17460318
229	0xbe434b83	-0.19071774
230	0xbded3ba4	-0.11583641
231	0xbe1b2544	-0.15150934
232	0xbdc62e74	-0.09676829
233	0xbdc40f9d	-0.095732905
234	0xbde64d72	-0.1124524
235	0xbdee3cc7	-0.11632686
236	0xbe085311	-0.13312937
237	0xbdc5ca3a	-0.09657712
238	0xbdb6c476	-0.08924191
239	0xbde05a6d	-0.10954747
240	0xbde1d39a	-0.11026688
241	0xbd8c2018	-0.06842059
242	0xbd9500b9	-0.072755285
243	0xbdabb87b	-0.08384796
244	0xbdc7b8b3	-0.097520255
245	0xbcda9ccf	-0.0266861
246	0xbd90fade	-0.07079099
247	0xbd396133	-0.045258712
248	0xbd421787	-0.04738572
249	0xbdb3d038	-0.08779949
250	0xbdf82f07	-0.12118345
251	0xbe21b785	-0.15792663
252	0xbe27895e	-0.16360995
253	0xbe2f6c32	-0.17131117
254	0xbe51c07e	-0.20483586
255	0xbe32378e	-0.17404005

linear_layers.0.bias f4 [16]
0	0xbe7e5ac1	-0.24839307
1	0xbeb242d8	-0.34816623
2	0xbecb0726	-0.3965389
3	0xbe9cb789	-0.30608776
4	0xbeb220d6	-0.34790677
5	0xbebddb16	-0.37081212
6	0xbe9127ae	-0.28350586
7	0xbec13c4d	-0.37741318
8	0xbef71aca	-0.48262626
9	0xbf039c5c	-0.5141046
10	0xbe98025c	-0.296893
11	0xbed4a8fa	-0.4153517
12	0xbe92c31c	-0.28664482
13	0xbe8aba42	-0.27095228
14	0xbe6e1425	-0.23249872
15	0xbedb8a0e	-0.42878765

linear_layers.1.weight f4 [16, 16]
0	0xbbf02988	-0.0073291697
1	0xbdbbd457	-0.0917136
2	0x3e285492	0.16438511
3	0xbd2b61e9	-0.04184142
4	0x3df4439c	0.11926958
5	0xbe24f6a4	-0.16109711
6	0x3e571f94	0.2100814
7	0x3e3519e8	0.17685664
8	0xbd0b12b9	-0.033953402
9	0xbcec386e	-0.028835502
10	0xbe0cb09c	-0.13739246
11	0xbdb3521d	-0.08755896
12	0xbe0ff068	-0.14056551
13	0xbe8224e2	-0.25418764
14	0xbe571d49	-0.21007265
15	0xbbd0d3c0	-0.006372899
16	0xbe7f5369	-0.24934162
17	0xbe72a740	-0.23696613
18	0x3e578c43	0.210496
19	0x3deebd6a	0.116572216
20	0xbe25ac9a	-0.16179124
21	0x3d35cfb6	0.04438754
22	0xbd2acac4	-0.04169728
23	0x3e6c8bd8	0.23100221
24	0xbe764aac	-0.24051923
25	0xbcf6b759	-0.030116724
26	0xbe49a0b2	-0.19690207
27	0x3e1fb469	0.15596165
28	0xbdb2c82b	-0.08729585
29	0x3e4678b3	0.1938198
30	0x3e354787	0.17703067
31	0xbe543068	-0.2072159
32	0x3decf050	0.115692735
33	0x3e795e78	0.24352443
34	0x3d79108c	0.060806796
35	0x3d9127bf	0.07087659
36	0x3d98748a	0.07444103
37	0xbd6fe5fc	-0.05856894
38	0x3c86d7ff	0.016460417
39	0xbe6ee57b	-0.23329727
40	0xbd4a9624	-0.04945959
41	0xbe60005c	-0.21875137
42	0x3e2ae3bc	0.16688436
43	0xbdd1ce3b	-0.102444135
44	0x3e38fc0e	0.18064901
45	0x3e57db7c	0.2107982
46	0xbe57677e	-0.21035573
47	0xbdd1ab60	-0.10237765
48	0xbe193f88	-0.14965641
49	0xbdf210d7	-0.11819618
50	0xbe51b98a	-0.20480934
51	0x3daafaed	0.083486415
52	0x3dd5e5ef	0.10444247
53	0x3d6afb8e	0.057368807
54	0x3e1b1b9f	0.15147255
55	0x3dd62a58	0.10457295
56	0xbe72ee11	-0.23723628
57	0xbdd1e495	-0.10248677
58	0x3d408ef6	0.04701134
59	0xbdafab79	-0.08577628
60	0x3e501113	0.20319013
61	0x3dcb0251	0.09912551
62	0x3db4059b	0.08790132
63	0xbe4fe496	-0.20302042
64	0xbc7090a1	-0.01468292
65	0xbe7d98bd	-0.24765296
66	0xbe400953	-0.18753557
67	0xbe1349ee	-0.1438367
68	0x3e1e8eaa	0.1548411
69	0xbde527d3	-0.111892365
70	0x3d97ce4b	0.07412394
71	0xbdd225e0	-0.1026113
72	0xbda7f392	-0.08200754
73	0xbe24300b	-0.16033952
74	0x3e4c813b	0.19971173
75	0xbcbd017c	-0.023071997
76	0xbcd6f179	-0.02623819
77	0x3d43770b	0.04772095
78	0xbe571eec	-0.2100789
79	0x3cd61e00	0.026137352
80	0x3ce66f76	0.02812932
81	0xbdd9b734	-0.10630646
82	0x3e66128d	0.22468014
83	0xbdd49f43	-0.10381939
84	0xbdadc9af	-0.08485734
85	0xbe7e72dc	-0.24848503
86	0xbc56243a	-0.0130701605
87	0xbe4767e3	-0.19473223
88	0xbdbacb85	-0.091208495
89	0xbe40f43e	-0.18843171
90	0xbdef51e8	-0.11685544
91	0x3cd0aa8a	0.025471944
92	0x3d814e60	0.06313777
93	0x3e009fd3	0.12560968
94	0x3e051e35	0.12999804
95	0xbe7b7422	-0.2455602
96	0xbc161dc5	-0.009162371
97	0xbe372288	-0.17884266
98	0x3e299355	0.16560109
99	0x3e35309c	0.17694324
100	0x3d175375	0.036944825
101	0xbe3a4da5	-0.18193682
102	0xbde2c508	-0.11072737
103	0xbe75359e	-0.23946235
104	0xbdd43744	-0.103621036
105	0xbe31f24f	-0.1737759
106	0xbe242508	-0.16029751
107	0x3d865dc8	0.06560856
108	0x3e4d33fc	0.20039362
109	0xbe0eb0d4	-0.13934642
110	0x3e4d682c	0.2005927
111	0x3e7f41c2	0.24927428
112	0xbd15f4e1	-0.036610488
113	0xbe78de04	-0.24303442
114	0xbe74db54	-0.23911792
115	0xbe061688	-0.13094532
116	0x3e14dd6e	0.14537594
117	0xbe041d4d	-0.12901802
118	0xbe436be5	-0.19084127
119	0xbda71e3e	-0.08160065
120	0xbe3b3928	-0.18283522
121	0xbcab609f	-0.020920096
122	0xbe2485d7	-0.16066681
123	0x3dd11662	0.10209347
124	0x3e374a28	0.17899382
125	0xbe5c4e7a	-0.21514311
126	0x3d451225	0.048113007
127	0xbd32e618	-0.043676466
128	0xbdd495d1	-0.10380138
129	0x3e19e2f5	0.15027983
130	0xbe70da37	-0.23520742
131	0xbe789911	-0.2427714
132	0xbe0fdf92	-0.14050129
133	0x3dda7d0b	0.10668381
134	0x3c45c76e	0.0120714735
135	0xbac2d718	-0.0014865128
136	0x3b145f63	0.0022639863
137	0xbe1c6d57	-0.15276085
138	0x3bf3d4c7	0.0074411365
139	0x3d6c9f14	0.057768896
140	0x3df7d364	0.121008664
141	0xbd3349ea	-0.04377166
142	0xbe3e7c13	-0.18602018
143	0xbdc90a70	-0.09816444
144	0xbd7b9900	-0.06142521
145	0x3e43ab3e	0.19108292
146	0xbdd7785e	-0.10521005
147	0xbd988913	-0.0744802
148	0xbe830005	-0.25585952
149	0x3e47ea98	0.19523084
150	0xbd7dbb3f	-0.06194615
151	0x3e0e2dfe	0.13884732
152	0x3dea7676	0.11448376
153	0x3e144c0b	0.14482133
154	0x3e73109e	0.23736808
155	0x3de5fe4f	0.11230146
156	0xbe4d7996	-0.20065913
157	0x3d5eb5ab	0.05437247
158	0x3bd664ff	0.0065428014
159	0x3c27b960	0.010237068
160	0xbc8a3e91	-0.016875537
161	0x3dcadd0a	0.09905441
162	0xbe53b3e7	-0.20674096
163	0x3d9f7b5a	0.07787199
164	0xbe1f9a1b	-0.1558613
165	0xbda426f6	-0.08015244
166	0x3e76de1a	0.24108163
167	0x3b4b6524	0.0031035626
168	0x3e1f7fb9	0.15576066
169	0xbde317dc	-0.11088535
170	0x3e2fab39	0.1715516
171	0x3d676f2c	0.056502506
172	0xbd804896	-0.06263845
173	0x3e65d3b7	0.22444044
174	0xbe6d4103	-0.23169331
175	0xbddcf068	-0.10788041
176	0xbe5b54b3	-0.21419029
177	0xbe0609be	-0.13089654
178	0xbe0b74af	-0.1361873
179	0x3d35ade0	0.044355273
180	0xbdd5f3ac	-0.10446867
181	0x3dac86a7	0.084241204
182	0xbe0af85c	-0.13571304
183	0xbd64214c	-0.055695817
184	0xbded80b6	-0.11596815
185	0xbe8308b6	-0.25592583
186	0xbd97e23e	-0.07416199
187	0xbd9f271f	-0.07771134
188	0x3e02e382	0.127821
189	0xbe33b584	-0.17549711
190	0x3de7466f	0.11292731
191	0x3d4724c0	0.048619032
192	0x3dd948e3	0.10609605
193	0xbd91df01	-0.07122613
194	0x3d942916	0.07234399
195	0xbda696e3	-0.08134248
196	0x3e37c08a	0.17944542
197	0xbdaa31e1	-0.08310295
198	0xbdfd7684	-0.12376121
199	0xbe24257f	-0.16029929
200	0x3daa327f	0.083104126
201	0x3e338df2	0.17534617
202	0xbe24d65d	-0.16097398
203	0xbe208992	-0.15677479
204	0xbe448dd2	-0.19194725
205	0x3e4a3409	0.19746412
206	0x3ae6d179	0.0017610035
207	0x3e502962	0.20328286
208	0x3e2a440e	0.16627523
209	0xbd6c4114	-0.05767925
210	0xbe5d898e	-0.21634504
211	0x3e2e770f	0.17037605
212	0x3d423586	0.047414325
213	0xbe14467e	-0.14480016
214	0x3e481ee4	0.19543034
215	0x3e4d8435	0.20069964
216	0x3e5a6f1c	0.21331447
217	0xbe3de9ca	-0.18546215
218	0xbe470d94	-0.19438773
219	0xbddeb117	-0.10873621
220	0x3d9887f3	0.07447805
221	0xbe1f7a0a	-0.15573898
222	0x3e5b0f9d	0.21392675
223	0xbd846748	-0.06465012
224	0xbe5ab896	-0.21359476
225	0x3db1ca56	0.08681171
226	0xbe6e5adc	-0.23276848
227	0x3d4eb618	0.050466627
228	0xbe3a7c80	-0.18211555
229	0xbde0243e	-0.10944413
230	0xbe761257	-0.24030434
231	0xbe6a0aa9	-0.22855629
232	0x3e68bd93	0.22728567
233	0x3e74026b	0.23829047
234	0xbe67fa5c	-0.22654098
235	0xbb42df1a	-0.002973503
236	0xbe71f0ae	-0.23626968
237	0xbe143c46	-0.14476117
238	0xbe41782c	-0.18893498
239	0xbe6a2436	-0.22865376
240	0xbd8b25ac	-0.06794295
241	0x3e5aa9af	0.21353792
242	0xbde53278	-0.11191267
243	0xbe64fb85	-0.22361572
244	0xbd2bfbda	-0.04198823
245	0xbdcb0a99	-0.09914131
246	0x3e010154	0.12598163
247	0xbe397d21	-0.18114139
248	0xbe46b548	-0.19405091
249	0x3e0bf924	0.13669258
250	0x3cf1f0c3	0.02953375
251	0x3df50c09	0.11965186
252	0x3e1e76a4	0.15474945
253	0xbd5828d1	-0.0527733
254	0xbd9519e4	-0.07280329
255	0x3e7f7c00	0.24949646

linear_layers.1.bias f4 [16]
0	0xbf9df122	-1.2339213
1	0xbf8b1e7b	-1.0868677
2	0xbf8b38e6	-1.0876739
3	0xbf94af1e	-1.1615942
4	0xbf84be35	-1.0370547
5	0xbfa57485	-1.2926184
6	0xbf72a758	-0.94786596
7	0xbf971e24	-1.1806073
8	0xbf69538b	-0.911431
9	0xbf6abd47	-0.91695064
10	0xbfa8012c	-1.3125358
11	0xbfa7597c	-1.3074183
12	0xbf83fb1a	-1.0311005
13	0xbf784f04	-0.9699557
14	0xbfa999b9	-1.3250037
15	0xbf9b4868	-1.2131472

linear_layers.2.weight f4 [16, 16]
0	0xbcc14350	-0.023591667
1	0xbe845f81	-0.25854114
2	0xbdf039e5	-0.117297925
3	0xbcb4fefa	-0.022094239
4	0x3e06b106	0.13153467
5	0x3cc5e4a0	0.024156868
6	0x3b840f22	0.0040301243
7	0x3e60c1f0	0.21948981
8	0xbd8ba703	-0.06818964
9	0xbd843f63	-0.064574026
10	0xbed2c38d	-0.41164818
11	0xbc015f59	-0.007896268
12	0x3e4fbc98	0.20286787
13	0x3e439d0a	0.19102874
14	0xbe285420	-0.16438341
15	0xbe185aba	-0.1487836
16	0xbd1f6940	-0.038918734
17	0xbdd8d1b0	-0.1058687
18	0xbe7814e4	-0.24226719
19	0x3e1a91aa	0.15094629
20	0xbdbce184	-0.09222701
21	0x3e651f26	0.22375163
22	0x3dd8ca32	0.10585441
23	0xbba8f3c0	-0.0051560104
24	0x3cf494a3	0.029856032
25	0x3e2f8d7b	0.17143814
26	0xbed60493	-0.41800365
27	0xbe1b6173	-0.15173893
28	0x3c779547	0.015111274
29	0x3dc2fd93	0.09521022
30	0xbe04c632	-0.1296623
31	0xbdd51559	-0.10404462
32	0x3cd342f0	0.025788754
33	0xbda30473	-0.07959833
34	0x3e514436	0.20436177
35	0x3cbbd803	0.02293015
36	0xbd280d10	-0.041028082
37	0x3dbe5b30	0.092947364
38	0xbe2db6ee	-0.16964313
39	0xbe52760a	-0.20552841
40	0x3e05d362	0.13068917
41	0x3d6f67e2	0.05844868
42	0xbf0a6044	-0.5405314
43	0xbe6e6abf	-0.23282908
44	0x3d4c51e4	0.049882784
45	0xbd42faf2	-0.0476026
46	0xbe017d62	-0.12645486
47	0xbe9681ae	-0.29395813
48	0x3d292d90	0.041303217
49	0xbd998cdc	-0.0749757
50	0xbdaff3bc	-0.085914105
51	0xbd0f0a3a	-0.034921862
52	0xbe63cc9a	-0.22246018
53	0xbe228c60	-0.15873861
54	0x3d976c7f	0.07393741
55	0xbc131920	-0.008978158
56	0xbeadf58a	-0.33976394
57	0xbe1f5dd0	-0.1556313
58	0xbebabc22	-0.3647166
59	0x3dbe84e6	0.09302692
60	0xbe18579f	-0.14877175
61	0x3cfeedde	0.031119283
62	0x3cba4f40	0.022742867
63	0xbe169b0e	-0.14707586
64	0xbe60ff56	-0.21972403
65	0x3d5db176	0.054124318
66	0x3d232b3b	0.03983615
67	0x3d5c196c	0.05373518
68	0xbd49d840	-0.049278498
69	0x3e6d4864	0.23172146
70	0xbd9f2db7	-0.07772391
71	0xbd9d08ec	-0.07667717
72	0xbca1cc35	-0.019750694
73	0x3df27480	0.11838627
74	0xbef5bbc2	-0.4799481
75	0x3d855825	0.06510953
76	0xbe395192	-0.18097523
77	0x3d638e2c	0.055555508
78	0x3e4f2c2c	0.20231694
79	0xbe0d14ed	-0.13777514
80	0xbd10ba58	-0.03533396
81	0xbe84e58a	-0.25956374
82	0x3e26a71b	0.16274683
83	0x3e612740	0.21987629
84	0x3e5fdf84	0.21862608
85	0x3d891580	0.06693554
86	0x3d325470	0.043537557
87	0x3bb55080	0.005533278
88	0xbd825ec1	-0.06365729
89	0xbdd202ef	-0.10254466
90	0xbe945108	-0.28968072
91	0xbe7bb002	-0.2457886
92	0x3d9e5da1	0.07732702
93	0x3dc4b65a	0.09605093
94	0x3deee168	0.116640866
95	0xbd4becd9	-0.049786422
96	0xbe6030f4	-0.21893674
97	0xbdb6d423	-0.089271806
98	0x3d9d6c1e	0.07686637
99	0xbe146367	-0.14491044
100	0x3e4be244	0.19910532
101	0x3e050132	0.12988737
102	0x3e0c4718	0.13698995
103	0x3d7dbd70	0.06194824
104	0xbdaca8a7	-0.084306054
105	0x3d57b01a	0.052658178
106	0xbeb1083b	-0.34576592
107	0xbd134be9	-0.035961065
108	0x3e29c6cf	0.16579746
109	0xbe7a700f	-0.2445681
110	0xbe0e86a4	-0.13918549
111	0x3dfb1883	0.122605346
112	0xbbdcc400	-0.006737232
113	0xbd8d30c7	-0.06894069
114	0xbdee792c	-0.116442055
115	0x3d830769	0.06397898
116	0x3d3be900	0.045876503
117	0x3d0a3ac0	0.033747435
118	0xbe1cf061	-0.15326072
119	0x3e265eb4	0.16247064
120	0x3c834344	0.016023286
121	0x3e0d00e6	0.13769874
122	0xbf26acc4	-0.6510737
123	0xbe65f1c4	-0.22455508
124	0x3d22cfde	0.03974902
125	0x3de4e93e	0.111773
126	0xbd539380	-0.05165434
127	0xbd06cb2e	-0.03290861
128	0x3ddc9284	0.10770133
129	0xbe823601	-0.25431827
130	0xbe279a37	-0.16367422
131	0x3e20ffa7	0.15722524
132	0xbe1a5da8	-0.1507479
133	0xbe6c8dbe	-0.23100945
134	0xbda97fef	-0.082763545
135	0x3c66ac80	0.014079213
136	0xbe40b235	-0.1881798
137	0xbdb159b8	-0.086596906
138	0xbe8d5f6d	-0.27611867
139	0xbd77eef7	-0.06053063
140	0xbd9c4e08	-0.07632071
141	0xbd0ea8a3	-0.034828793
142	0x3e41e770	0.18935943
143	0x3d30b3ae	0.043140106
144	0x3bc1acc0	0.005910486
145	0xbd6c89c7	-0.057748582
146	0xbd87c9eb	-0.0663031
147	0xbca32bc6	-0.019918334
148	0x3e6ed5b2	0.23323706
149	0xbd34ee68	-0.044172674
150	0x3e1817b2	0.14852789
151	0x3e32a778	0.17446697
152	0x3e1b4413	0.15162687
153	0x3d0cfc84	0.034420505
154	0xbec44072	-0.38330418
155	0x3d35536a	0.044269003
156	0x3de84945	0.113421
157	0x3e2c8f64	0.16851574
158	0x3d0ffaa8	0.035151154
159	0xbe4fb1c4	-0.20282656
160	0x3e49a058	0.19690073
161	0x3db7c975	0.08973972
162	0xbe05c2eb	-0.13062637
163	0xbe459660	-0.19295645
164	0x3d5a9f80	0.053374767
165	0x3e57226e	0.21009228
166	0xbdd58d33	-0.10427322
167	0x3d679568	0.05653897
168	0xbd178d85	-0.037000198
169	0x3c9e9372	0.019357417
170	0xbe5e3bd3	-0.21702509
171	0xbe1742ff	-0.1477165
172	0x3e4f8e81	0.20269205
173	0xbe390efc	-0.18072122
174	0xbd098ea8	-0.033583313
175	0xbe153afb	-0.1457328
176	0xbd466740	-0.04843831
177	0x3deb5d90	0.11492455
178	0xbe877aac	-0.2646078
179	0xbe242fe2	-0.16033891
180	0x3e553b96	0.20823511
181	0x3c4b9260	0.012425035
182	0xbe870059	-0.26367453
183	0xbdfafa7c	-0.12254807
184	0xbde0bd9b	-0.109736644
185	0x3d735396	0.059405886
186	0xbdbaba2e	-0.09117542
187	0x3e05c77a	0.13064376
188	0x3c9ba635	0.019000152
189	0x3dd9d542	0.10636379
190	0x3e680668	0.22658694
191	0xbe9e407b	-0.3090857
192	0xbe193f54	-0.14965564
193	0x3d112523	0.035435807
194	0x3e39b9ca	0.18137279
195	0xbde91faa	-0.113829926
196	0xbe5837c6	-0.21115026
197	0xbda83c08	-0.08214575
198	0xbe9e4d46	-0.3091833
199	0x3e12db60	0.14341497
200	0xbcdf3d1d	-0.02725082
201	0x3d4e7c58	0.050411552
202	0xbf0f4d2e	-0.5597714
203	0x3e0fe523	0.14052252
204	0x3e250af0	0.16117454
205	0xbdb5abf9	-0.08870692
206	0x3e5c227e	0.21497533
207	0x3d11dc4e	0.03561049
208	0x3e0e983e	0.13925263
209	0x3e074d2e	0.13213035
210	0x3e565453	0.20930605
211	0x3de242a4	0.11047867
212	0x3c463f40	0.012100041
213	0x3c8dbbf0	0.01730153
214	0x3dc65ed4	0.09686056
215	0x3e74594e	0.23862192
216	0xbe0fa607	-0.14028178
217	0xbe8e6155	-0.27808633
218	0xbef50028	-0.47851682
219	0xbd9c82ba	-0.076421216
220	0xbd5ef204	-0.054430023
221	0xbe7cdb73	-0.24693088
222	0x3e4c602e	0.19958565
223	0xbc3d4042	-0.011550965
224	0x3d8e96a8	0.06962329
225	0x3cf0065c	0.029299907
226	0x3e662640	0.22475529
227	0xbe55f059	-0.20892467
228	0x3dfda670	0.12385261
229	0x3e3a49bc	0.1819219
230	0xbc3e4225	-0.01161245
231	0x3dbf0510	0.093271375
232	0x3dca89b0	0.09889543
233	0xbc06799b	-0.008207704
234	0xbe70e3cb	-0.23524396
235	0xbd40a14f	-0.047028836
236	0x3df71c44	0.12065938
237	0x3e1579f5	0.14597304
238	0xbe73af3c	-0.23797315
239	0xbea28fc3	-0.31750306
240	0x3d035b58	0.032069534
241	0xbd944b8c	-0.07240972
242	0xbdc3455a	-0.09534712
243	0xbd1faa7a	-0.03898094
244	0x3e39d642	0.18148139
245	0x3e563af8	0.20920932
246	0xbe569335	-0.20954593
247	0x3e54779c	0.20748752
248	0xbe009c89	-0.12559713
249	0xbd013858	-0.031547874
250	0xbed75e7b	-0.4206427
251	0x3e3c1fc3	0.18371491
252	0xbe5998a5	-0.21249636
253	0x3d3d7c67	0.046261217
254	0xbdb6f118	-0.08932704
255	0x3dda2150	0.10650885

linear_layers.2.bias f4 [16]
0	0xbf81e4ff	-1.0148009
1	0xbf665b51	-0.8998309
2	0xbf85b523	-1.0445904
3	0xbf9afaf3	-1.2107834
4	0xbfc921b8	-1.5713415
5	0xbfaad639	-1.3346626
6	0xbface90b	-1.3508619
7	0xbfc665e8	-1.5499849
8	0xbfc83589	-1.5641338
9	0xbf9f7d59	-1.2460128
10	0xbfc94055	-1.5722758
11	0xbfb9085c	-1.4455676
12	0xc00263a7	-2.0373323
13	0xbf9dcefc	-1.2328792
14	0xbfba6b12	-1.4563925
15	0xbfb62d92	-1.4232657

linear_layers.3.weight f4 [16, 16]
0	0xbe0cd84f	-0.1375439
1	0xbebe26b6	-0.3713891
2	0xbe3b0615	-0.18264039
3	0x3d0712c0	0.032976866
4	0x3d462148	0.048371583
5	0x3e42dba8	0.19029105
6	0x3d5c5e98	0.05380115
7	0xbe1fc9ff	-0.15604399
8	0xbe294a18	-0.16532171
9	0xbd2c5251	-0.04207069
10	0x3dde39e4	0.108508855
11	0xbe617d98	-0.22020566
12	0xbe1fda5e	-0.15610644
13	0x3e6a5d2a	0.22887102
14	0x3e645216	0.22296938
15	0xbe7e4f48	-0.24834931
16	0xbda68309	-0.08130462
17	0xbcbca632	-0.023028467
18	0x3daa9266	0.083287045
19	0xbdbb7d08	-0.09154707
20	0x3d85cf48	0.065336764
21	0x3d008ba0	0.031383157
22	0x3cf38c00	0.029729843
23	0x3c926891	0.017872127
24	0x3bdc9b80	0.006732404
25	0x3e70444e	0.23463556
26	0xbc96d230	-0.018410772
27	0xbe416838	-0.18887413
28	0xbe137e78	-0.14403713
29	0x3dad06b0	0.08448541
30	0xbda2126c	-0.0791367
31	0xbc8e6400	-0.017381668
32	0xbe34141c	-0.17585796
33	0xbe9c6977	-0.30549213
34	0x3e4a3d1e	0.19749877
35	0x3deefd54	0.11669412
36	0x3e174046	0.14770612
37	0x3e6c7296	0.23090586
38	0xbe0a0784	-0.1347943
39	0xbdf27aee	-0.11839853
40	0xbdc269a4	-0.094928056
41	0x3b7fac79	0.0039012714
42	0xbd905148	-0.07046753
43	0x3d9d3b00	0.07677269
44	0xbe56a7d8	-0.20962465
45	0xbe415932	-0.18881682
46	0x3e1beb7c	0.15226549
47	0x3e54e03e	0.20788667
48	0x3e1d57cd	0.15365525
49	0x3d11e8a8	0.03562227
50	0xbe9166cd	-0.28398743
51	0x3ddcd1bc	0.10782191
52	0xbc9594a0	-0.018259346
53	0xbccdb1a0	-0.025109112
54	0x3d451a80	0.048120975
55	0xbe106713	-0.1410182
56	0xbcd461e0	-0.025925577
57	0xbd86ff68	-0.065916836
58	0xbe32faba	-0.17478457
59	0x3d5de420	0.054172635
60	0xbe0ff7d6	-0.14059386
61	0xbccb5b30	-0.024823755
62	0xbe6f464e	-0.23366663
63	0xbe08e798	-0.13369596
64	0xbe5d02fd	-0.21583171
65	0xbea7b266	-0.32753295
66	0x3d939ffc	0.07208249
67	0xbd60a778	-0.05484721
68	0x3c83f190	0.016106397
69	0xbdddd8d8	-0.10832375
70	0xbe16c5a4	-0.14723831
71	0x3e2eef9f	0.17083596
72	0xbdba9244	-0.09109929
73	0xbe626c44	-0.22111613
74	0x3e236a16	0.15958437
75	0xbe3c5d06	-0.1839486
76	0xbcfc6150	-0.030808121
77	0x3d3c7d88	0.046018153
78	0xbe0d4692	-0.13796452
79	0xbe63b838	-0.22238243
80	0x3cf3d344	0.029763825
81	0xbe62a94d	-0.22134896
82	0x3e1ba9e4	0.15201527
83	0xbe6c0ab8	-0.23050964
84	0xbe1da4b6	-0.15394863
85	0x3e37a048	0.17932236
86	0xbe0d1344	-0.1377688
87	0xbe01270d	-0.12612553
88	0xbe748566	-0.23879012
89	0xbdd63dab	-0.10460981
90	0x3d00ed48	0.03147629
91	0xbd925898	-0.07145804
92	0x3d3f3ee8	0.04669085
93	0x3d8d0e10	0.06887448
94	0xbe396ac6	-0.18107137
95	0x3b6b2d00	0.0035884976
96	0xbe46ff78	-0.19433391
97	0xbca4c843	-0.020115023
98	0xbe21254d	-0.15736885
99	0xbddb91f0	-0.10721195
100	0xbccca1d0	-0.024979502
101	0x3de92614	0.11384216
102	0x3d600790	0.054694712
103	0x3d76173d	0.060080756
104	0x3e1f006a	0.15527502
105	0xbe67dc23	-0.22642569
106	0x3dcbba84	0.099476844
107	0x3e5eadd8	0.21746004
108	0xbd970f20	-0.07375932
109	0xbe3da4a8	-0.18519843
110	0xbe265420	-0.16243029
111	0x3c543640	0.012952387
112	0x3cbcdf95	0.023055831
113	0x3d8881a3	0.06665351
114	0x3e000ec3	0.12505631
115	0x3e13d28e	0.14435789
116	0xbe16f272	-0.14740923
117	0xbe0c5bb2	-0.13706854
118	0x3e17e9d4	0.14835292
119	0xbdf655e1	-0.12028099
120	0xbe1ac212	-0.15113094
121	0x3dd958d3	0.10612645
122	0x3c224a00	0.009905338
123	0x3cd99870	0.026561946
124	0xbe34ced6	-0.17657027
125	0x3e5a54ec	0.21321458
126	0xbd765680	-0.060141087
127	0x3cb87ce0	0.022520483
128	0xbe386a97	-0.18009411
129	0xbe8bf916	-0.27338475
130	0xbdc457b5	-0.09587041
131	0x3d4fc580	0.05072546
132	0xbe07d656	-0.13265356
133	0xbe2f03ba	-0.17091265
134	0xbd1e0a10	-0.038583815
135	0x3ddcc7b9	0.107802816
136	0xbe55ba28	-0.20871794
137	0x3e2296b1	0.15877797
138	0x3e3fedd0	0.18743062
139	0xbd774028	-0.06036392
140	0xbe4be86e	-0.19912884
141	0x3e768270	0.24073195
142	0xbe6b0a8a	-0.22953239
143	0xbdaf2328	-0.085516274
144	0xbd89c130	-0.06726301
145	0x3c5598ec	0.013036948
146	0xbbe2cc66	-0.006921339
147	0xbdd49044	-0.10379079
148	0x3c2c2cc0	0.010508716
149	0x3ddad24c	0.10684642
150	0xbe390890	-0.18069673
151	0xbe38d3c0	-0.18049526
152	0xbe5f9140	-0.21832752
153	0xbe1ae61f	-0.15126847
154	0xbe69f0f8	-0.22845829
155	0x3e3e87aa	0.18606439
156	0xbe6fc856	-0.23416266
157	0x3e542f0a	0.20721069
158	0xbdd927e4	-0.10603312
159	0x3d61bb50	0.055110276
160	0xbe21762e	-0.15767738
161	0xbd519300	-0.05116558
162	0x3d44f071	0.048080865
163	0x3de7e7fc	0.113235444
164	0xbdc21eb0	-0.094785094
165	0x3d918d44	0.071070224
166	0xbd268518	-0.04065427
167	0xbe6a2d5f	-0.2286887
168	0xbe13b36c	-0.14423913
169	0xbe0a7d56	-0.13524374
170	0xbc6745e0	-0.014115781
171	0x3e102b20	0.14078951
172	0x3dd5d5a4	0.10441139
173	0x3e363ca0	0.17796564
174	0x3df8fb00	0.121572495
175	0x3cb1d3a0	0.021707356
176	0x3e356efb	0.17718117
177	0xbe4583f3	-0.19288616
178	0x3db7af99	0.089690395
179	0x3e095f9c	0.13415378
180	0x3e46c9ee	0.19412968
181	0x3e77dbd2	0.24204949
182	0xbe76f1e8	-0.24115717
183	0xbe83de22	-0.2575541
184	0x3d8858c0	0.06657553
185	0xbe0d5976	-0.13803658
186	0x3e7e3e4e	0.24828455
187	0xbd360890	-0.04444176
188	0xbcc22900	-0.023701191
189	0x3e23a794	0.15981895
190	0x3e3b04e2	0.18263581
191	0x3e557458	0.20845163
192	0x3e05e682	0.13076213
193	0xbc913e5c	-0.01772993
194	0x3d8996b0	0.067181945
195	0xbd5ed8d8	-0.054406017
196	0xbe188e5e	-0.14898059
197	0xbe01f68c	-0.12691706
198	0xbc02af40	-0.007976353
199	0xbe52bb13	-0.20579176
200	0xbc858550	-0.01629892
201	0x3e2e6a2f	0.17032693
202	0xbc84d7c0	-0.016216159
203	0xbdbd9020	-0.09256005
204	0xbe539dfa	-0.20665732
205	0x3db6ffe0	0.08935523
206	0x3cad7380	0.021173239
207	0x3dfe2398	0.12409133
208	0xbe74a73e	-0.23891923
209	0xbe534e80	-0.20635414
210	0xbe3c0335	-0.18360598
211	0xbd852c2c	-0.06502566
212	0x3e3e9e12	0.18614987
213	0xbe501bf8	-0.20323169
214	0x3e2ba0ee	0.16760609
215	0xbd98e5a9	-0.07465679
216	0x3e70f6a0	0.2353158
217	0x3e639d52	0.22227982
218	0xbd9301c0	-0.07178068
219	0x3e5dd54c	0.21663398
220	0xbe5221e0	-0.20520735
221	0x3d479b98	0.04873237
222	0xbd867968	-0.06566125
223	0xbe698aca	-0.2280685
224	0xbe7e25e9	-0.24819149
225	0x3d54b173	0.05192704
226	0x3c57671a	0.01314714
227	0x3d1eb340	0.038745165
228	0x3dc02e64	0.09383848
229	0xbdb498c0	-0.08818197
230	0xbc6a2a80	-0.014292359
231	0xbe8a101d	-0.26965418
232	0xbd6a0028	-0.057129055
233	0x3e31bcf1	0.17357232
234	0xbd4171e0	-0.04722774
235	0x3dd71c00	0.105033875
236	0x3da48ea8	0.08035022
237	0x3e4d5cb4	0.20054895
238	0x3ddeee3c	0.10885283
239	0xbe67ae0a	-0.22624984
240	0x3da9e006	0.08294682
241	0x3e09cea4	0.13457733
242	0xbe1a32bc	-0.15058416
243	0x3e13b4b0	0.14424396
244	0xbe7a78a4	-0.24460083
245	0x3dc9f2e8	0.09860784
246	0x3c6fa260	0.014626116
247	0xbe9a0f52	-0.30089813
248	0x3e0398da	0.12851277
249	0xbe7dbddb	-0.24779455
250	0xbc3c8440	-0.01150614
251	0xbe40c23a	-0.18824092
252	0xbe4209ae	-0.18949005
253	0x3e2c2ff2	0.16815165
254	0x3df96858	0.12178105
255	0x3df0a710	0.11750615

linear_layers.3.bias f4 [16]
0	0xbfce4c63	-1.6117061
1	0xbfc77558	-1.5582685
2	0xbfa037cb	-1.2517027
3	0xbf8ba376	-1.0909259
4	0xbf8b4b5c	-1.0882373
5	0xbfbe8596	-1.4884517
6	0xbfd631e0	-1.6733971
7	0xbfa8649d	-1.3155705
8	0xbfaa0e4e	-1.3285615
9	0xbf8a2627	-1.0792893
10	0xbfadd726	-1.3581283
11	0xbfaf9ca5	-1.3719679
12	0xbf7eb8f1	-0.9950095
13	0xbfcbcf2e	-1.5922601
14	0xbf9012ac	-1.1255698
15	0xbfa09255	-1.2544657

linear_layers.4.weight f4 [16, 16]
0	0x3e1f3496	0.15547404
1	0xbe4d8e4a	-0.2007381
2	0x3e106db8	0.14104354
3	0xbe050712	-0.12990978
4	0xbe503d60	-0.20335913
5	0xbe0d0f84	-0.1377545
6	0x3af2fc00	0.0018538237
7	0x3e393504	0.1808663
8	0x3e227448	0.1586467
9	0x3db787d5	0.08961455
10	0xbded7bd4	-0.11595884
11	0xbe66d952	-0.22543839
12	0x3dd7bcba	0.105340436
13	0xbe1f4f02	-0.15557483
14	0xbe7bf53b	-0.24605267
15	0xbca456c0	-0.020060897
16	0xbe4c4d9c	-0.1995148
17	0xbe5098a0	-0.20370722
18	0xbe627068	-0.22113192
19	0x3e660429	0.22462524
20	0x3cb89f8c	0.022537015
21	0x3d2d41c0	0.042299032
22	0xbe4b32f8	-0.19843662
23	0x3c6d4020	0.014480621
24	0xbdf05118	-0.117342174
25	0xbeb11d52	-0.34592682
26	0xbddd9e20	-0.108211756
27	0xbe7b8654	-0.24562961
28	0x3e07bfc9	0.13256754
29	0xbe549100	-0.20758438
30	0xbe800d5a	-0.25010186
31	0x3e5ce222	0.21570638
32	0xbe5b5cf6	-0.2142218
33	0xbe02c098	-0.12768781
34	0x3d44d9a0	0.048059106
35	0xbd93d84c	-0.0721899
36	0x3e0424c0	0.12904644
37	0x3b757c00	0.0037457943
38	0xbe784c08	-0.24247754
39	0xbe14de82	-0.14538005
40	0x3c8519f0	0.01624772
41	0xbd820349	-0.06348283
42	0xbe0a0c02	-0.13481143
43	0xbd3e6580	-0.046483517
44	0xbc69465b	-0.014237965
45	0xbde725bc	-0.11286494
46	0xbe8781af	-0.26466128
47	0x3e2ad910	0.16684365
48	0x3cea1e30	0.028578848
49	0xbe6105b8	-0.21974838
50	0x3d5b3278	0.053514928
51	0xbd76cd7c	-0.06025456
52	0xbe82d8da	-0.2555607
53	0x3cda2770	0.026630133
54	0xbd889520	-0.06669068
55	0xbda63f9c	-0.08117601
56	0xbdf8d17c	-0.12149331
57	0xbdd9c0e1	-0.10632492
58	0xbded44f0	-0.115854144
59	0x3dd2defc	0.10296437
60	0x3d4d33bd	0.05009817
61	0x3ad9c000	0.0016613007
62	0xbdd8b9c0	-0.10582304
63	0xbdd20018	-0.10253924
64	0x3e61e3e2	0.22059587
65	0x3e511004	0.20416266
66	0xbe26259c	-0.16225284
67	0xbdffe079	-0.12493987
68	0x3d9c7c4e	0.07640897
69	0x3d3214d0	0.04347688
70	0x3e7065cc	0.23476332
71	0xbdbf43d8	-0.09339112
72	0xbe34617a	-0.1761531
73	0xbbd4296a	-0.0064746635
74	0x3e79dff4	0.24401838
75	0xbe77522a	-0.24152437
76	0x3d6a421a	0.057191946
77	0x3e434da2	0.19072583
78	0xbca646a4	-0.020297356
79	0xbda52a54	-0.08064714
80	0x3dc09964	0.09404257
81	0x3d5ce488	0.053928882
82	0xbe1a0452	-0.1504071
83	0xbe6ae137	-0.22937475
84	0x3e037f78	0.12841594
85	0x3dec01ec	0.11523804
86	0xbdfd26f0	-0.12360942
87	0x3d775310	0.06038195
88	0x3dbd6728	0.09248191
89	0xbddc89e4	-0.10768488
90	0xbdc86c8c	-0.09786329
91	0x3e20125c	0.15632004
92	0xbe3b2d71	-0.18279053
93	0x3d0e4078	0.03472945
94	0xbd668be5	-0.056285758
95	0x3e1c63fa	0.15272513
96	0xbe7f68c6	-0.24942312
97	0xbdd6e574	-0.104929835
98	0xbe074a50	-0.13211942
99	0xbe2225cc	-0.15834731
100	0xbdd4f1a5	-0.103976525
101	0xbdc4a3f8	-0.09601587
102	0x3d290378	0.041263074
103	0xbde02ffc	-0.10946652
104	0xbe1dbf32	-0.15404966
105	0xbdff3943	-0.12462094
106	0x3e070548	0.13185608
107	0x3df7d46c	0.12101063
108	0x3e6e807d	0.23291202
109	0xbe5ba5c2	-0.2144995
110	0xbe078157	-0.13232933
111	0x3e400f40	0.18755817
112	0xbe6975f4	-0.22798902
113	0xbd872e98	-0.06600684
114	0x3da69614	0.08134094
115	0xbcea01f1	-0.028565379
116	0x3d92346e	0.071389064
117	0x3e615bfc	0.22007746
118	0xbd3fc118	-0.046815008
119	0xbe37f594	-0.17964774
120	0xbdf4df50	-0.11956656
121	0xbe5b5886	-0.21420488
122	0xbe403ff8	-0.18774402
123	0xbd2e7510	-0.04259211
124	0x3d6bd1be	0.057573073
125	0xbd29fe20	-0.041502118
126	0xbd1083e1	-0.03528202
127	0x3d163d58	0.036679596
128	0x3e6f9e62	0.23400262
129	0xbe04e9ca	-0.12979808
130	0xbe6856a4	-0.22689301
131	0x3e41041d	0.18849225
132	0x3c0d9697	0.00864186
133	0x3d8f57f0	0.069991946
134	0xbdd3371c	-0.10313246
135	0xbe3147a4	-0.17312485
136	0xbdd49b14	-0.10381141
137	0xbe153760	-0.14571905
138	0xbe60de24	-0.2195974
139	0x3d9772e4	0.073949605
140	0xbc2f8106	-0.010711914
141	0xbc704f80	-0.014667392
142	0xbe8f8dcc	-0.2803787
143	0xbe4d5abe	-0.20054147
144	0xbe5215f0	-0.20516181
145	0xbd1577d0	-0.036491215
146	0xbe7e3550	-0.24825025
147	0x3e156a8d	0.14591427
148	0xbe4824af	-0.19545244
149	0xbdf349e0	-0.11879325
150	0x3c429280	0.011875749
151	0xbd663b88	-0.056209117
152	0x3ca4e650	0.020129353
153	0xbe29cbe5	-0.16581686
154	0xbdacedfc	-0.084438294
155	0x3e713bc6	0.23557958
156	0x3e0fe883	0.1405354
157	0x3e257226	0.16156825
158	0x3e10cd36	0.14140782
159	0x3e534596	0.20632014
160	0xbc96d1a0	-0.018410504
161	0xbe77eaa4	-0.24210602
162	0xbe1b5cd0	-0.15172124
163	0x3e24834a	0.16065708
164	0xbe3cb0bd	-0.18426795
165	0xbde71a10	-0.11284268
166	0x3e2bc84c	0.16775626
167	0xbd2cc008	-0.042175323
168	0x3d643600	0.05571556
169	0x3db9638c	0.0905219
170	0x3e758e70	0.23980117
171	0xbe7ac640	-0.24489689
172	0x3e063a7c	0.13108248
173	0xbe679a14	-0.2261737
174	0x3d7a6b56	0.06113752
175	0x3d6ebac8	0.058283597
176	0xbe784eae	-0.24248764
177	0x3e1675fe	0.14693448
178	0xbd9eefc0	-0.077605724
179	0xbe70ce96	-0.23516306
180	0xbe693da1	-0.22777416
181	0xbccffa90	-0.025388032
182	0xbdf9523c	-0.12173888
183	0xbe16dd96	-0.14732966
184	0xbe700aa2	-0.23441556
185	0x3d015594	0.031575754
186	0x3decc8e8	0.11561757
187	0x3e08df06	0.13366327
188	0x3dbf1ab3	0.09331264
189	0xbbff8140	-0.00779739
190	0x3d8f46eb	0.069959484
191	0xbdf9a648	-0.12189919
192	0x3e32b390	0.1745131
193	0x3cd19220	0.025582373
194	0xbdf21fb4	-0.11822453
195	0x3e43f0f5	0.19134887
196	0xbe386091	-0.18005587
197	0xbd276870	-0.040871084
198	0xbd6625d8	-0.056188434
199	0x3df403cc	0.11914787
200	0x3de91278	0.11380476
201	0xbd557d95	-0.052121717
202	0x3acd4500	0.0015660822
203	0x3d6fdfe8	0.058563143
204	0xbe1315c0	-0.14363766
205	0x3e61d2b0	0.22053027
206	0x3e07267e	0.13198277
207	0x3e474872	0.1946123
208	0x3bf52240	0.0074808896
209	0x3e65d03a	0.22442713
210	0x3e0be73c	0.13662428
211	0xbe7bfe15	-0.24608643
212	0x3e0f9104	0.14020163
213	0x3cb2c0b0	0.021820396
214	0xbd3978d8	-0.04528126
215	0x3e23d1ce	0.15998003
216	0xbc3d4f00	-0.01155448
217	0xbe74163c	-0.23836607
218	0x3dfaaec4	0.12240365
219	0xbcf16f20	-0.029471934
220	0xbe24fe41	-0.16112615
221	0x3da4333c	0.08017585
222	0x3e25e42c	0.16200322
223	0x3d0734f8	0.0330095
224	0xbe5824b2	-0.21107748
225	0x3e095b7a	0.13413802
226	0xbe611760	-0.21981573
227	0x3d434e42	0.047682054
228	0x3b186824	0.0023255432
229	0x3c652dc0	0.013987958
230	0xbde424f0	-0.11139858
231	0x3e756d76	0.23967537
232	0x3e28f69c	0.16500324
233	0x3accf58c	0.0015637144
234	0x3e352342	0.17689231
235	0xbe51359a	-0.20430604
236	0x3e1e7c95	0.15477212
237	0x3da8fca0	0.082513094
238	0xbd4bef78	-0.049788922
239	0x3e696c14	0.22795135
240	0xbd5fdf90	-0.054656565
241	0x3e20149c	0.15632862
242	0x3e4dfc44	0.20115763
243	0x3cd96cf3	0.026541209
244	0x3e7bfe91	0.24608828
245	0xbe6bda2c	-0.23032445
246	0x3e4ce08e	0.20007536
247	0x3e2f8788	0.17141545
248	0x3d8782a4	0.066167146
249	0x3e4c341c	0.19941753
250	0x3d8f5bd8	0.0699994
251	0x3d650a50	0.055918038
252	0xbd890c99	-0.06691856
253	0xbd4e0ef0	-0.050307214
254	0x3dd4816e	0.10376249
255	0xbdde9868	-0.10868913

linear_layers.4.bias f4 [16]
0	0xbfbc571f	-1.4714087
1	0xbf9ea91b	-1.2395357
2	0xbfb2d866	-1.397229
3	0xbf814fe2	-1.0102503
4	0xbfa9c3c8	-1.3262873
5	0xbf938490	-1.152483
6	0xbf932c72	-1.1497939
7	0xbfa4d988	-1.2878885
8	0xbfb2afe6	-1.395993
9	0xbf9127b5	-1.1340243
10	0xbfa6c715	-1.3029505
11	0xbfbac331	-1.4590818
12	0xbf8888a0	-1.0666695
13	0x3ef01869	0.46893623
14	0xbf9b2a2d	-1.2122246
15	0xbf7b7c7c	-0.98236823

linear_layers.5.weight f4 [16, 16]
0	0x3db991ac	0.09060988
1	0x3cb4d780	0.022075415
2	0x3d5984a0	0.053104997
3	0xbe86fd93	-0.26365337
4	0xbe205ee2	-0.15661195
5	0x3c2222a0	0.009895951
6	0x3e525c08	0.2054292
7	0x3e66deca	0.22545925
8	0x3de759ac	0.112964004
9	0x3e125d1c	0.14293331
10	0xbeabc1cd	-0.33546296
11	0x3df2b2d0	0.11850512
12	0xbd82acf8	-0.063806474
13	0xbfdf568d	-1.7448288
14	0x3e761910	0.24032998
15	0xbe2fc804	-0.17166144
16	0xbb82c7c0	-0.003991097
17	0x3e2706ec	0.16311234
18	0x3ccc30f0	0.024925679
19	0x3e432236	0.19056019
20	0xbe373aa4	-0.17893463
21	0x3dfd6024	0.12371853
22	0x3dc11b4c	0.094290346
23	0xbd1beb60	-0.038066268
24	0x3e02360a	0.12715927
25	0x3df0aaa4	0.11751297
26	0xbd924627	-0.07142287
27	0x3e2d0648	0.16896927
28	0xbdf9a2c2	-0.12189247
29	0x3e12cf8e	0.14336988
30	0xbdab469c	-0.08363077
31	0x3d803860	0.06260753
32	0xbd446af8	-0.047953576
33	0x3e346ea8	0.17620337
34	0x3de06e58	0.109585464
35	0xbe3e5f7c	-0.18591112
36	0x3e3f1800	0.18661499
37	0xbe11705c	-0.14203018
38	0xbe7f30ea	-0.24921003
39	0xbe57ad0c	-0.21062106
40	0x3df2e698	0.118603885
41	0xbe63a47a	-0.22230712
42	0xbe858a82	-0.26082236
43	0xbe5e75c2	-0.21724609
44	0xbe77d86e	-0.24203655
45	0xbfd1f95a	-1.6404221
46	0x3e4fa818	0.20278966
47	0x3caf29e0	0.021382272
48	0xbdb314c4	-0.08744195
49	0x3e3f588c	0.18686122
50	0xbd4cec30	-0.050029933
51	0xbea34e35	-0.31895605
52	0xbe3981a3	-0.18115859
53	0xbdf8a528	-0.12140876
54	0x3e28e442	0.16493323
55	0x3d4ed718	0.050498098
56	0x3e34f35c	0.17670959
57	0x3df4d430	0.11954534
58	0xbe9ccb27	-0.30623743
59	0xbd92234c	-0.071356386
60	0xbe8a8f1a	-0.27062303
61	0xbfe04b30	-1.7522945
62	0x3c848420	0.016176283
63	0x3d47cdd8	0.048780292
64	0x3d3a2e68	0.045454413
65	0xbd11f8a8	-0.035637528
66	0x3dda721c	0.10666296
67	0x3e381227	0.17975675
68	0x3e4bb724	0.19894081
69	0x3e1d5d48	0.15367615
70	0xbd7ccf20	-0.061720967
71	0xbe5d3b40	-0.21604633
72	0x3d831064	0.06399611
73	0x3e0295ee	0.12752506
74	0x3de3e2ba	0.11127229
75	0x3de7088c	0.11280927
76	0x3e0f165c	0.13973373
77	0xbfaf7727	-1.3708237
78	0xbcf4f730	-0.029903024
79	0x3e6b1208	0.22956097
80	0xbe36d596	-0.17854914
81	0x3e6ca584	0.23110014
82	0x3e2b3308	0.16718686
83	0xbe3a9ef7	-0.18224703
84	0xbdcdce8f	-0.100491636
85	0x3e721cd0	0.23643804
86	0xbe452e8e	-0.1925604
87	0x3e42cea4	0.1902414
88	0x3ddb7e24	0.10717419
89	0x3cff4a20	0.031163275
90	0xbe53ffb1	-0.20703007
91	0xbc81fa60	-0.015866458
92	0xbdcbfad3	-0.0995995
93	0xbfc6cf24	-1.5531964
94	0xbe75ba14	-0.23996764
95	0x3de564a0	0.11200833
96	0xbc985240	-0.018593907
97	0x3e7b96e8	0.24569285
98	0xbdd97b80	-0.10619259
99	0xbc04a5bc	-0.008096155
100	0xbe80d221	-0.25160316
101	0xbe318800	-0.17337036
102	0x3e5d1f64	0.21594006
103	0xbe37a314	-0.17933303
104	0x3e6869c4	0.22696596
105	0xbe41285c	-0.18863052
106	0x3d50a632	0.050939746
107	0xbe720eea	-0.23638502
108	0xbdedb3bc	-0.11606547
109	0xbfb11743	-1.3835224
110	0x3e3c43c8	0.18385231
111	0xbe787aee	-0.24265644
112	0x3d2eb2d8	0.042651027
113	0x3dbd1cfc	0.09234044
114	0x3e707aa4	0.23484284
115	0x3ba01e41	0.004886419
116	0xbc96e32b	-0.018418869
117	0x3ce96060	0.028488338
118	0x3ce03510	0.027369052
119	0xbe340110	-0.1757853
120	0x3e3d82bc	0.18506902
121	0x3e535278	0.20636928
122	0xbe8a3879	-0.2699621
123	0x3dd5d2ac	0.10440573
124	0xbddee35c	-0.10883209
125	0xbfca8e03	-1.5824589
126	0x3e467f46	0.19384488
127	0xbdd5afa8	-0.104338944
128	0xbe74493e	-0.23856065
129	0x3e33239c	0.17494053
130	0xbe58979c	-0.21151584
131	0xbe308170	-0.17236876
132	0xbe69a7bd	-0.22817893
133	0xbd1bb388	-0.03801301
134	0x3d59fe20	0.053220868
135	0x3e0045e4	0.12526661
136	0x3d678f30	0.05653304
137	0xbe6ea154	-0.2330373
138	0xbeb06c31	-0.34457543
139	0xbd2da780	-0.04239607
140	0xbe38cdf8	-0.18047321
141	0xbfcb5681	-1.5885774
142	0xbe5bfafc	-0.21482462
143	0xbdf1d674	-0.11808482
144	0x3d347d30	0.0440647
145	0xbda59218	-0.08084506
146	0xbdbe74c8	-0.09299618
147	0x3e264ebc	0.16240972
148	0x3d03ce41	0.03217912
149	0x3c186740	0.0093019605
150	0xbe27c0cc	-0.1638214
151	0xbdf1038c	-0.11768255
152	0x3de3379c	0.11094591
153	0xbd25ac78	-0.040447682
154	0xbe866016	-0.26245183
155	0xbd839910	-0.06425679
156	0x3dc5b46e	0.09653555
157	0xbfd37551	-1.6520177
158	0xbdf8381c	-0.12120077
159	0xbe5b48b0	-0.21414447
160	0xbcb668e0	-0.022266805
161	0x3e207a7e	0.15671727
162	0xbe78c14a	-0.24292484
163	0x3d621700	0.055197716
164	0xbcb49ad6	-0.022046488
165	0xbd2a4560	-0.041570067
166	0xbdf983c8	-0.121833384
167	0x3e42b0e4	0.19012791
168	0xbcad03d0	-0.021119982
169	0x3c9a0bb0	0.018804401
170	0xbe065649	-0.13118853
171	0x3d41bf28	0.04730144
172	0xbdd63927	-0.1046012
173	0xbf946382	-1.1592867
174	0x3e23e1a4	0.16004044
175	0x3e60a11e	0.21936461
176	0xbe7c5aa8	-0.24643958
177	0x3e127386	0.14301881
178	0x3e5db044	0.21649271
179	0xbdcf09ef	-0.101093166
180	0x3c593f5e	0.013259737
181	0x3e488a40	0.19583988
182	0x3df339f0	0.11876285
183	0x3d85d188	0.065341055
184	0x3d32db60	0.043666244
185	0x3d1808f0	0.0371179
186	0x3e1b4b13	0.15165357
187	0xbe544100	-0.2072792
188	0xbe4e92a8	-0.20173132
189	0xbfdd279c	-1.7277713
190	0xbe10df8a	-0.14147773
191	0x3e387346	0.18012723
192	0x3e13e4ea	0.14442793
193	0xbe715508	-0.23567593
194	0x3da3b538	0.07993549
195	0xbe94c819	-0.29058912
196	0xbdc974bf	-0.09836721
197	0xbe159d0c	-0.1461069
198	0x3e452f02	0.19256213
199	0xbe637b66	-0.22215042
200	0xbd748fc0	-0.059707403
201	0x3d9d5418	0.07682055
202	0xbd71ac48	-0.05900219
203	0x3de67220	0.11252236
204	0xbe58db93	-0.21177511
205	0xc0008a65	-2.008447
206	0xbda1a764	-0.07893255
207	0x3e5d1882	0.2159138
208	0xbdf7a800	-0.1209259
209	0x3cbc83d0	0.023012072
210	0x3e732f42	0.23748496
211	0x3dcf2053	0.10113587
212	0xbe09324a	-0.1339809
213	0x3d597ff8	0.053100556
214	0x3d5a70f8	0.05333039
215	0xbe0dbd10	-0.13841653
216	0xbe377dd8	-0.179191
217	0x3e485b74	0.19566137
218	0xbeb0b0e0	-0.34509945
219	0x3e7a62e0	0.2445178
220	0xbe8ba6a9	-0.2727559
221	0xbfcd08da	-1.6018326
222	0xbdc7a99c	-0.09749147
223	0x3b75c300	0.0037500262
224	0x3d9cb9c0	0.076526165
225	0x3e78c5fc	0.24294275
226	0x3e7e96c8	0.24862206
227	0x3db99c3e	0.09063004
228	0xbe488a8d	-0.19584103
229	0xbe79d57a	-0.24397841
230	0xbda7ea7c	-0.08199021
231	0x3e5654a6	0.20930728
232	0x3e46d1e6	0.19416007
233	0xbe0fc74c	-0.1404087
234	0x3d8bf787	0.068343215
235	0x3e2122b4	0.15735894
236	0xbdf6c08c	-0.12048444
237	0xbfafa553	-1.3722328
238	0xbd708bd8	-0.058727115
239	0x3e628d16	0.22124133
240	0xbd853354	-0.06503931
241	0xbe1836b8	-0.14864624
242	0x3e7ac3d4	0.24488765
243	0xbe54d78f	-0.20785354
244	0xbe63902f	-0.2222297
245	0x3e1fec6a	0.15617529
246	0x3d8ebb64	0.06969336
247	0x3e48a54a	0.19594303
248	0x3df13b98	0.11778945
249	0x3e2ed3da	0.17073002
250	0xbe3bc619	-0.18337287
251	0xbe7ab312	-0.24482372
252	0x3c450a32	0.0120263565
253	0xbfcd9ff1	-1.6064435
254	0x3baadd00	0.0052143335
255	0x3e703d2c	0.23460835

linear_layers.5.bias f4 [16]
0	0xbf99d09a	-1.2016785
1	0x3f216a29	0.6305261
2	0xbf90d19f	-1.1313971
3	0xbf30804c	-0.68945765
4	0xbf26db4f	-0.6517839
5	0xbf8ac499	-1.0841247
6	0xbf243542	-0.64143765
7	0xbf4b3d93	-0.7939083
8	0xbf97bc75	-1.1854388
9	0xbf5d3e32	-0.8642303
10	0xbedf1183	-0.43568048
11	0xbf814d8c	-1.010179
12	0xbf8d5c13	-1.1043724
13	0xbf391cb7	-0.7230944
14	0xbf393bfa	-0.7235714
15	0xbf3cab63	-0.73699015

linear_layers.6.weight f4 [16, 16]
0	0xbe18369e	-0.14864585
1	0xbfea306e	-1.829603
2	0x3d89200c	0.066955656
3	0x3e5075cc	0.20357436
4	0xbd937880	-0.07200718
5	0xbc74b900	-0.014936686
6	0x3e7db210	0.24774957
7	0x3df61cbc	0.120171994
8	0x3dcad314	0.09903541
9	0x3e43e980	0.19132042
10	0xbe202f0c	-0.15642947
11	0xbe105182	-0.14093593
12	0x3c814810	0.015781432
13	0x3d1b8400	0.037967682
14	0xbe579c4e	-0.2105572
15	0x3e12b9b0	0.14328647
16	0xbdeab2c0	-0.11459875
17	0xbfc16534	-1.510901
18	0x3e2b1bf2	0.16709879
19	0x376f0000	1.424551e-05
20	0x3e405684	0.18783003
21	0x3d620f60	0.055190444
22	0x3e77a748	0.24184906
23	0xbd8e835c	-0.069586486
24	0xbcc6ada0	-0.024252713
25	0x3df2c1a0	0.11853337
26	0x3e169476	0.14705071
27	0xbe76b90c	-0.24094027
28	0xbe2b6c72	-0.16740587
29	0xbdb32004	-0.08746341
30	0xbe6c5143	-0.23077874
31	0xbe54d27e	-0.20783421
32	0xbe51c1f0	-0.20484138
33	0xbfbf4695	-1.4943415
34	0x3dfc2040	0.12310839
35	0x3e338260	0.17530203
36	0x3dbeddf0	0.09319675
37	0x3cfc70b0	0.030815452
38	0xbdc99320	-0.09842515
39	0x3dc26a58	0.0949294
40	0xbe788c64	-0.24272305
41	0xbe68f39c	-0.2274918
42	0xbec00558	-0.37504077
43	0x3e7f28e4	0.24917942
44	0x3dad054c	0.08448276
45	0x3e3842f4	0.1799429
46	0xbe52f886	-0.20602617
47	0x3e5ba7de	0.21450755
48	0x3de14798	0.109999835
49	0xbfa4c4f6	-1.2872608
50	0xbe44cb58	-0.19218194
51	0xbe2cd8d6	-0.16879591
52	0xbe144500	-0.14479446
53	0xbc4be880	-0.012445569
54	0x3e01f38c	0.12690562
55	0x3e598d00	0.21245193
56	0xbd49d2c8	-0.049273282
57	0x3e6c04ba	0.23048678
58	0xbe7a5fb5	-0.24450572
59	0xbe0feaf4	-0.14054471
60	0xbdcb1e00	-0.099178314
61	0x3e20b18e	0.15692732
62	0xbe6a0bb9	-0.22856034
63	0xbe277920	-0.163548
64	0x3e7f94d2	0.24959114
65	0xbfb9d85a	-1.451915
66	0xbd144fc0	-0.036208868
67	0x3d18b368	0.03728047
68	0xbd8b4a36	-0.06801264
69	0x3cb32c30	0.021871656
70	0x3e0bface	0.13669893
71	0xbde48f3c	-0.11160132
72	0xbdb125c0	-0.08649778
73	0x3df809d8	0.121112525
74	0xbeb864c8	-0.3601439
75	0xbd940bf8	-0.07228845
76	0xbd181080	-0.03712511
77	0xbe57de8a	-0.21080986
78	0x3d83bb41	0.064322
79	0xbe64df30	-0.22350764
80	0xbe460f6e	-0.19341823
81	0xbfba07e7	-1.4533662
82	0xbde0778c	-0.10960302
83	0x3cc34380	0.023835897
84	0xbdb13c6f	-0.08654105
85	0x3e1205c6	0.14260015
86	0x3df19880	0.11796665
87	0x3e407540	0.18794727
88	0x3e78f81e	0.24313399
89	0xbd543950	-0.05181247
90	0x3d609979	0.054833863
91	0x3e060fe4	0.13092
92	0xbd19d250	-0.037554085
93	0xbd8f81dc	-0.070071906
94	0x3dd6cd9b	0.10488435
95	0x3e3f93f0	0.18708777
96	0x3e7f6ff8	0.24945056
97	0xbfaf678e	-1.3703477
98	0xbdb14be4	-0.08657053
99	0xbe0d0440	-0.13771152
100	0xbe35ea4d	-0.1776516
101	0x3d8b8368	0.06812173
102	0x3cd42590	0.025896817
103	0xbdfa1bfc	-0.12212369
104	0x3e0620e6	0.13098487
105	0xbdc89088	-0.09793192
106	0x3cf2d9fa	0.029644955
107	0x3e581caa	0.21104684
108	0xbdb4de0c	-0.088314146
109	0xbe2de57e	-0.16982076
110	0xbb256ea0	-0.002524294
111	0x3e2414ec	0.16023606
112	0x3e29ecb0	0.16594195
113	0xbffc7ee1	-1.972622
114	0x3c232b40	0.009959042
115	0xbd884100	-0.06653023
116	0xbd0297f8	-0.03188321
117	0x3d47e150	0.04879886
118	0x3e1b51ae	0.15167877
119	0xbe4f28a0	-0.20230341
120	0x3e51cfd4	0.20489436
121	0xbdabe118	-0.083925426
122	0xbc9e1cbe	-0.019300815
123	0xbe4e0b16	-0.20121416
124	0xbe05a002	-0.1304932
125	0xbe1b0942	-0.1514025
126	0xbe0740bb	-0.13208286
127	0x3d373560	0.044728637
128	0x3e06c1bc	0.13159841
129	0xbfe2edc2	-1.7728808
130	0x3dbe75dc	0.09299824
131	0xbe274690	-0.16335511
132	0xbe75a273	-0.2398775
133	0x3ced0440	0.02893269
134	0x3e7aa08a	0.24475303
135	0x3e7163ec	0.23573273
136	0xbd2f9fd8	-0.04287705
137	0xbe13cd86	-0.1443387
138	0xbe3788d2	-0.17923287
139	0xbe41a202	-0.18909457
140	0x3e56c6e0	0.20974302
141	0x3e7fc5ea	0.24977842
142	0xbd463f24	-0.04840006
143	0xbdcf1b54	-0.10112634
144	0xbd823160	-0.06357074
145	0x3ef15b0a	0.4713977
146	0xbe543256	-0.20722327
147	0x3e2ff5e0	0.17183638
148	0xbe50e801	-0.20401002
149	0x3e7ae1bc	0.24500173
150	0x3e2dec02	0.16984561
151	0xbe5ce0f4	-0.21570188
152	0x3deca4b8	0.11554855
153	0xbe3f384c	-0.1867382
154	0xbd3820a6	-0.04495301
155	0x3d84d464	0.06485823
156	0x3e4f35c4	0.20235354
157	0x3e3818d0	0.17978215
158	0x3e5a2244	0.21302134
159	0x3e0a1ff0	0.13488746
160	0x3d4f72b8	0.050646514
161	0xbfc704e1	-1.5548364
162	0x3e290c82	0.16508678
163	0xbe6d0a64	-0.23148495
164	0x3e11c234	0.14234239
165	0x3e22f550	0.15913892
166	0xbe60706a	-0.21917883
167	0xbe693610	-0.2277453
168	0x3d9dad98	0.07699126
169	0x3e268d06	0.16264734
170	0xbbb14b1d	-0.0054105655
171	0x3e02ffc8	0.12792885
172	0xbdc5ca6c	-0.096577495
173	0x3dd7a260	0.105290174
174	0x3e1ea027	0.15490781
175	0x3cde3690	0.027125627
176	0x3e6eff3e	0.23339555
177	0xbfd96e34	-1.6986756
178	0x3e1273ee	0.14302036
179	0xbd61a228	-0.055086285
180	0xbd45d0aa	-0.0482947
181	0x3e0ffb1e	0.14060637
182	0x3dbf9224	0.09354046
183	0x3e30db1e	0.17271087
184	0x3e7ee3f8	0.2489165
185	0xbe118e8c	-0.14214534
186	0xbd2ab41f	-0.041675683
187	0xbd2f4108	-0.042786628
188	0x3e75e81c	0.24014324
189	0xbe5dc0c0	-0.2165556
190	0x3d4c40cf	0.049866494
191	0xbd970108	-0.073732436
192	0xbe7757ea	-0.2415463
193	0xbfc52c0e	-1.540407
194	0xbd2a4bb0	-0.041576087
195	0xbc0b4400	-0.008500099
196	0x3dab6e27	0.08370619
197	0xbe007ea0	-0.12548304
198	0x3e3cacea	0.18425336
199	0x3d91de00	0.07122421
200	0xbe6c9516	-0.23103747
201	0xbcbd8130	-0.02313289
202	0xbe2f8955	-0.17142232
203	0xbe46aa28	-0.19400847
204	0xbe5d0ce2	-0.21586946
205	0xbdbca114	-0.09210411
206	0x3a4d3ff4	0.0007829659
207	0xbd7f75a8	-0.062368065
208	0xbdb8e2e8	-0.09027654
209	0xbfacc595	-1.3497797
210	0x3de32498	0.11090964
211	0xbe4d55c2	-0.20052245
212	0x3e7dc6ff	0.24782942
213	0xbd834970	-0.064104915
214	0x3c6511a0	0.013981253
215	0xbd7c0fa0	-0.06153834
216	0xbdfc12f4	-0.123083025
217	0xbcedf2b0	-0.029046386
218	0xbda7450b	-0.08167466
219	0x3e1e89e2	0.15482286
220	0xbe631b00	-0.22178268
221	0xbb9ed180	-0.0048467517
222	0x3e74c8ad	0.23904677
223	0x3be81640	0.0070827305
224	0x3d88c224	0.066776544
225	0xbfbc3d73	-1.4706253
226	0xbe7a319a	-0.24432984
227	0x3dff76b8	0.12473816
228	0x3df3b38c	0.1189948
229	0x3e576c04	0.21037298
230	0xbe292e98	-0.1652168
231	0x3e6ddb38	0.23228157
232	0x3d96b120	0.07358003
233	0x3e57ae8e	0.21062681
234	0x3e12659a	0.1429657
235	0xbd5bc678	-0.05365607
236	0xbc447960	-0.011991829
237	0x3e78f6ea	0.2431294
238	0x3e254787	0.16140567
239	0xbd94617c	-0.07245156
240	0x3e4bf546	0.19917783
241	0xc00941d5	-2.144643
242	0xbda1d900	-0.079027176
243	0x3c82b5e0	0.015955865
244	0xbe5dbcc6	-0.21654043
245	0x3e694a22	0.22782186
246	0x3d8745b4	0.06605092
247	0x3e06a4e6	0.13148841
248	0xbe5e0fa8	-0.2168566
249	0x3e246948	0.16055787
250	0x3dc1bec5	0.094602145
251	0xbe634ae8	-0.22196543
252	0x3ca48b60	0.02008599
253	0xbd017540	-0.03160596
254	0xbe03bd53	-0.1286519
255	0x3d21d2a8	0.039507538

linear_layers.6.bias f4 [16]
0	0xbef54f4e	-0.47912067
1	0xbe76d02d	-0.2410285
2	0xbf33ca03	-0.7023012
3	0xbe12b1ea	-0.14325681
4	0xbf134537	-0.5752749
5	0xbe7aa377	-0.2447642
6	0xbe4efab1	-0.20212819
7	0xbf7c665f	-0.98593706
8	0xbf3d04a2	-0.73835194
9	0x3f02cac5	0.5109065
10	0xbf0fdfd0	-0.56200886
11	0xbedc548d	-0.43033257
12	0xbebd781b	-0.37005696
13	0xbf06158a	-0.52376616
14	0xbeafe2f0	-0.34352827
15	0xbf3bb831	-0.7332793
