snn_models/n_mnist_qat_snn/784x16x16x16x16x16x16x16x16x10/model_state_dict.pkl (torch, 84379 bytes, 18 tensors)

linear_layers.0.weight f4 [16, 784]
00000000: e323 28be 3768 78be dadb a3be f408 febe
00000010: 6465 a9be 87a1 cdbe b269 cbbe 363a dabe
00000020: 6407 dcbe dc9e 3dbe 1de6 8fbe 55bd 46be
00000030: 0458 52be 5ac6 67be a71a a1be a58e 74be
00000040: 79c3 44be 5361 fdbd 7555 aabd 7336 15be
00000050: 291c 05be 3f80 a7bd 6b3b 2ebe 5825 9abe
00000060: e41a 3abe cff2 15be 4700 30be 8c38 1bbe
00000070: 45e9 86be 1648 a1be d60e afbe 75ee eebe
00000080: 223f 9abe 132c 51be 9814 9dbe 6c6d 55be
00000090: a915 68be 2cb6 73be 0463 4bbe b3cc 8cbe
000000a0: ab7d 58be 8928 5dbe 52d1 18be c103 6ebe
000000b0: 3423 a3bd dc17 7abd 67d7 bcbd cd38 c9bd
000000c0: 1f65 5fbd 4e8d 9abd 7201 ddbd ec9d c7bd
000000d0: efe4 abbd c1c0 35be af22 82be 8e2b 8abd
000000e0: 4e79 1abe bf96 69be ee6e 6cbe cf15 babe
000000f0: dd5b d7be 1196 b5be 8fe1 8abe cdb6 a1be
00000100: eba7 7fbe 976b 5cbe e096 8dbe 08fb 37be
00000110: 151c 8abe 0627 5bbe d22b 6bbe 4828 0ebe
00000120: 7743 25be c946 fbbd 6d8e adbd 56d5 0cbe
00000130: c238 81bd 46e9 00be 43a8 b6bd 7a26 84bd
00000140: b743 f3bd e502 06be 2df1 96bd f0e4 7bbe
00000150: 110c 62be 5f46 31be 2d9e 7abe 502e 81be
00000160: 27fd 7fbe 1516 47be 1bbd 15be bd0d 3dbe
00000170: 6997 4fbe eb3e 99be 42a0 7bbe 516c 74be
00000180: 8dfa 7bbe 21ad 73be 985d 7ebe df0e 28be
00000190: 78e1 d2bd b903 07be fe3d 6ebd 639e 00bd
000001a0: 6014 45bd 4b38 efbd 4ebc 9ebd 1711 c6bd
000001b0: b1a7 5abd 517e c9bd 67d0 02be c5f2 46be
000001c0: 9c02 27be 2ea0 81be d011 8cbe c2ba 6abe
000001d0: 56ff 80be 8d0c 71be a753 67be 1398 0ebe
000001e0: aba3 54be 33cd 55be 8e95 3cbe 38ca 79be
000001f0: b12c 61be b9ec 63be c755 39be f1bd 06be
00000200: 820e ddbd c3a8 ddbd 2efb 2ebd 317f 28bd
00000210: dfd7 62bd e421 fabc 85e7 54bd 4c00 b0bd
00000220: 541d 42bd cfd7 81bd 3d15 05be 9f99 6bbd
00000230: 5c57 22be 11db 28be 6c7e 56be d16b 86be
00000240: 7fa7 5abe 4f2a 66be 4001 2cbe 1028 2fbe
00000250: 2156 43be a645 42be 1481 3abe 1ae5 2fbe
00000260: 86aa 46be e957 4abe 8a41 2dbe 4f51 d7bd
00000270: dbb3 e3bd b3fd 88bd f76a 52bd 34e6 babd
00000280: 4108 7cbd b44e 85bc 7fff 81bd 9fd4 fbbc
00000290: d427 57bd 3f93 e3bc 83e6 83bc 96b4 6abe
000002a0: f1f6 31be 2698 5cbe d1d7 3bbe 5394 61be
000002b0: 2ddf 61be 053e 60be 164e 5bbe e9de 01be
000002c0: c54c 0abe 82a9 e7bd a0c4 15be 3744 efbd
000002d0: 1a14 1dbe 92ff 32be 67fa 1bbe 2659 e6bd
000002e0: 0d6e c0bd a690 e7bd 92ab b5bd d329 adbd
000002f0: 4b6d d8bc 958d 2ebd 5ada 2fbd 4fc0 a0bd
00000300: 73f7 34bd 6ae2 87bd 4a44 ddbd f21e 2abd
00000310: c3de 5cbe 5418 77be d3cb 74be 00e6 24be
00000320: f58c 52be d0c3 53be 4371 2ebe f87a 10be
00000330: 6a14 d0bd d862 09be be02 ebbd 23e9 d5bd
00000340: bcb6 ffbd a78d 0fbe 0767 d9bd b928 cdbd
00000350: 229c cabd a78b f3bd ee9e 77bd 69ae 28bd
00000360: bd07 b2bd 6bd0 7bbd 026f 66bd 9e3b 46bd
00000370: 1459 31bd 3c27 88bd 8c98 94bd 1b2f 0dbe
00000380: a84b 68be 8f6b 4abe 5722 5bbe 9be4 50be
00000390: 22cc 3dbe 72eb 40be f414 06be 177b d0bd
000003a0: e573 04be 48c8 06be 1d2d 10be c96c e3bd
000003b0: e184 01be 221b 19be d840 f3bd f0c1 f5bd
000003c0: 332a a0bd ed29 cdbd 7a6b c9bd c7ff 0ebd
000003d0: bdc7 8cbd e19d 6cbd 85cc 92bd f85a 1cbd
000003e0: c19b 31bd 1b5a dfbd 6e1c c7bd 097c 1bbe
000003f0: b224 17be 55d8 0fbe edc7 55be 1fab 4cbe
-0.1641994 -0.24258505 -0.3200367 -0.49616206 -0.33085167 -0.40162298 -0.39729077 -0.42622536
-0.4297439 -0.18517631 -0.2810525 -0.19408162 -0.20541388 -0.22634259 -0.31465647 -0.2388254
-0.19215192 -0.12372079 -0.08317081 -0.14571552 -0.12999023 -0.08178758 -0.17014854 -0.30106616
-0.1817432 -0.14643405 -0.17187606 -0.1515829 -0.26349846 -0.3150031 -0.34191006 -0.46666303
-0.30126292 -0.20426969 -0.30679774 -0.20842522 -0.22664513 -0.23799962 -0.1986199 -0.27499923
-0.21141689 -0.21597494 -0.149236 -0.2324362 -0.07965699 -0.06105791 -0.09220772 -0.09825287
-0.054539796 -0.07546483 -0.10791291 -0.09746918 -0.08393275 -0.17749311 -0.25417086 -0.06746589
-0.15085337 -0.22811411 -0.23089191 -0.36344764 -0.42062274 -0.35466054 -0.27125213 -0.31584778
-0.249664 -0.21525417 -0.2765417 -0.17966855 -0.2697455 -0.21401605 -0.22965935 -0.13882554
-0.16139017 -0.122693606 -0.08474431 -0.13753256 -0.06309654 -0.12588987 -0.08918812 -0.06452651
-0.1187815 -0.13087042 -0.073702194 -0.24599051 -0.22074915 -0.17312 -0.24474402 -0.25230646
-0.24998914 -0.19442017 -0.1462292 -0.18462272 -0.20272602 -0.29930815 -0.24572852 -0.23869444
-0.24607296 -0.23796512 -0.2484039 -0.16411923 -0.10296911 -0.13185014 -0.05816459 -0.03140105
-0.048115134 -0.11680659 -0.0775076 -0.096712284 -0.05338258 -0.09838546 -0.12774812 -0.19428547
-0.16309589 -0.2531752 -0.2735734 -0.22922805 -0.25194806 -0.23539944 -0.22590505 -0.13925199
-0.2076556 -0.20879059 -0.18416426 -0.24393547 -0.21989705 -0.22258271 -0.18099128 -0.13158394
-0.10793783 -0.10823204 -0.042720012 -0.041136924 -0.055381652 -0.030533738 -0.051978607 -0.085938066
-0.04739125 -0.0633999 -0.12996383 -0.05751955 -0.15853637 -0.16489817 -0.20946664 -0.26254132
-0.21352957 -0.22477077 -0.16797352 -0.17105126 -0.19075824 -0.18971881 -0.18213302 -0.17177239
-0.19400987 -0.19760098 -0.16919532 -0.10513555 -0.11118289 -0.06689014 -0.05137154 -0.09125939
-0.06153131 -0.01627288 -0.0634756 -0.030741034 -0.052528217 -0.027780173 -0.016101127 -0.2292045
-0.17379357 -0.21542415 -0.18344046 -0.22029237 -0.22057791 -0.21898659 -0.21416506 -0.1268269
-0.13505848 -0.11311628 -0.14625788 -0.11682933 -0.153397 -0.17480305 -0.1523224 -0.112474725
-0.093959905 -0.113068864 -0.08870615 -0.08455243 -0.026419302 -0.042615492 -0.042932846 -0.0784918
-0.0441813 -0.06634982 -0.10804041 -0.041533418 -0.21569352 -0.24130374 -0.23905878 -0.16103363
-0.20561583 -0.20680165 -0.17035393 -0.14109409 -0.10160144 -0.13416612 -0.114751324 -0.10444858
-0.12486026 -0.1401888 -0.10615354 -0.10017533 -0.09893061 -0.11891871 -0.0604543 -0.041181955
-0.08692882 -0.06147806 -0.05625821 -0.0483967 -0.043297842 -0.06648108 -0.072556585 -0.137875
-0.2268511 -0.19767593 -0.21399818 -0.20399706 -0.18534902 -0.18839815 -0.1309393 -0.101797275
-0.12934835 -0.13162339 -0.1407971 -0.111047335 -0.12648346 -0.14951757 -0.11877602 -0.11999881
-0.07820549 -0.10017762 -0.09834953 -0.034911897 -0.068740346 -0.057767753 -0.07167915 -0.038172692
-0.04336143 -0.10905858 -0.097222194 -0.15184034 -0.14760092 -0.14047368 -0.20877047 -0.19987153

linear_layers.0.bias f4 [16]
00000000: 1d45 87be b7bf b2be 379d d73f 7315 09bf
00000010: 39c8 83be cf05 6ebe 4ba8 e1be b147 d2be
00000020: bb5c b5be 7f88 8cbe 94d3 8cbe 5a41 89be
00000030: d039 4abe 95d9 c5be 40b3 8cbe 0ec6 bfbe
-0.26419917 -0.34911892 1.6844853 -0.53548354 -0.25738695 -0.23244403 -0.4407371 -0.4107032
-0.3542231 -0.27447888 -0.2750517 -0.26807672 -0.19748616 -0.38642564 -0.27480507 -0.3745579

linear_layers.1.weight f4 [16, 16]
00000000: a04a 38bd 2dce 6abe b094 96bf a7a2 acbd
00000010: f89b 033d 78c5 573e 57a6 80be a493 343e
00000020: 9204 82be 01ba 4ebe 01d2 5a3e d297 a0bd
00000030: 6849 b0bd 443b 17bd 76c1 623d df40 33bd
00000040: d774 6ebe 56be 423e 4c57 a4bf 701d 4fbe
00000050: f267 3bbc 4b37 7fbe 303b 59be 575a 8c3d
00000060: fed9 89bc b099 03bd 5b70 463d 30fc 20bd
00000070: e914 2a3e 99d7 f2bd e3e1 5a3d 4a64 35be
00000080: e8c5 4bbe 3546 953d 1c7c 84bf 1411 a8bd
00000090: 4f22 573e b829 00be 00e1 1b3d 0fc5 9cbd
000000a0: 1865 5abe 7a75 163e 581b 263e 9e24 dc3d
000000b0: 9eae 79bd 2c43 e1bd 5d60 aabd f9d1 043e
000000c0: dc84 3e3e 0971 b9bd 19a1 a6bf 8ddc bbbc
000000d0: d62b 943b 8c86 bdbd 6708 643e f378 74be
000000e0: 8178 673e 6897 3a3e 71e3 1abb b6c3 1c3d
000000f0: e6ac 123e 7083 ad3d e404 21be 13fc 18be
00000100: b5b6 b43d 671e 87bd 071f acbf 0347 4cbe
00000110: c23c 033c 8477 fd3d 35ed 283e 2d93 6abe
00000120: a228 58be f612 9d3c 9958 35bd 8e72 9abd
00000130: 2415 bbbc f3d1 45be e79b 47be 8cf9 31be
00000140: 04a6 3ebd e8cd 1bbe c66b b3bf 3303 353e
00000150: 06a5 21be f43f 67bb 86eb 1dbe b2b8 80bd
00000160: 8c91 d73d a6ee 623e 9b90 eb3b 9b0a d93c
00000170: 2a69 11bd 579c 8fbc 17ba a63d b8c9 ca3d
00000180: d301 9a3d bbc7 28be 14bb 82bf a244 c0bc
00000190: 1d60 283e ac5f e9bd 8f9f e1bd 805d af3c
000001a0: 1701 eebd 2ded 713c bcfe 7c3c 20e4 32be
000001b0: 59f1 223d 8c7e 933d a278 043e 7a21 b9bc
000001c0: 739f 73be 5e5a e13d c77e 9cbf 9bf6 43be
000001d0: 0c80 2f3e fc04 23be fa7d 613e 6afa f6bc
000001e0: 755f 0cbe 824f 40be ee15 e4bd 11eb 453e
000001f0: 82ac f9bc 8781 a33d a7c6 203e 0896 063c
00000200: f314 733e bd76 163e 4f8d 92bf 8cf5 1b3e
00000210: e335 553e d5c6 70bb 7075 cbbd c1b9 413e
00000220: f661 d53d b156 183e 2327 35be 8c0d 593e
00000230: 1510 28be ef9c 51be a0c8 8e3d af38 123d
00000240: a11c 103e 1d66 afbd 351e 9fbf dd4f ebbc
00000250: 99f6 333e 278b f83d 7a9d 3f3e 426e e3bd
00000260: fc41 71be a160 6ebe 2955 acbc af1c d8bd
00000270: 1321 803d 508a 233e b951 b53d dd60 2c3e
00000280: 90e2 82be 5683 63be 7f3b fe3f 0141 4f3e
00000290: c24b a63d 13a9 f3bd 8c4b cebd 1a62 823c
000002a0: 639a 5cb8 09e5 2c3e d4a8 eebc 8183 69bc
000002b0: d6d8 3e3e cbac 5e3d a592 613b c642 1f3e
000002c0: 3100 e73d 23ad f23d f1ec 99bf 6b1e 4fbe
000002d0: caf4 fb3d 2048 2d3e a4c4 b43d bd0a 3a3e
000002e0: 16d2 a5bc 8aea 18bd 8f26 213e 19dd 013e
000002f0: 08e5 953c 1e69 58be 3e8c 263c 57b9 193e
00000300: 30e2 ba3c 37f1 2d3c a335 84bf 2590 60be
00000310: b41a 3fbe 6e3e 003e c3cf 44be 89ea 14be
00000320: 037a 0e3e 5aed 1a3e a806 65be 50ca 653e
00000330: 1826 68be 6609 243e 32f2 cd3d 9e39 67be
00000340: 61f0 82be a385 3d3e e16b b1bf cd15 32be
00000350: cbed ff3b 6a1e 0cbe 3dcb 16be c6d8 cfbd
00000360: 243b 683e 05d1 183e a77d 4abe 9e65 58bd
00000370: e64f 01be 6fa7 783e 5f27 493d 6c7a 81be
00000380: f5ab 123e 89bd 52be 332f 77bf 051a 9dbc
00000390: 3ea6 24bd d2c3 81bd 88c3 063e a95d 793d
000003a0: 61a0 1fbd 2b60 c7bd b71f c4bd b378 4b3d
000003b0: e4dd c3bd 4565 ccbb a3c4 4cbe 346a 82be
000003c0: a675 413e 2295 76be 0e53 8bbf 02c9 773e
000003d0: 591e 4fbe 03a7 733e d469 343d 6d7a 9fbc
000003e0: 641e 89bc 1ad1 38be 6975 c4bd 124e 2ebe
000003f0: a76e 80be f244 6a3e d292 6abe 3e66 a8bc
-0.044993043 -0.22930212 -1.1764126 -0.08429461 0.032131165 0.21071422 -0.25126907 0.17634445
-0.25394112 -0.20188142 0.21369173 -0.078414574 -0.08607751 -0.036921754 0.05536028 -0.043763038
-0.23286758 0.1901792 -1.2839141 -0.20226073 -0.011438357 -0.24923436 -0.21213984 0.068531685
-0.01682758 -0.03212899 0.048446994 -0.039303005 0.16609539 -0.11857528 0.05343808 -0.17714038
-0.19899714 0.072887816 -1.0350375 -0.082063824 0.21009181 -0.12515914 0.038056374 -0.076547734
-0.21327627 0.14693251 0.16221368 0.10749172 -0.060957544 -0.1099914 -0.08319161 0.12970723
0.1860537 -0.09054763 -1.3017913 -0.022932315 0.004521827 -0.092541784 0.2226883 -0.23874263
0.22604562 0.1822182 -0.00236341 0.038272582 0.14323768 0.08472335 -0.15724522 -0.14939909
0.08823911 -0.06597596 -1.3446969 -0.19948964 0.008010091 0.123763114 0.16496737 -0.22907706
-0.2110925 0.01917408 -0.044273946 -0.07541381 -0.02283723 -0.1931837 -0.19493066 -0.17380351
-0.046545044 -0.15215266 -1.4017265 0.17677002 -0.15785608 -0.0035285922 -0.15421876 -0.06285228
0.10525808 0.2216135 0.007188869 0.026494315 -0.035500683 -0.017530603 0.081409626 0.09901756
0.07519879 -0.16482441 -1.0213342 -0.023470227 0.16442914 -0.11395201 -0.110167615 0.021406889
-0.116213016 0.01476602 0.015441593 -0.17469835 0.03978095 0.07201871 0.12936643 -0.02259897
-0.23791294 0.11003564 -1.2226189 -0.19137041 0.1713869 -0.1591987 0.22020712 -0.030148704
-0.13708289 -0.1878033 -0.11136995 0.19327952 -0.030477766 0.0798369 0.1570078 0.008214481
0.2373846 0.14693733 -1.1449374 0.15230387 0.20821337 -0.0036739607 -0.09934509 0.18918516
0.10419075 0.1487682 -0.1769071 0.21196574 -0.16412385 -0.20470022 0.0697186 0.03569859
0.14073421 -0.085643984 -1.2431093 -0.028724605 0.17574538 0.12135916 0.18712416 -0.111050144
-0.23560327 -0.23279049 -0.021036701 -0.10552346 0.062563084 0.15970731 0.08853478 0.16833825
-0.25563478 -0.2221807 1.9861907 0.20239641 0.081199184 -0.11897483 -0.10073003 0.01591592
-5.259587e-05 0.16884245 -0.029133238 -0.014252544 0.18637404 0.054364007 0.0034419682 0.15552816
0.112793334 0.118494295 -1.2025434 -0.20226447 0.12302549 0.16922045 0.08826569 0.18168159
-0.020241778 -0.03733305 0.15737365 0.12681998 0.018297687 -0.21133849 0.010165272 0.15012108
0.022812933 0.010616592 -1.0328869 -0.21929987 -0.1866253 0.12523815 -0.1921988 -0.14542593
0.13913731 0.15129605 -0.2236582 0.22440457 -0.22670782 0.1601921 0.10055961 -0.22580573
-0.2557402 0.1850801 -1.3861047 -0.17391129 0.0078103296 -0.13683477 -0.14725967 -0.10148768
0.2267881 0.14923485 -0.19774495 -0.052831285 -0.12628135 0.24282621 0.049109813 -0.25288713
0.14323409 -0.20580114 -0.96556395 -0.019177446 -0.040197603 -0.06336178 0.13160527 0.060880337
-0.03897131 -0.097351395 -0.095763616 0.049675655 -0.09563807 -0.006237658 -0.19996886 -0.25471652
0.18892536 -0.24080327 -1.0884721 0.24197772 -0.2022642 0.23794179 0.044046238 -0.019467557
-0.016738124 -0.18048516 -0.09592707 -0.17021969 -0.2508442 0.22877863 -0.2290757 -0.020556565

linear_layers.1.bias f4 [16]
00000000: eaf1 a7bf 0ec9 6cbf 7bfc a5bf ae9d 59bf
00000010: dfe7 62bf 279a b6bf e171 74bf 2f35 cabf
00000020: 3bd4 a6bf 5a2c 77bf 8178 d2be e1a2 41bf
00000030: b1f3 5abf e211 8bbf b7e9 bcbf 105c adbf
-1.3120701 -0.92494285 -1.2967676 -0.85006225 -0.8863506 -1.4265794 -0.95486265 -1.579748
-1.3033518 -0.9655205 -0.41107562 -0.7563916 -0.85528094 -1.0864832 -1.4758824 -1.354372

linear_layers.2.weight f4 [16, 16]
00000000: 741d eabd 6ccc bcbd 20c9 083e b052 90be
00000010: 78e5 ba3c d0e5 793e 335f 8c3d 00e6 443b
00000020: d18d 103d 6e75 113e 9935 f6bf 229a 4e3d
00000030: 9849 2cbe e65c 953d 8ad4 19be 2a93 6fbe
00000040: a0a3 563e b0d6 cbbd 1042 b63c d5bc 013d
00000050: 3d18 92be 40ea 97bd 6d4e 9ebb c088 4dbc
00000060: 49f6 2fbd c540 ed3d a190 b7bf afe8 c0bd
00000070: 0d74 173e 899d 83bc 68c0 65bd 845a 18be
00000080: c2c2 7b3e 5e95 123e 0433 ff3d 487d 27be
00000090: 81d0 35be 26e4 24be 7756 4dbe c0ec 643e
000000a0: 9e60 39be 9365 703e 6d8d fabf 8b52 e13d
000000b0: bbca 6b3e ae46 a1bd 1094 013e dd5d 533e
000000c0: ea4e 0a3e 46f0 613e 2888 013e 862d 993d
000000d0: 3e65 303e 2cf4 bc3d 4755 823d d4c6 e9bd
000000e0: b8b7 4abd 558e 69be 9139 ebbf 0638 3a3e
000000f0: 7f34 9abd cf8b 28be 208d 57bc 1f9a 54bd
00000100: 801b 66bd 00fb d13b 66d9 5abe e6cc 183e
00000110: 651e 9fbd 04e2 46be 44cd e13c 8aa1 5e3e
00000120: 6bbb f83d a309 acbd fc14 e9bf 82ce 303e
00000130: e8c1 55be b8dd 54be 204c 35bc 03cc 803d
00000140: 9e8d 1cbe 0cb7 5bbe 2a88 2a3e 1e5f 87be
00000150: 69a0 85be f8f7 b3bd 550d 53be e08e eabd
00000160: 9a3f 0cbb 7c30 47be 4009 edbf ba1a 0a3e
00000170: 9d51 833c f4e9 7fbe 54e8 9fbd 94de 143e
00000180: 3e8b 173e a605 3e3e 629f 3ebe 6517 7ebe
00000190: cf6c 533d 6c36 d43d 0b78 363e a8ce 72be
000001a0: b073 3ebe 3b4e 413e 29e0 e8bf 353d f7bd
000001b0: ebb3 143d 72af e7bb eac6 64be 733b 74be
000001c0: 6c77 333e eec0 283e 60ca 523e 98ab 7fbe
000001d0: ba72 b03d 6ad0 2c3e 9894 733e e41f 98bd
000001e0: 69f6 043c d1a5 51be 6459 dabf 6ac5 783d
000001f0: a8b8 6cbd bd13 293e f038 a2bd 2446 bdbd
00000200: f4ab a8bd 50e0 6c3e 8037 b9bd 4265 0fbe
00000210: 66b1 96be 6852 523d cedb 003e 68a6 22be
00000220: a2d4 573e 500d e63b fa38 b7bf 46e1 d2bd
00000230: f72b 3a3e 3f60 593c d0a1 ffbd 4d4d 23be
00000240: 1e48 6abe 8ce0 aa3d bab9 1e3e 8126 483e
00000250: b65c d83d a241 16be 07cc 933d 7024 a7bc
00000260: 056b 203e b459 c8bc 8b45 dbbf e81a 7a3c
00000270: 4996 473e 4052 27be 803c 093e 9792 e33d
00000280: a6e7 5b3e 008b 29bd a83a 3b3e b67e 9bbe
00000290: f065 11be 7ae2 343e f5e5 a73d b290 70be
000002a0: 8e05 1cbd 876b 193e f176 03c0 29d8 163e
000002b0: b8a5 9a3d a92f 18be e8ec b03d 32a2 33be
000002c0: 0409 c73d 3243 2d3e 6050 0fbe 5b3c 5dbe
000002d0: 8aa7 a23c 9e2c 63be dced cebd f6e3 073e
000002e0: 3ac8 18be e223 6dbe 569e f9bf b1fb 243e
000002f0: c41e 3b3e 8fca 903d 548c 63be 813c d7bd
00000300: 22c5 3a3e 7874 ef3d 5a8d 503e 27e6 0c3e
00000310: 12b1 25be 8e41 2d3e eaa2 a1bd f041 f6bc
00000320: 45ee 16be 34b4 873d 827d e9bf 9f07 f13d
00000330: 9dfb 263e 16d5 5dbe c489 7abe 2d26 65be
00000340: d0ee 0b3d ca9e 7c3e 6c26 903d c72f 18be
00000350: 447d 233d 84c8 d5bd a8b7 583d 8a16 70be
00000360: fa2c 72be f484 cc3d 804b d4bf 8d97 433e
00000370: b329 8ebd cf42 41be cc17 96bd 8da0 44be
00000380: b81c 8b3d b4ee de3d c6b4 22be 00d2 90bc
00000390: e62d e9bd b806 c83d ba9c 0fbe b095 49bd
000003a0: 5e81 2dbe 0faf d2bd 15aa d4bf 50cc 68be
000003b0: 7cfe ae3d 6778 333e 30af 9a3d 130a 073e
000003c0: 1cfa c5bd 3406 2c3e 30f8 c9bc bf33 833c
000003d0: b5fb 01be 00de 2c3c d351 923d 60d3 9f3c
000003e0: 5c0a 2ebe e807 733e e63b e9bf c319 703d
000003f0: bda6 b63d d9b6 4cbd feb2 6f3e 68b5 cc3a
-0.11431399 -0.09218678 0.13357973 -0.28188086 0.022814497 0.24404073 0.06854095 0.0030044317
0.035291497 0.14204952 -1.9235107 0.05043996 -0.16824949 0.072931096 -0.15022483 -0.23395982
0.20960855 -0.09953058 0.022248298 0.031674225 -0.28534117 -0.074177265 -0.0048311264 -0.012544811
-0.042959485 0.115846194 -1.4341012 -0.09419381 0.14790364 -0.01606633 -0.056091696 -0.14878279
0.24586013 0.14314792 0.12460902 -0.16356385 -0.17755319 -0.16102657 -0.20052515 0.22355938
-0.18103263 0.23476247 -1.957441 0.11002072 0.23026554 -0.07874809 0.12654138 0.20641275
0.13506666 0.22064313 0.12649596 0.07479386 0.17226121 0.092262596 0.063639216 -0.114148766
-0.049491614 -0.22808202 -1.8376943 0.18185434 -0.07529544 -0.16459583 -0.013156205 -0.051904794
-0.05617857 0.0064080954 -0.21371993 0.14921913 -0.07769469 -0.19422156 0.027563699 0.2174131
0.12145122 -0.084002756 -1.8209529 0.17266276 -0.2087475 -0.20787704 -0.011065513 0.06288912
-0.15288398 -0.21456546 0.16653505 -0.26439756 -0.26098946 -0.08787531 -0.20610555 -0.114530325
-0.0021400214 -0.19452089 -1.8518448 0.13486758 0.016030127 -0.2499159 -0.07807985 0.14538032
0.1479921 0.18556842 -0.18615487 -0.24813612 0.05161744 0.10361943 0.1781923 -0.23711646
-0.18598819 0.18877499 -1.8193408 -0.12072221 0.036304396 -0.0070704753 -0.22341505 -0.23850803
0.17526025 0.16479847 0.20585012 -0.24967802 0.08615632 0.16876379 0.23787153 -0.07427958
0.008115389 -0.2047341 -1.705853 0.060735144 -0.05779329 0.16511436 -0.07921016 -0.09241894
-0.082359225 0.23132443 -0.09043789 -0.1400347 -0.2943222 0.05134812 0.12583849 -0.15883791
0.21077207 0.00702063 -1.4314263 -0.10296874 0.18180834 0.013267576 -0.12482035 -0.15947457
-0.22879073 0.0834361 0.15500537 0.19545938 0.10564558 -0.14673474 0.072166495 -0.020403117
0.15665825 -0.024456836 -1.7130598 0.015265204 0.19490923 -0.1633997 0.13401985 0.11111944
0.21475086 -0.041392326 0.18284094 -0.3037011 -0.14199042 0.17664519 0.08198158 -0.23492697
-0.038091235 0.14982425 -2.0541346 0.14730896 0.075511396 -0.14861931 0.08638936 -0.17542341
0.097185165 0.16920164 -0.13995504 -0.21605055 0.01985528 -0.22184989 -0.10103962 0.13270554
-0.1492013 -0.2315822 -1.9501445 0.16111638 0.18273455 0.07069885 -0.222215 -0.10509587
0.18239263 0.116921365 0.20366421 0.13759671 -0.16180828 0.16919538 -0.078924015 -0.030060738
-0.1473933 0.06626168 -1.8241427 0.11769032 0.1630692 -0.21663317 -0.24466616 -0.22377844
0.034163296 0.24669948 0.070385784 -0.14861976 0.039914384 -0.10438636 0.052909523 -0.23446098
-0.2364997 0.09986296 -1.6585541 0.19100781 -0.06941547 -0.18873142 -0.07328758 -0.1920187
0.06792587 0.10885373 -0.15889272 -0.01767826 -0.113857076 0.097669065 -0.1402463 -0.04921502
-0.16943881 -0.10287296 -1.6614405 -0.22734189 0.08544633 0.17526399 0.075529456 0.13187437
-0.09666845 0.16799241 -0.024654478 0.016015885 -0.12693675 0.010550976 0.07144513 0.019509971
-0.1699614 0.23733485 -1.8221405 0.05861832 0.089185216 -0.049979065 0.23408124 0.0015618028

linear_layers.2.bias f4 [16]
00000000: 8fd6 91bf 1cd2 81bf cf79 a7bf 8128 88bf
00000010: ace1 90bf f0ce 8abf 8cf9 48bf 9b76 adbf
00000020: 4067 73bf 60e1 52bf 4e3c 9fbf 8f51 a9bf
00000030: 35b9 79bf 7d7f 37bf 7fe4 83bf 5aa2 9fbf
-1.1393603 -1.0142245 -1.3084048 -1.0637361 -1.131887 -1.0844402 -0.7850578 -1.355182
-0.9507942 -0.82375145 -1.2440279 -1.3228015 -0.9754823 -0.71678907 -1.0304106 -1.2471421

linear_layers.3.weight f4 [16, 16]
00000000: e05c 3cbc 84b0 523e 081a c3bd 108e 1dbd
00000010: fea2 173e 7691 0fbd 0963 57be dad9 2cbe
00000020: 5e90 ecbc 9b5b 20bd c810 16bd 1017 9ebd
00000030: d840 593e b503 8bbe 30b5 6a3d f301 14be
00000040: a843 8a3d 5e2f 503e 5859 5bbd f8f6 9d3d
00000050: 1f12 e93b ae27 62be 0090 c3bd 8046 f3bb
00000060: c118 0bbe 7f50 b7bd 0cd8 3ebe d64a 15be
00000070: 92b5 05be dcb8 e23d 4c1e 0dbe 01f3 b8bd
00000080: 9ee9 363e c214 7a3e 9897 d7bd 2ab8 1abe
00000090: 77d5 503e 6551 163e 556a b2bd 94d0 873d
000000a0: f284 db3b c705 073e c447 4c3e 969d 273e
000000b0: 908f 53be 1ffd 8dbe 706c 9bbd 6bee edbd
000000c0: 00f1 cd3c 6c9d c53d f8f3 78bd 9eba 44be
000000d0: 429d 7dbe e7a3 473d 743c 25bb 745b d2bd
000000e0: 48ad 26be ccb7 503e 80ef d93c 0057 a7bb
000000f0: b8b5 9bbd 9213 30be d474 7e3e 76d3 ff3c
00000100: a41a 2b3e ec5b 99bd a0c9 debd 9011 993d
00000110: baf0 04be 1551 fc3d 3fb3 d9bd de6c 0c3e
00000120: 89f3 b5be 82b7 d63d 6e8e 6c3e 1609 1f3e
00000130: c807 2f3d 2a92 54be 709f 64bd 2263 31be
00000140: b01d e93d 3e0a 5f3e c8e5 fe3d 5a79 73be
00000150: 47ee 243d 0dcb 2cbe 1219 ad3c be00 4e3e
00000160: bda6 1fbe 34a7 153e baae 753e 50dd d8bc
00000170: e4aa 723e 6bd6 fdbc 1af6 22be 197d 3c3e
00000180: 7c5d f73d a06a 993c 02d3 6fbe 9a0a 4e3e
00000190: c81a 423e 9b26 483b da41 2ebc 3637 68be
000001a0: 3345 debc cae8 683e 2c44 f9bd e426 f43d
000001b0: 40da c13d e39c 2b3e d0a7 11be f103 343e
000001c0: 8250 1b3e 38ad 84bd 205e 4b3e 5a07 4e3e
000001d0: b201 44be 0884 a03d d3ff d6ba 30a3 3ebe
000001e0: 1526 03be cbeb 57be c06c b33b 884e 43be
000001f0: 00f4 8eba 11a4 b3bd 54ff 843d e99e 2b3e
00000200: 3c46 a73d c471 a73d 5e58 4c3e c0e1 8dbb
00000210: 1315 dfbd e0a5 37be 1927 543d 5413 b8bd
00000220: 1b3b 96be 834a 56bd a0eb ab3c 2e68 22be
00000230: aef9 763e df00 ac3c 2c9b 4dbe 4a0a 1fbe
00000240: 3c00 953d 90ec d8bd d4a8 0b3e f0c9 e1bd
00000250: 9d85 4fbe fe2b 02bd ca0a a2be 7a51 183e
00000260: de36 7ebe b769 2c3e 6477 0abe d45b e53d
00000270: ba26 4a3e a6db 513e fcbc a7bd e037 123e
00000280: bade 66be f813 11bd 52ec 423e 604e 463c
00000290: fba2 963d 78c0 2ebd 821e f5bd 7865 5b3e
000002a0: ad1b 59be 816c 17be c8e3 52be 8849 743d
000002b0: 5891 2a3e 6bbd 64be 8078 083d 7434 933d
000002c0: 74d9 b8bd 5857 42bd a0e5 713e 8006 19bc
000002d0: 0522 23be d34a 7fbe 1adf d0bd 88f4 84bd
000002e0: 163a 3ebe d2ac 2cbb 2c58 2ebe 28d9 54bd
000002f0: 68ed 903d 4429 163e 40e8 10bd c822 62be
00000300: 541d 533e 6821 dabd b024 c6bc 6015 d5bd
00000310: 1411 e3bd 0a38 5fbe da4a cebc 287a 28bd
00000320: e905 98be 5f05 c43d 08f0 4e3d 6cb7 24be
00000330: 20f4 32be c66b 783c ba44 453e aa90 13bd
00000340: 1cc5 16be b8f0 223e 346b 5ebe 92c7 59be
00000350: 036b 3bbe fa95 a7bd 88c1 7cbd eabb 683e
00000360: 16d7 aabe 72a3 4c3d 6683 573e bea3 703e
00000370: f81d 693e fd7b 133e c8b6 0a3d ec85 7bbe
00000380: e6b5 203e cc07 653e 60ff 39be 3c7b 85bd
00000390: 4413 52be 0018 1abe ba88 8bbe 2a7e 7c3e
000003a0: f351 983d cc18 8f3c 78a2 f6bd 70e5 bfbd
000003b0: 38e4 45bd 4785 85bd 1042 8cbd 89b7 2d3d
000003c0: e8e6 2abe 5851 423e f028 1c3d 7898 4c3e
000003d0: f3e5 013c 5da4 b13d 83b4 89be 48e9 1abd
000003e0: 9835 003e b993 8d3d 9cc8 56be c456 3bbe
000003f0: 3c1e 8fbd 2429 4b3d fcc8 503e 5a29 eabd
-0.0114967525 0.20575148 -0.095264494 -0.03846556 0.1480827 -0.03505083 -0.21033873 -0.16879979
-0.028877433 -0.03914986 -0.036637098 -0.077192426 0.21216142 -0.27151266 0.0573017 -0.14453869
0.06751186 0.20330569 -0.053552 0.07713121 0.007112756 -0.22085449 -0.0954895 -0.0074241757
-0.13583662 -0.089509 -0.18637103 -0.14579329 -0.13057545 0.110704154 -0.13781089 -0.09030724
0.17862555 0.24421981 -0.10526961 -0.15109316 0.2039393 0.14679487 -0.087116875 0.0663158
0.006699198 0.13185798 0.19949251 0.16368708 -0.20660233 -0.2773218 -0.07589042 -0.1161774
0.025139332 0.096491665 -0.06077954 -0.19211814 -0.2476702 0.048740294 -0.0025213035 -0.102713495
-0.16277039 0.20382613 0.02660346 -0.0051068068 -0.076030195 -0.17194965 0.24849254 0.031228762
0.16709381 -0.07488236 -0.10878301 0.07474053 -0.12982455 0.12320153 -0.106298916 0.13713405
-0.35537365 0.1048422 0.23101208 0.1553081 0.04273203 -0.20758882 -0.055816114 -0.17322972
0.113826156 0.21781251 0.12446171 -0.2377676 0.0402663 -0.16874333 0.021130119 0.2011747
-0.1559095 0.14614564 0.23992434 -0.026472718 0.23698002 -0.030986032 -0.15914193 0.18407096
0.120783776 0.0187276 -0.23420337 0.20121232 0.18955529 0.0030540589 -0.010635817 -0.22677311
-0.027132606 0.22745052 -0.12171206 0.1192148 0.09465456 0.16759066 -0.14224172 0.17579629
0.1516743 -0.06478351 0.19860125 0.20119992 -0.19141272 0.07837683 -0.0016403146 -0.18616939
-0.12807496 -0.21086042 0.0054756105 -0.19072926 -0.0010906458 -0.087715276 0.064940125 0.16759838
0.08167693 0.08175996 0.19955584 -0.00432989 -0.108926915 -0.1793437 0.0517951 -0.089880615
-0.2934197 -0.052317154 0.020986378 -0.15860054 0.24118683 0.02099651 -0.20078725 -0.15531269
0.07275435 -0.10591996 0.13638622 -0.11024845 -0.20265813 -0.031780235 -0.31648856 0.14874831
-0.24825618 0.16837202 -0.13522106 0.111991554 0.19741336 0.20493945 -0.08190343 0.14279127
-0.22545901 -0.035419434 0.19035462 0.012103647 0.07355305 -0.04266402 -0.119687095 0.21425426
-0.21201964 -0.14787485 -0.20594704 0.059640437 0.16657007 -0.22337882 0.033318043 0.07187739
-0.09025851 -0.04744658 0.23622751 -0.009339929 -0.15930946 -0.24930887 -0.10198803 -0.06491953
-0.18576846 -0.0026348126 -0.17025822 -0.05196491 0.07076532 0.14664179 -0.03537774 -0.2208358
0.20616657 -0.10650903 -0.024187416 -0.104044676 -0.11087242 -0.21798721 -0.025182176 -0.041132122
-0.2969201 0.09571337 0.05052188 -0.16085595 -0.17475939 0.015162414 0.19264498 -0.036026634
-0.14723629 0.1591214 -0.21720582 -0.21267536 -0.1830254 -0.08182903 -0.061708003 0.22727934
-0.33367223 0.04996056 0.21046218 0.23499963 0.22765338 0.14402767 0.03386572 -0.24562806
0.15694389 0.22366256 -0.18163824 -0.06517646 -0.20515162 -0.15048218 -0.27252752 0.24657503
0.074375056 0.017467879 -0.12042707 -0.093699336 -0.04831335 -0.06519561 -0.06848538 0.04241136
-0.16689646 0.18976343 0.03812498 0.19980037 0.007928359 0.08673928 -0.26895532 -0.03782013
0.12520444 0.069129415 -0.20974964 -0.18294817 -0.069881886 0.04959978 0.2038917 -0.114336684

linear_layers.3.bias f4 [16]
00000000: f4b6 69bf 583d 56bf a354 c8bf 091e bdbf
00000010: 4979 b7bf e739 babf 5c40 c6bf 3deb 8dbf
00000020: 6bc2 8ebf 3424 b2bf ab0a c2bf f57d a0bf
00000030: 5bea 9abf ec93 80bf a720 babf a400 79bf
-0.9129479 -0.83687353 -1.5650829 -1.4774791 -1.4333888 -1.454892 -1.5488391 -1.1087414
-1.1153082 -1.3917298 -1.5159506 -1.2538439 -1.210277 -1.0045142 -1.4541215 -0.972666

linear_layers.4.weight f4 [16, 16]
00000000: 4d54 03bd f0ce f2bd 30b2 a73c 5cfb f9bd
00000010: 4084 933c 2412 4ebe ea5b 133e b479 51be
00000020: 09ef 93bd ee88 07be 8cf7 493e f818 41bd
00000030: f81c 083e 3e15 a0bc 1cf0 51be d4b5 5bbc
00000040: bb66 143e c673 a8bd ce18 5ebe 102f babd
00000050: 40f8 f8bb 7cee 353e 220d 68be 6084 abbc
00000060: 196f 47bc e863 a53d a0a4 55be 04ea 82bd
00000070: c8aa 7cbe 0e61 0d3e d232 69be 52ba 43bd
00000080: 62c8 42bb 1ffd 1639 4c5f e43d c007 8bbd
00000090: 109f ef3c 709e debd 8627 69be 3095 dc3c
000000a0: 11f7 5ebe f014 04be c236 63be d04b 19be
000000b0: dc18 a83d ca44 813b bcca b3bd da56 6cbe
000000c0: 3e6e 773d da71 4ebd f690 20be 9082 f53c
000000d0: 084c c2bd dc91 33be c885 4bbd f41b 20be
000000e0: 7358 d33d eaa2 02be ac34 edbd f0c7 143d
000000f0: f00d 23bd a4b0 3abe a842 fcbd 12d0 a03c
00000100: b64d 01bd b875 3fbd 9c68 42be 4c65 873d
00000110: bc8c 8a3d 4c1f 32be a437 42be c01d 2ebc
00000120: 6381 ad3d ac03 68be 9a27 0fbe 40a1 96bd
00000130: a80a 55bd 939a 45be 3824 4f3e 0ac8 753d
00000140: 1d8b 83bd 9dca cabd e485 d6bd 5804 13bd
00000150: 784c ea3d d451 4e3e 0ab5 6cbe 28ae 443d
00000160: d20b 25bd 407f 1abd 3c93 2abe b8a2 c13d
00000170: b095 403e 455f 1d3e d0d6 703d b973 4dbd
00000180: b8e2 cfbd 7759 93be 2ca0 093e ece0 f53d
00000190: 90bb 1bbe e86b 1dbe 0c9d c8bd 7012 023d
000001a0: 26af 78be 789e 43bd 8a03 2f3e 0ab8 62be
000001b0: 38c4 5b3e d8e7 74bd 704e 41be 1300 303e
000001c0: 867d 8dbe 26ab 043e 6026 5a3d 009a 633b
000001d0: 34b7 d73d 189f 48bd e8b5 c0bd b6c7 2f3e
000001e0: f130 05be 202b b13d 309a dd3c cc69 073e
000001f0: 0c7c 553e 7bf4 2d3e 0cbd 9f3d e556 ba3d
00000200: ebb1 f1bd 31b9 f6bb f44c 7e3e 287c e7bd
00000210: 7025 973d b8b3 483e 80e2 403d 40f4 643e
00000220: 7a29 403d e8b2 323d 3e40 1cbe 16f0 2e3e
00000230: 780b 4e3e df76 4c3d c0d0 fc3c e922 9b3d
00000240: 05d5 c3bc bfe4 24be 6219 623e b029 66bd
00000250: 4035 5abc 8a27 6dbe 18c6 6cbd 2a5c 063e
00000260: a5a5 e7bc ca63 5b3e ba84 38be a8d6 e83d
00000270: 70c3 3a3d c373 9c3d 6063 fb3c 02b4 4c3c
00000280: bd3d 7c3d 914e a8be c841 853d 383f ebbd
00000290: a8b8 00be 4476 7c3e c448 70be 1859 763e
000002a0: b199 2cbe 6a37 1bbe 1e33 2c3e ec11 c93d
000002b0: 9216 3b3e a94b 52bd 3a4f 4d3e 3fd5 b23c
000002c0: 42ba 45be 3662 c9bd f61f 2f3e f0dc bcbc
000002d0: 30ab a2bd 9401 68be a801 0abd c279 24be
000002e0: 9040 7c3e 3870 48be 2adf 2cbe 92b0 1abe
000002f0: 2078 b6bd 9c10 583e 1220 063e 7eeb 3cbe
00000300: a9e2 993d 9fa3 df3d b2da 083e 8491 f23d
00000310: 8087 383c 9846 533e 28b5 023e 2027 ce3d
00000320: a2f8 203d aea9 16be 78ad cbbd 007c 86bd
00000330: 5070 323e 08bb 38be ce23 5d3e 5214 953d
00000340: 9aa8 633d 4a98 06be a094 45be 3e6f 593e
00000350: dca3 393e 98a4 2dbd 403f b8bb 2067 7bbd
00000360: 559a cc3d 106c 423d a837 33bd 80e4 743e
00000370: 7c77 64be 9b4c 603e f075 94bc 32a6 323d
00000380: c0a0 07be 7a64 a2bd d831 7ebd e02d 2b3d
00000390: 0054 783b 6444 2e3e 62fd 543e b6ca 2d3e
000003a0: 5ee9 49bd 809c 65bb 2ab3 38be b059 9e3c
000003b0: bcd4 4fbe ba08 23bd a02b 2ebe d654 50be
000003c0: dde0 1c3e 296d 63bd 927c 7dbe 26f6 18be
000003d0: 1241 59be a02c 683e e4f8 b93d 44fe 373e
000003e0: 39d8 72be 8c77 20be 0096 443c 907c 8fbc
000003f0: 109c b53c ccc2 3f3e 14f9 ec3d 361f cf3d
-0.032062817 -0.118558764 0.020470709 -0.12206146 0.018007398 -0.20124108 0.14390531 -0.20456582
-0.07223327 -0.13235828 0.19723338 -0.047142953 0.132923 -0.019541379 -0.2050175 -0.01341005
0.14492314 -0.08225207 -0.2168915 -0.09091008 -0.007597953 0.17766756 -0.2266126 -0.020937145
-0.012172484 0.08075696 -0.2086358 -0.06392291 -0.24674523 0.13806555 -0.22773293 -0.04778511
-0.0029721488 0.0001439941 0.11150989 -0.067885876 0.029250652 -0.10870063 -0.22768983 0.026926607
-0.21773936 -0.12898612 -0.22188857 -0.14970326 0.082078665 0.003944968 -0.08778903 -0.23080006
0.06040787 -0.050401546 -0.15680298 0.029969484 -0.09487158 -0.1753611 -0.04968813 -0.15635663
0.10319605 -0.1275746 -0.11582312 0.036323488 -0.039808214 -0.18231446 -0.12317401 0.019630466
-0.03156825 -0.046743125 -0.18985218 0.06611118 0.06765124 -0.17394751 -0.18966538 -0.01062721
0.08471944 -0.2265765 -0.1397995 -0.07354975 -0.052012116 -0.19297247 0.2022866 0.060005225
-0.06423018 -0.09901927 -0.10474756 -0.035892814 0.114403665 0.20148402 -0.23115936 0.04801765
-0.040294476 -0.03771901 -0.16657728 0.09454864 0.18807101 0.15368374 0.05879861 -0.05015919
-0.10150665 -0.28779194 0.13440007 0.12005791 -0.15208268 -0.15373194 -0.09795579 0.031755865
-0.24285564 -0.04775855 0.17091194 -0.22140518 0.2146157 -0.059791416 -0.18877578 0.17187528
-0.2763483 0.12955913 0.053259254 0.0034729242 0.1053299 -0.04897985 -0.09409696 0.17166027
-0.13006951 0.086508036 0.027051061 0.13223952 0.20848101 0.16987793 0.0779973 0.09098605
-0.11801513 -0.0075294008 0.24834043 -0.11302978 0.073801875 0.19599807 0.047091007 0.22358799
0.046914555 0.04362765 -0.15258881 0.17083773 0.20121562 0.04991805 0.030861259 0.07575018
-0.023905287 -0.16102885 0.22079995 -0.0561921 -0.01331836 -0.23159614 -0.057806104 0.13121095
-0.028277228 0.21424785 -0.18019381 0.113690674 0.04559654 0.07639267 0.030687034 0.012494089
0.061582316 -0.3287244 0.065066874 -0.114866674 -0.12570441 0.2465449 -0.23465258 0.24057424
-0.16855504 -0.15157858 0.16816375 0.098178715 0.18270329 -0.051341686 0.20049754 0.0218302
-0.19309333 -0.098331854 0.17102036 -0.02305457 -0.07942808 -0.22656852 -0.033692986 -0.16062072
0.24634004 -0.19574058 -0.16882005 -0.15106419 -0.08909631 0.21100086 0.13098171 -0.18449208
0.07513935 0.1091988 0.13364676 0.11844161 0.0112627745 0.20632398 0.12764418 0.10066056
0.039299615 -0.14713165 -0.09945196 -0.0656662 0.17425656 -0.18040097 0.2159569 0.072792664
0.055580713 -0.13144031 -0.19294977 0.21233842 0.18128914 -0.042393297 -0.0056227744 -0.061377645
0.09990374 0.047466338 -0.04375425 0.23915291 -0.22311205 0.21904223 -0.018122643 0.043615527
-0.13244915 -0.07929321 -0.062059253 0.041791797 0.0037891865 0.17018276 0.20799783 0.1697186
-0.049294822 -0.0035035908 -0.18037096 0.019329876 -0.20295995 -0.039803244 -0.17008829 -0.20344862
0.15320154 -0.055524025 -0.24754551 -0.14937648 -0.21216229 0.22673273 0.09080675 0.17968088
-0.23715295 -0.15670604 0.011998653 -0.01751545 0.022169143 0.18726653 0.115709454 0.10113375

linear_layers.4.bias f4 [16]
00000000: 0cb2 b4bf 784b 81bf 1674 afbf a413 87bf
00000010: 2cc3 5ebf a16f 63bf d669 82bf afaa 4abf
00000020: 3c7a 033f b7b9 c2bf d22d b4bf 44c0 a2bf
00000030: 4faa 86bf 189b b8bf 8f18 bcbf 8141 acbf
-1.4116836 -1.0101156 -1.3707302 -1.0552869 -0.8701656 -0.8884221 -1.0188549 -0.7916669
0.5135839 -1.5212926 -1.4076483 -1.2714925 -1.0520724 -1.4422331 -1.4694995 -1.345749

linear_layers.5.weight f4 [16, 16]
00000000: 2add 103e 7cf3 c1bd 14f7 80bd 439a b63d
00000010: 92ce f03c df70 f9bd 864b 64be 8b83 c53d
00000020: 55f7 96bf c0ac 8b3d 5043 d93c 30a1 62bd
00000030: ff08 62be 6827 543d 9452 9abd f0e4 7c3e
00000040: ccac 3dbe 1388 8dbd 18ee 9d3d 7729 07be
00000050: a9f6 59be 636c 3bbe 05ea e63d 1a0a 1c3e
00000060: a846 d4bf fee5 483e 60b2 4e3d fe0c 7a3e
00000070: 0dfd 54bd 507a 093e 2c97 7c3e 0056 0a3e
00000080: 861a 2e3e 634e 9dbe e0fb 72be df49 2f3e
00000090: 712a f0bd 1bf0 b9be 3aa2 a3be 6601 a53c
000000a0: 2344 bfbf 8cea bd3d 14e1 f3bd f014 1fbe
000000b0: c31e fcbd 4c0f 613e 8c7d 983d e027 ab3c
000000c0: 6c7a efbd e2bc b63c c220 3c3e b7e9 fabd
000000d0: c556 de3d b610 81be d2d7 023e bffb 943c
000000e0: 54d7 adbf 005e a7bb 48cf 32be 86ce 02be
000000f0: 3578 75be 88de 2c3e 60e7 af3d ee0b 53be
00000100: 7001 223d 62b3 63bc 5a30 053e f88a b43d
00000110: c7a3 eebd 1b1c 21be 6564 4dbe e6e2 a7bd
00000120: 41f5 e0bf f2db 33be a2ae 5cbe 7080 9e3c
00000130: 73c8 303e 307b 02be 9671 3abe c08f 5b3c
00000140: c6c3 10be 4736 27bc b258 43be e07f 843b
00000150: dbce afbe b5ea 04bf 08e7 06be 5ed1 02be
00000160: 45e2 aabf 38a3 f03d 20e4 0e3d a8ee 183d
00000170: 0955 88be 206d 79bd a021 17bc 7a25 483e
00000180: bc08 94bd 47a0 80be 00a7 c73b 6e16 0c3e
00000190: 7abc 01bb 3f52 c8be e0a2 3e3d 8e97 be3a
000001a0: d71a b7bf 1269 68be 74d9 543e d237 7cbe
000001b0: fd32 cf3d 2808 003d 8013 023d d087 64bd
000001c0: 00e1 d13a 8a57 5e3d dccf 563e 634a 89be
000001d0: b0fe c03d 48a7 d1be 7c16 8ebe c902 d53d
000001e0: 384f a0bf a032 543d 60c1 203e fc82 0bbe
000001f0: 2736 3b3e 00f6 ed3c 54df 4dbe f4d1 243e
00000200: 3a1c 453e 47f2 853d 80b8 babc f532 a7bc
00000210: 8948 3cbe bf58 01bf cfa4 003e 7edf 1f3e
00000220: 356a bcbf 60cf a7bd 70b5 14bd 00a8 10ba
00000230: 291a 8cbe f279 163e 7a89 793e cc94 d9bd
00000240: 785b 863d 9a06 90be 68e0 173e bbef 8ebe
00000250: 7227 96be e21a 95be e36e ffbc 1b6b a4bd
00000260: 22ad c9bf aa92 6b3e 9030 4f3e 70d9 fbbc
00000270: d280 ae3b c26f 22be c05c b9bd 60c3 8fbd
00000280: a8f7 4f3e 67b5 31be a0f5 5abc ebbd fdbd
00000290: 9625 a4bd 8e66 03bf 5607 98bc a4d3 773d
000002a0: 9c29 d5bf 584d 7ebd 006b 2e3b 08e0 fb3d
000002b0: f552 b2bd 2a35 413e c432 4cbe 4428 5e3e
000002c0: ea66 2dbe 4a1d 87bd 0080 4dbc 709a 1bbe
000002d0: 27d0 a03d 79e7 9bbe 83d8 3d3e ec81 833d
000002e0: bdf7 d5bf 205f 02bc 80c6 8bbc 1828 2f3d
000002f0: 1b7a 27be 3cbf 6ebe 8823 37bd c894 053d
00000300: 58ff 72be 4b45 983d f05b 73bd 9874 87be
00000310: b9a9 aebe 79c5 ffbe 580f b5bc 0863 bf3d
00000320: c417 d3bf 127b 56be b492 d43d 40c4 20bd
00000330: 2c5a 90be fa46 5c3e 9068 ad3c f81c c5bd
00000340: e4a4 89bd 254d d93c e069 883d ded1 c6bd
00000350: 15f3 e8bc 2b5a cebe 7831 4dbe b959 393e
00000360: 9d83 b1bf 84d9 f73d 00b8 9c3d 20e1 293c
00000370: eb7a a3bd 0012 093d 32ff 01be e60f 0c3e
00000380: 3055 c6bc d1fb 86be f828 7dbe d1e8 3c3e
00000390: 58bc 053e d280 1fbe 735b a1be 8645 58bc
000003a0: 159a c9bf 88e0 2a3d f081 e9bd 801e f3bd
000003b0: d4ac 9a3d 5051 17be 04e5 b8bd c8db 553d
000003c0: 7c60 403e 783e 663d 0890 f2bd 1421 3fbe
000003d0: c6fe 1cbe e192 ecbe 71f0 563d c622 dbbc
000003e0: 53c2 a4bf 38aa edbd 60d8 28bc 505a 373e
000003f0: e2df 2a3e e4e8 8fbd f01a c8bd 0ec9 29be
0.14146867 -0.09470269 -0.062971264 0.08916142 0.029395375 -0.121797316 -0.22294435 0.096442305
-1.179423 0.06820059 0.026521355 -0.0553295 -0.22073744 0.051795393 -0.07535282 0.24696708
-0.18522948 -0.0691072 0.077114284 -0.13199411 -0.212855 -0.18303065 0.112751044 0.15238228
-1.6584063 0.19618985 0.05046308 0.24419019 -0.05199914 0.13425565 0.24667042 0.13509369
0.17002305 -0.30723867 -0.23728895 0.17118023 -0.11726845 -0.36315998 -0.31959707 0.020142268
-1.4942669 0.09273252 -0.119081646 -0.15535331 -0.12310555 0.21978492 0.07445821 0.020893037
-0.11693272 0.022306863 0.18371871 -0.12251609 0.10856394 -0.25208062 0.12777641 0.018186448
-1.3581338 -0.005107641 -0.17461884 -0.12774095 -0.23971637 0.16881764 0.08589053 -0.2061002
0.039552152 -0.013897749 0.13006726 0.08815569 -0.11652332 -0.15733378 -0.20057829 -0.08197574
-1.7574846 -0.17564371 -0.21550992 0.019348353 0.17263965 -0.12742305 -0.18207392 0.013400972
-0.14137182 -0.010205812 -0.19076803 0.004043564 -0.34337506 -0.51920635 -0.13174069 -0.1277518
-1.3350302 0.117498815 0.034885526 0.037336975 -0.26627377 -0.060895085 -0.009224325 0.19545546
-0.072282284 -0.25122282 0.006092906 0.13680431 -0.0019796179 -0.3912525 0.04654205 0.0014541016
-1.4305066 -0.22696331 0.20786077 -0.24630669 0.10117147 0.03125778 0.031756878 -0.055793583
0.001601249 0.054282703 0.2097773 -0.26814565 0.09423578 -0.40947938 -0.2775153 0.10400922
-1.2524176 0.051806092 0.15698767 -0.13624185 0.18282376 0.029047966 -0.20104724 0.16095716
0.19249049 0.06540351 -0.022793055 -0.02041004 -0.18387045 -0.5052604 0.1256287 0.15612599
-1.4719912 -0.081938505 -0.036305845 -0.0005518198 -0.2736371 0.14694956 0.2436885 -0.10624084
0.06560415 -0.28130037 0.14831698 -0.27917275 -0.2932697 -0.29122072 -0.031180805 -0.08028241
-1.5755961 0.23005167 0.20233369 -0.03074333 0.005325415 -0.15862945 -0.09050894 -0.07019687
0.20309317 -0.17354356 -0.013364226 -0.123897396 -0.080149814 -0.5132836 -0.018558186 0.06050457
-1.6653323 -0.06208548 0.002661407 0.1229859 -0.08707229 0.18867937 -0.1994124 0.21695048
-0.1693379 -0.06597383 -0.012542725 -0.15195632 0.07852202 -0.30450037 0.18539624 0.06421265
-1.6716229 -0.00795725 -0.017062426 0.042762846 -0.16355173 -0.23315138 -0.04471162 0.032612592
-0.23730218 0.074350916 -0.05941385 -0.2645614 -0.34113863 -0.49955347 -0.022102043 0.093450606
-1.6491628 -0.20945385 0.10379544 -0.03924966 -0.28193796 0.2151145 0.021168023 -0.09624666
-0.067209035 0.026526043 0.06660819 -0.09707998 -0.028436223 -0.40303168 -0.20038402 0.18100633
-1.386829 0.12102035 0.07652283 0.010368615 -0.07982429 0.03346443 -0.12695006 0.1367794
-0.024210542 -0.26363996 -0.2472266 0.18448187 0.13060129 -0.15576485 -0.31515083 -0.013200169
-1.5750147 0.041718036 -0.11401737 -0.11871052 0.075524956 -0.14777112 -0.09028056 0.052211553
0.18786806 0.05621192 -0.11843878 -0.18664962 -0.15331563 -0.4620581 0.052475397 -0.02674998
-1.2871803 -0.11604732 -0.010305494 0.17905545 0.16686967 -0.07026842 -0.09770763 -0.16580603

linear_layers.5.bias f4 [16]
00000000: baf5 23bf 9ef8 0abf 3ac8 34bf 7eeb 0fbf
00000010: ac40 83bf bac0 26bf b312 f8be 5048 99be
00000020: f80e 0bbf 28be 7ebf 5109 50bf 7c62 61bf
00000030: acd3 60bf 6d83 8ebf adfd 0abf a033 83bf
-0.64046824 -0.5428561 -0.7061802 -0.5621871 -1.0254111 -0.6513783 -0.48451766 -0.29937983
-0.54319715 -0.99508905 -0.81264216 -0.880409 -0.87822986 -1.1133858 -0.5429333 -1.025013

linear_layers.6.weight f4 [16, 16]
00000000: 3cf4 3d3e 4e2b e0bd 787c 4dbd e414 3cbe
00000010: 2c02 e93d 7089 d5bd 3545 15be 2b31 4ebe
00000020: f131 bbbc 6eca 563e 346e bd3d d0fd a13d
00000030: e069 c63c a085 393e b82d 083d a247 7c3e
00000040: 10b9 753d f229 df3c d4dd 8ebd e41f 1dbe
00000050: 18aa 403d 4661 1cbe 475f 0abe 1c22 29be
00000060: febd 2b3e 0016 61be e00c 3dbe 2ae5 573e
00000070: f092 c13d c4a9 733e 4f89 acbd 66da 3c3e
00000080: 2466 58be 62cb 48be 1042 17bd 4afe 54be
00000090: 643e 00be c4db d8bd 309d e63d c682 41bc
000000a0: fd19 0e3e 504b 63be 0e5f 323e b84a 7a3d
000000b0: a860 763e a0da 52bd bea1 adbc 9ce7 cabd
000000c0: f68b 25be 6e71 4e3e fe61 43be 9832 4abe
000000d0: 64cb 1e3e 80d7 4bbb 8752 7bbc 60a3 52be
000000e0: 707a 2cbe 0cbe 07be b4d4 cbbd 44ba dd3d
000000f0: 9a3c 3cbe 682f 443d 059c 773e ccf4 f8bd
00000100: dc70 cdbd 9ef4 fe3b 8a27 63be acd3 c8bd
00000110: e09e abbd 64ce 933d 1547 57be 1f3d 21be
00000120: b9df 0e3e e07f 52bd c84b 60bd 107a 95bd
00000130: a83e 34bd 0ada 53be a2af 3ebe eeb5 73be
00000140: e296 13be 38e1 d3bd 5e9a 693e 98a2 07bd
00000150: 86df 363e e06a 783e 52a8 3dbd 7927 7d3e
00000160: 6b52 09bc 1496 f4bd f8cc 1dbd 1c2c b2bd
00000170: 3849 1a3d 78f1 c63d 407b 2f3e 7cf4 c53d
00000180: 2c10 e4bd e0cb 2ebe 90da cabc c4e2 e83d
00000190: 50dd bebd a828 15bd abc8 ebbd 0623 74be
000001a0: 8900 aa3d 8053 d03c f0b6 eabd a0b1 e5bc
000001b0: 0e00 343e 803b 153e 72df c83c c4ee 6cbe
000001c0: dc4c 68be a192 acbd 806a 003c 04ee dbbd
000001d0: c0fe acbc 446d 57be a6d5 fbbd 781c 013c
000001e0: 202a e1bd f0d8 b1bd 143e f93d 8833 4abd
000001f0: 387d 18bd cc42 0cbe 2708 8bbe 002f 1bbb
00000200: ac59 4bbe 81d3 0f3d 78de 83bd 68b9 d63d
00000210: 50c8 f53c a0f0 3c3d 7a74 1ebe 8293 22bd
00000220: 924b 6ebd f48f 5e3e 04f3 ce3d 80cf 843c
00000230: 0aa7 14be c083 ec3b 95eb b2bc bc5f eb3d
00000240: 26f8 5abe b7dc babd b27c 47be 0679 26be
00000250: 10d9 3b3d 26d5 223e b743 d2bc c066 11be
00000260: 9ccc edbc 50fa d33c 907c d63c 00de 9f3b
00000270: bc2c 3b3e 1e87 6f3e 9a5e 22be 0038 193d
00000280: a0f8 053e 60bf 01be b0d1 a43d 3048 b63c
00000290: 7ee8 71be 4038 073d ae28 313e d751 283e
000002a0: b0f5 31be b018 42bd 26ed 773e 54c2 39be
000002b0: 600b 04be c87f 553e d27a 20be 8803 763d
000002c0: 307a 113d 6e31 aabe 2c17 a93d 8097 00bd
000002d0: 0693 05be 0ceb 293e ce79 bbbd 27c5 4f3d
000002e0: b139 0d3e 50d6 46bd 08d9 5cbe c829 32be
000002f0: 6031 423d 6064 6dbe eeb8 d23d b2eb 72be
00000300: 902a 963d b7b1 e93a 409e 2a3e d40b 7abe
00000310: 8053 813b ecf2 5c3e 3c8c 82bd c3d1 a3be
00000320: 803b 9ebc 42d2 613e 8ae4 5cbe a07a 58be
00000330: 28b6 37be 1853 193e aeb2 43bd 0ccf b13d
00000340: 5659 4dbe 6807 93bd 2821 9bbd 04f8 d03d
00000350: e0f0 a13c 3cb5 74be 172b 20be 09ee 0e3d
00000360: 1446 5abe caa8 073e 1086 77bd 20b8 7a3d
00000370: 8c9f 193e 549c e4bd 71bb e93d d4ad 2b3e
00000380: c4ce 7c3e 49ca 6abe 6088 21bc 58f6 7fbd
00000390: aa14 7abe e8d1 5fbd 4d6b bbbd 222f 03be
000003a0: 1f68 5e3e ea6b 27be deb8 753e d0a1 34be
000003b0: f870 0bbd 1c22 a1bd 8067 2cbe 4090 1abe
000003c0: 9ca8 383e 19a4 78be 1cd3 5dbe 58b8 8dbd
000003d0: bc36 b03d c06c ba3b a564 973d cdbb f0bd
000003e0: bebc 3c3e 7053 10be 78c5 323d 80b5 9ebb
000003f0: 90c4 06bd b4fb 493e 7361 e3bd a082 b63d
0.185502 -0.1094576 -0.05016753 -0.18367344 0.113773674 -0.10426605 -0.14577182 -0.20135944
-0.022850962 0.20975658 0.09249535 0.07909739 0.024220407 0.1811738 0.033246726 0.24636701
0.059990942 0.02724168 -0.06975904 -0.15344197 0.047037214 -0.15271482 -0.13512908 -0.16516918
0.16771695 -0.21981049 -0.18461943 0.21083513 0.09451854 0.23795229 -0.08424627 0.18442687
-0.21132714 -0.19608834 -0.036928236 -0.20800129 -0.125238 -0.10588792 0.1126045 -0.011810964
0.13877101 -0.22196698 0.17419073 0.061106414 0.24060309 -0.05147803 -0.021195289 -0.09907457
-0.16166672 0.20160457 -0.1908035 -0.19745862 0.15507275 -0.003110379 -0.0153395 -0.20570135
-0.16843581 -0.13256091 -0.09952679 0.10826543 -0.18382493 0.047896773 0.2418061 -0.12156066
-0.10031292 0.0077806255 -0.22183052 -0.09805998 -0.083799124 0.072171 -0.2102321 -0.15745972
0.13952531 -0.051391482 -0.05475977 -0.07298672 -0.044005066 -0.20688644 -0.18621686 -0.2379987
-0.14413026 -0.103456914 0.22812793 -0.033114046 0.17858705 0.2425952 -0.0463031 0.24722089
-0.008381466 -0.11942688 -0.03852555 -0.086998194 0.037667483 0.09714025 0.1713686 0.09665772
-0.11135897 -0.1706996 -0.024762422 0.11371377 -0.09319556 -0.036415726 -0.11512884 -0.23841485
0.08300883 0.02543044 -0.11460674 -0.0280388 0.17578146 0.14573479 0.02452061 -0.23137957
-0.2268557 -0.08426405 0.007837892 -0.10738757 -0.021117568 -0.21037775 -0.122966096 0.007880323
-0.10994363 -0.08683956 0.121700436 -0.04936555 -0.037228793 -0.13697356 -0.27154657 -0.0023679137
-0.19858426 0.035113815 -0.06438917 0.10484582 0.030002743 0.046127915 -0.1547412 -0.039691456
-0.05817754 0.21734601 0.10104945 0.016212225 -0.14516845 0.0072178543 -0.02184085 0.11492869
-0.21383724 -0.09124129 -0.19481161 -0.16257104 0.045861304 0.15901622 -0.025667055 -0.14199352
-0.02902823 0.025876194 0.026182443 0.0048787594 0.18278784 0.23391387 -0.158564 0.03740692
0.13083124 -0.1267066 0.08047807 0.022251219 -0.23623845 0.03301263 0.17300674 0.1643747
-0.17378879 -0.047386825 0.24211559 -0.18140537 -0.12894964 0.20849526 -0.15671852 0.06006196
0.035516918 -0.33240837 0.08256373 -0.03139448 -0.13044366 0.1659357 -0.09154092 0.05072513
0.13791539 -0.048544228 -0.21567166 -0.17398751 0.04741037 -0.23182821 0.10289179 -0.23722723
0.07332337 0.0017829452 0.1666193 -0.24418575 0.0039467216 0.21577042 -0.06374404 -0.31995973
-0.019315481 0.22052863 -0.21571556 -0.21140528 -0.17940581 0.14973104 -0.047777824 0.08682069
-0.2005361 -0.07179147 -0.075746834 0.10203555 0.019768178 -0.2389726 -0.15641437 0.034894977
-0.21315795 0.13247982 -0.060430586 0.06121075 0.15002269 -0.1116263 0.11412705 0.16765529
0.2468825 -0.22928728 -0.0098591745 -0.06249079 -0.24421945 -0.05464354 -0.091513254 -0.12810948
0.21719407 -0.1634976 0.23996302 -0.17639852 -0.034043282 -0.07867834 -0.16836357 -0.1509409
0.1803307 -0.24281348 -0.21662563 -0.069199264 0.0860419 0.0056892335 0.07392243 -0.1175457
0.18431374 -0.14094329 0.043645352 -0.004843414 -0.0329023 0.19724923 -0.11102571 0.089116335

linear_layers.6.bias f4 [16]
00000000: 9a9b 6fbf 166b 32bf d545 6ebe 7e4b 00bf
00000010: 3036 5bbf e8b4 67be e0ce 68bf 4b0b 82bf
00000020: fb8c 1abf d027 80bf 8b42 02bf c73e 16bf
00000030: e8c3 93bf b84e 60bf 69a5 68bf 755e 09bf
-0.93596804 -0.6969465 -0.23268826 -0.5011519 -0.8562956 -0.22627604 -0.90940666 -1.0159696
-0.6037137 -1.001215 -0.50882787 -0.5868954 -1.1544161 -0.87620115 -0.90877396 -0.53659755
