ethosu_compiler/gen_cms/spk_mnist_784x32x10/model_params/save_model_dict_784x32x10.pt (torch, 106034 bytes, 4 tensors)

fc1.weight f4 [32, 784]
0	0x3cdfaea1	0.02730495
1	0x3cf2d62c	0.02964314
2	0xbc091537	-0.008366874
3	0x3d066135	0.032807548
4	0xbc0034f7	-0.007825128
5	0x3bec271c	0.0072068106
6	0xbc8e709c	-0.01738768
7	0x3cabd277	0.02097438
8	0x3d00f507	0.031483676
9	0xbcd6a37e	-0.026201006
10	0x3cfe4d4e	0.031042721
11	0x3bdb07a5	0.006684261
12	0x3d0bacd6	0.034100376
13	0x3bcfc5bb	0.00634071
14	0x3c3465ed	0.011010629
15	0xbc3811a1	-0.011234672
16	0x3ce18a08	0.027531639
17	0x3bacfa8a	0.00527889
18	0xbc889583	-0.016672855
19	0x3c1526e5	0.009103511
20	0xbc86cc63	-0.016454881
21	0xbb893e25	-0.0041883164
22	0xbc6da921	-0.0145056555
23	0x3cc2155a	0.023691822
24	0xbce6f27a	-0.028191794
25	0xbc86e0e3	-0.016464656
26	0xbc253ac5	-0.0100848125
27	0xbcafea47	-0.021474017
28	0x3b5ce913	0.003370826
29	0xbd107bbd	-0.035274256
30	0x3d041caa	0.0322539
31	0xbcf887b8	-0.030338153
32	0x3d10d4f4	0.035359338
33	0x3cba8caa	0.022772152
34	0xba25e5e9	-0.000632851
35	0x3d16b491	0.036793295
36	0x3c00193f	0.007818519
37	0x3cf3f12c	0.029778086
38	0x3bb9a24f	0.0056651006
39	0xbbd00629	-0.0063483906
40	0x3be9c2b3	0.0071338057
41	0x3be81595	0.007082651
42	0x3ced5f5b	0.028976133
43	0x3d3c26d6	0.045935474
44	0x3ce2d6b8	0.027690277
45	0xbbb4d5f8	-0.005518671
46	0x3d064021	0.032776
47	0x3ccfe6a8	0.02537854
48	0x3d307066	0.04307594
49	0x3a0c75ba	0.0005358119
50	0xbc6ec8c6	-0.014574235
51	0xbbc6bd0a	-0.0060650157
52	0xbce068b3	-0.027393674
53	0x3cf010f5	0.02930496
54	0x3c288a1c	0.010286834
55	0x3c725fc5	0.014793341
56	0x3c390ed7	0.011295042
57	0xba22ddb7	-0.00062128477
58	0x3cd0067b	0.025393715
59	0xbcc5bf0d	-0.024138952
60	0x3c02f3cb	0.007992695
61	0xbc4b9968	-0.012426712
62	0x3cdeac95	0.027181903
63	0xbbc4c456	-0.0060048504
64	0xba45bd42	-0.0007543155
65	0xbc778c22	-0.015109094
66	0x3d050bca	0.032481946
67	0xbc9aed86	-0.018912088
68	0xbc87582e	-0.01652154
69	0x3bd70243	0.006561549
70	0x3d85bdd5	0.06530348
71	0x3d3b7454	0.045765236
72	0x3d75cbd8	0.060008854
73	0xbc27f28a	-0.010250697
74	0xbbf3e57b	-0.0074431277
75	0xbb9c38c1	-0.004767508
76	0x3a34f4cd	0.0006902933
77	0x3d23e5fe	0.04001426
78	0x3cfd2474	0.030901171
79	0x3d148e6e	0.036268644
80	0xbcb9fddb	-0.022704056
81	0xbcca71fc	-0.024712555
82	0x3c9b3b65	0.01894922
83	0xbc6c8473	-0.014435875
84	0x3cb1918e	0.021675851
85	0xbc0adad3	-0.008475023
86	0x3c97222b	0.01844891
87	0xbcd71e2d	-0.026259506
88	0xbb22e808	-0.002485754
89	0x3cce8115	0.025208035
90	0x3c475155	0.012165387
91	0xbb8f8aeb	-0.004380574
92	0x3cb6a93b	0.022297492
93	0x3cb1085b	0.02161043
94	0xbccb9047	-0.02484907
95	0xbcacd822	-0.021099154
96	0x3d17deeb	0.037077826
97	0xba2c7015	-0.0006577981
98	0x3c10ba07	0.008833415
99	0xbc259714	-0.010106821
100	0xbb826d4e	-0.0039803153
101	0x3c717ff3	0.014739978
102	0x3c2e5d30	0.010642335
103	0xbc9e73e7	-0.019342376
104	0x3c2162e6	0.009850239
105	0xbca699cd	-0.02033701
106	0xbd0b4730	-0.034003437
107	0xbcb1abd5	-0.021688381
108	0xbd41dbc5	-0.04732873
109	0xbd15bc99	-0.036556814
110	0x3cd93b87	0.026517643
111	0x3bdd09a5	0.0067455345
112	0x3c345145	0.011005704
113	0xbcc49e81	-0.024001362
114	0xbc6cf97d	-0.0144637795
115	0xbb9a5133	-0.0047093867
116	0x3cc8b1c9	0.024498837
117	0xbc3ba9ef	-0.01145409
118	0x39f8ec2e	0.00047478214
119	0xbba82190	-0.005130954
120	0x3c842bcf	0.01613417
121	0x3b5b233c	0.003343775
122	0x3cbff17d	0.02343058
123	0x3bd9c0d9	0.0066453037
124	0x3cd9254d	0.026507044
125	0x3d0020de	0.031281345
126	0x3d221061	0.0395664
127	0x3c373913	0.011183041
128	0x3d54eecf	0.051985558
129	0x3a496064	0.0007681905
130	0x3d0f6da0	0.035016656
131	0x3ca89a0c	0.020581268
132	0xbc4bcb78	-0.012438647
133	0x3d1d3e0d	0.038389254
134	0xbb72463b	-0.003696813
135	0xbcd319fe	-0.02576923
136	0xbd4a53bd	-0.049396265
137	0xbd5bb4a0	-0.053639054
138	0x3bbde5cc	0.005795216
139	0xbbdcc9b3	-0.0067379116
140	0x3c63cf45	0.013904397
141	0xbcf01a4a	-0.02930941
142	0x3d09e0f4	0.033661798
143	0xbc3b06e2	-0.011415215
144	0x3cfbc7b2	0.03073487
145	0x3d16e128	0.03683582
146	0x3d2cd643	0.042196523
147	0x3d2607db	0.040534835
148	0x3d3ffae7	0.04687014
149	0xbc737ef3	-0.01486181
150	0x3d0c7617	0.034292307
151	0x3cb0da87	0.021588577
152	0x3d3fde5a	0.04684291
153	0x3c99544a	0.01871695
154	0x3d949f1b	0.072569095
155	0x3c37bcc0	0.011214435
156	0x3d4fa299	0.050692175
157	0x3d1f567a	0.03890083
158	0x3d0118b9	0.031517718
159	0x3a89a84b	0.0010502426
160	0x3d5bb48b	0.053638976
161	0x3caaa026	0.020828318
162	0x3bd4ae41	0.0064904992
163	0xbd340526	-0.043950222
164	0xbc3ddbe4	-0.011588071
165	0xbcf3eec4	-0.029776938
166	0xbccb9b41	-0.024854304
167	0x3d048889	0.032356773
168	0x3c0274f7	0.007962457
169	0xbca1df75	-0.019759873
170	0xbcb0e75b	-0.021594694
171	0x3cd171ed	0.02556702
172	0x3d6a9016	0.057266317
173	0x3c2214dc	0.009892669
174	0xbc074cee	-0.008258088
175	0xbc0e98e1	-0.008703441
176	0xbcbb640f	-0.02287486
177	0x3c8463c6	0.016160857
178	0x3d0898a0	0.03334868
179	0xbc7d5e96	-0.015464446
180	0x3d03e978	0.032205075
181	0x3d1d38d3	0.03838427
182	0x3cd14d9e	0.025549706
183	0x3c3fdbc1	0.011710108
184	0x3d043018	0.03227243
185	0x3cfc63a0	0.030809224
186	0x3ccb13b8	0.024789676
187	0x3c18f719	0.009336256
188	0x3c547633	0.012967634
189	0x3c8cb2e8	0.017175153
190	0xbbd6e01e	-0.0065574786
191	0xbc1fc42d	-0.009751362
192	0x3c3a332d	0.01136474
193	0x3c83e5a9	0.016100721
194	0xbc55010b	-0.013000737
195	0xbc49db8c	-0.01232041
196	0xbb05d141	-0.0020418915
197	0x3c5a2176	0.013313642
198	0xbadea281	-0.0016985686
199	0x3cf3e053	0.029770052
200	0x3bd4cd6a	0.006494214
201	0x3ad8a811	0.001652958
202	0x3d014694	0.03156145
203	0x3c5eaa7e	0.013590453
204	0xbbd4fbf0	-0.00649976
205	0xbd0b54dc	-0.034016475
206	0xbd126bf4	-0.035747483
207	0xbd4d460f	-0.05011564
208	0xbcae8bbf	-0.02130687
209	0x3c8b46d1	0.017001541
210	0x3d07b239	0.03312895
211	0x3ce474c7	0.027887715
212	0xbcff54f0	-0.031168431
213	0xbcd1864a	-0.02557673
214	0xbab30ae4	-0.0013659862
215	0x3d34c6a5	0.044134755
216	0x3cae22b6	0.021256786
217	0x3c1769b4	0.00924151
218	0x3ce917e1	0.02845377
219	0xbb29c37f	-0.0025903878
220	0xbce68cec	-0.028143369
221	0x3a4abbe7	0.0007733688
222	0xbca7c345	-0.020478854
223	0xbc43fb6a	-0.011961797
224	0xbd1c3df8	-0.038145036
225	0x3cae36dd	0.021266395
226	0x3c08f6b5	0.008359601
227	0x3d211529	0.03932682
228	0x3c64699c	0.013941195
229	0xbc996bfc	-0.018728249
230	0xbcbc86d9	-0.02301352
231	0x3caa061e	0.02075487
232	0xbb8a6ad5	-0.004224161
233	0x3c0cf22a	0.008602658
234	0xbc4028bb	-0.011728461
235	0xbcb158e7	-0.021648837
236	0xbc987c8b	-0.018614074
237	0xbcd2e006	-0.025741588
238	0xbcb4cf32	-0.022071455
239	0xbcde3dd0	-0.027129084
240	0x3c2b0c4b	0.010439943
241	0xbcd3f84f	-0.025875239
242	0xbbadb868	-0.005301524
243	0xbbcf3186	-0.0063230423
244	0x3bef001c	0.007293714
245	0xbb8cbf1c	-0.004295243
246	0xbbeb092a	-0.0071727233
247	0x3c95df42	0.018294934
248	0xbc1432e1	-0.009045334
249	0x3b984570	0.0046469495
250	0xbc5d5307	-0.013508565
251	0xbc6ff35c	-0.014645424
252	0xbc77c867	-0.015123463
253	0xbd0bcea4	-0.034132615
254	0xbc8a22e6	-0.016862344
255	0xbc8166f3	-0.01579616

fc1.bias f4 [32]
0	0x3c6f9762	0.014623495
1	0xbd85a8dd	-0.06526349
2	0x3d7c5737	0.061606612
3	0x3d078b27	0.03309169
4	0x3cb18427	0.02166946
5	0x3d801d7a	0.06255622
6	0x3c36b843	0.01115233
7	0xbb37b093	-0.002802883
8	0xbd2a3f6a	-0.041564383
9	0x3d3c6c53	0.046001744
10	0x3d31a891	0.043373648
11	0x3d9b4b24	0.07582691
12	0x3a6501c6	0.0008735921
13	0x3de50392	0.111823216
14	0x3b3eede7	0.00291335
15	0x3d0a8db2	0.033826537
16	0xbbb154b1	-0.0054117073
17	0xbbda7180	-0.0066663623
18	0x3d9ad7dd	0.07560704
19	0xbba38f25	-0.0049914294
20	0x3d46e31a	0.048556425
21	0xbce88e14	-0.02838806
22	0x3dd1f93e	0.10252617
23	0x3d319431	0.043354217
24	0x3d78892f	0.060677703
25	0x3d17b996	0.037042223
26	0x3d13a24a	0.036043443
27	0x3d81be36	0.06335108
28	0x3d8c699c	0.06856081
29	0x3c879647	0.01655115
30	0xbd2704b2	-0.040775962
31	0xbc96575c	-0.018352203

fc2.weight f4 [10, 32]
0	0xbe58de3e	-0.21178529
1	0x3e1d45c7	0.15358649
2	0x3e143580	0.14473534
3	0xbe4eaa31	-0.2018211
4	0x3dfee934	0.12446824
5	0xbe732887	-0.23745929
6	0x3e7c78b0	0.24655414
7	0x3dfca375	0.123358645
8	0xbc734ba0	-0.014849573
9	0x3e10b821	0.1413274
10	0x3cba657b	0.022753468
11	0xbe2c2fa5	-0.1681505
12	0xbe0feb0f	-0.14054511
13	0xbe9f7da9	-0.3115056
14	0xbe57288e	-0.21011564
15	0x3dc736a9	0.097272225
16	0x3e4a848b	0.19777124
17	0x3d3a598d	0.04549556
18	0xbdf545e1	-0.11976219
19	0x3e608546	0.2192584
20	0x3e05d3f8	0.13069141
21	0xbe524f3f	-0.20538042
22	0xbd8a65a7	-0.0675767
23	0x3e117f85	0.14208801
24	0xbe8f42ef	-0.27980754
25	0xbdc2c1fa	-0.09509654
26	0xbe568bb0	-0.20951724
27	0x3e755e6e	0.23961803
28	0xbe669517	-0.22517811
29	0xbc8bfd77	-0.017088635
30	0xbe2e1ff7	-0.17004381
31	0x3d951ed8	0.072812736
32	0x3e8726b5	0.2639672
33	0xbe6d0571	-0.23146607
34	0x3d49d896	0.049278818
35	0xbddf6c5a	-0.10909338
36	0xbe65ec31	-0.22453381
37	0xbdfd736a	-0.12375529
38	0x3db82de5	0.08993129
39	0xbe9182b7	-0.2842004
40	0xbe0901d7	-0.13379608
41	0x3e455624	0.19271141
42	0xbe348cc5	-0.17631824
43	0x3e193623	0.14962058
44	0x3e3b3575	0.18282111
45	0xbbd915ca	-0.006624912
46	0x3c9d6a0a	0.019215602
47	0xbe535cd5	-0.20640881
48	0xbe270af3	-0.1631277
49	0xbe38b693	-0.18038397
50	0xbdfdbbec	-0.12389359
51	0xbe1d9115	-0.15387376
52	0xbe3d2afd	-0.1847343
53	0xbe5ddad0	-0.21665502
54	0x3e7e9dc0	0.24864864
55	0x3e2c2cce	0.16813967
56	0x3de792fd	0.11307333
57	0x3e3fc454	0.18727237
58	0xbd85b341	-0.065283306
59	0x3e56e659	0.20986308
60	0x3e11c9b2	0.14237097
61	0x3cabf3de	0.020990308
62	0x3cc13136	0.023583036
63	0xbe7cdabb	-0.24692814
64	0xbd8e241b	-0.0694048
65	0x3e8cd5d2	0.27506882
66	0x3e9980c7	0.29981062
67	0xbe5c6e82	-0.2152653
68	0xbde383ff	-0.11109161
69	0x3d88d172	0.066805735
70	0xbe4496bd	-0.19198127
71	0xbdc7de3a	-0.09759183
72	0xbe93cbd1	-0.28866437
73	0xbdbdbcb4	-0.09264508
74	0xbe365ae5	-0.17808111
75	0x3db9609e	0.090516314
76	0xbdd548e3	-0.10414293
77	0xbe4862b8	-0.19568908
78	0x3e3fc0b8	0.1872586
79	0xbe304fcb	-0.17217939
80	0xbe939fa4	-0.28832734
81	0x3e506aae	0.20353195
82	0x3e201284	0.15632063
83	0xbb0eaadb	-0.0021769318
84	0x3da72c9e	0.08162807
85	0x3e080557	0.13283287
86	0xbde91a2b	-0.11381944
87	0xbe17251d	-0.14760251
88	0xbe88bab5	-0.26704946
89	0x3e230a7d	0.1592197
90	0xbda579a1	-0.080798395
91	0x3e33b641	0.17549993
92	0x3e093486	0.13398942
93	0xbe07c289	-0.13257803
94	0xbe18d035	-0.14923175
95	0x3e016716	0.1263698
96	0x3d9bd23e	0.0760846
97	0x3e2508ef	0.16116689
98	0x3e36b7ca	0.17843547
99	0x3e84bf4f	0.25927207
100	0xbe879ea9	-0.26488236
101	0x3d4d8813	0.0501786
102	0x3dcbb627	0.09946852
103	0x3ce3838c	0.027772687
104	0x3e1ef949	0.15524782
105	0x3e65167f	0.22371863
106	0xbdf9d09b	-0.121979915
107	0x3e2ee3b3	0.17079048
108	0x3dfb8344	0.12280896
109	0x3b995e9f	0.004680469
110	0xbe3fd60f	-0.18734
111	0x3cdceaf3	0.026967501
112	0x3e418bcb	0.18900983
113	0xbbe512c4	-0.0069907624
114	0x3cb951d5	0.022622028
115	0xbdbe0d5d	-0.092798926
116	0x3d9a9f51	0.075499184
117	0x3e181fd6	0.14855894
118	0xbe180424	-0.1484533
119	0xbd405645	-0.046957273
120	0xbe3ee2d1	-0.18641211
121	0xbdc89dbf	-0.09795713
122	0xbe79500e	-0.24346945
123	0xbce6cc37	-0.02817355
124	0x3e2c4b68	0.1682564
125	0xbe932252	-0.28737122
126	0x3ddbe383	0.10736754
127	0xbdcf1c4f	-0.10112821
128	0xbe5118c4	-0.20419604
129	0x3e34b296	0.1764625
130	0xbdd3e717	-0.10346811
131	0xbe1c6138	-0.15271461
132	0x3e776157	0.24158226
133	0x3e38908e	0.18023893
134	0xbe8022d9	-0.25026587
135	0x3ced91a8	0.029000118
136	0xbda88123	-0.08227756
137	0xbe82fd56	-0.25583905
138	0x3e978b78	0.29598594
139	0x3d4547dc	0.048164234
140	0xbcecc702	-0.028903488
141	0x3d495cce	0.04916077
142	0xbd302e07	-0.043012645
143	0xbe81acb0	-0.25327063
144	0x3b34607a	0.0027523325
145	0xbe658bd1	-0.22416617
146	0x3e2cb6c7	0.16866599
147	0xbd95522d	-0.072910644
148	0xbe98c3ef	-0.29836985
149	0xbe68c7fe	-0.22732541
150	0xbe71cb87	-0.23612796
151	0xbdaad0cf	-0.08340608
152	0x3e6ce7c1	0.23135282
153	0x3c98d6d8	0.018657133
154	0x3df385fd	0.118907906
155	0x3d4ce8be	0.050026648
156	0xbddcb0e1	-0.107759245
157	0x3e7bc92b	0.24588458
158	0xbde976cd	-0.113996126
159	0xbdef1c5e	-0.116753325
160	0xbdb6ed8f	-0.089320295
161	0xbe81c469	-0.25345162
162	0x3d81380b	0.063095175
163	0x3e7cbf62	0.24682382
164	0x3dcd29c2	0.1001773
165	0xbdc194bb	-0.09452196
166	0x3e84e90a	0.25959045
167	0xbdc1fe74	-0.09472361
168	0xbdb70294	-0.089360386
169	0x3e248225	0.16065271
170	0xbde0e371	-0.10980881
171	0xbe800b70	-0.25008726
172	0xbe4c870f	-0.19973396
173	0x3e5351ee	0.20636722
174	0xbe6d8469	-0.23195042
175	0x3e050bc9	0.12992777
176	0x3d1e5af3	0.038660955
177	0x3e827d3f	0.2548618
178	0x3dfe7ed2	0.12426533
179	0xbe1a37bb	-0.15060322
180	0xbe3ddfe8	-0.18542445
181	0x3e34cca0	0.17656183
182	0xbe9c81ea	-0.30567867
183	0xbdab3e4b	-0.08361491
184	0x3e669808	0.22518933
185	0x3dacff6c	0.08447155
186	0xbd2f4c43	-0.04279734
187	0xbe39b00d	-0.18133564
188	0xbe064f9c	-0.13116306
189	0x3db946d3	0.09046712
190	0x3e099c53	0.13438539
191	0xbca1cc26	-0.019750666
192	0xbc9ee56c	-0.019396506
193	0x3ca53f0a	0.02017166
194	0xbe9b38df	-0.30316827
195	0xbd96e578	-0.073679864
196	0xbe7bb0f9	-0.24579228
197	0xbe380dfe	-0.17974088
198	0xbe28abcd	-0.16471787
199	0x3e35acf0	0.17741752
200	0xbe629c2b	-0.22129886
201	0xbe9414c9	-0.28922108
202	0x3da3c579	0.07996649
203	0xbdca5371	-0.098791964
204	0xbe7cdf8e	-0.24694654
205	0x3ca30764	0.019900985
206	0x3dac12a5	0.08401994
207	0xbe4dae4f	-0.20086025
208	0xbe5d1433	-0.21589737
209	0xbde35bb6	-0.11101477
210	0x3e27accd	0.16374512
211	0xbdf45b02	-0.11931421
212	0x3e84636d	0.25857106
213	0x3e2601a8	0.1621157
214	0xbe801ce6	-0.25022048
215	0x3e689f5e	0.22717044
216	0xbe12a1c0	-0.14319515
217	0x3e61d0f7	0.2205237
218	0x3d222507	0.039586093
219	0x3e74a867	0.23892365
220	0xbe2fecac	-0.17180127
221	0x3d50b6da	0.05095563
222	0xbe12cb7e	-0.14335439
223	0x3e820726	0.2539608
224	0xbe5cfb0f	-0.21580146
225	0xbe476f2a	-0.19476
226	0xbe3b9977	-0.18320261
227	0xbe99660a	-0.29960662
228	0xbe1b1ee3	-0.15148501
229	0x3e767a6f	0.24070142
230	0x3e3f16e0	0.1866107
231	0x3dc89fab	0.09796079
232	0xbdfe6948	-0.124224246
233	0x3dea7092	0.11447252
234	0x3b562ba8	0.003267983
235	0xbe5e7876	-0.2172564
236	0x3e46399e	0.19357917
237	0x3e3c8055	0.1840833
238	0x3e42cc62	0.19023278
239	0xbe4d0c8b	-0.20024316
240	0x3cce14d4	0.025156416
241	0x3de414bb	0.111367665
242	0xbdd5e891	-0.10444749
243	0x3e4078c6	0.18796071
244	0x3e52b683	0.20577435
245	0xbe565208	-0.2092973
246	0x3e5b2c91	0.2140372
247	0xbd619ff1	-0.055084173
248	0xbe098b4c	-0.13432044
249	0xbd439e77	-0.047758546
250	0x3e40ead9	0.18839587
251	0xbd82c8bd	-0.06385944
252	0x3e4d5e3a	0.20055476
253	0xbe80687c	-0.25079715
254	0xbe544055	-0.20727666
255	0xbddb5189	-0.10708911

fc2.bias f4 [10]
0	0xbd2cff99	-0.042235944
1	0x3e3bd27d	0.18342014
2	0x3d86b691	0.065777905
3	0xbe360fd6	-0.17779478
4	0xbabdefcc	-0.0014491021
5	0xbcb01d48	-0.021498337
6	0xbd5c1a91	-0.053736273
7	0xbe0f3f4e	-0.13988993
8	0x3cb07e01	0.021544458
9	0x3dfa453d	0.122202374
