ethosu_compiler/gen_cms/spk_mnist_mlp/model_params/fc1_bias.npy (npy, 4128 bytes, 1 tensors)

array f4 [1000]
0	0x3d281049	0.041031156
1	0x3bc8ed75	0.0061318227
2	0xb791fc58	-1.7402854e-05
3	0xbcb46ac8	-0.022023574
4	0x3c2b7026	0.01046375
5	0xbc3df0c5	-0.011593048
6	0x3ce7cf44	0.028297074
7	0x3d2ad66e	0.041708402
8	0xbc7b8ba3	-0.015353116
9	0x3d0744e9	0.033024702
10	0x3bf96972	0.007611447
11	0x3d1fd2b0	0.039019287
12	0xbc496fb7	-0.012294701
13	0xbb474b2f	-0.0030409803
14	0x3ca2fc68	0.019895747
15	0x3bd48885	0.006486001
16	0xbbcc00e6	-0.006225693
17	0xbd22d29c	-0.039751634
18	0x3cfd2ea2	0.030906025
19	0x3d202700	0.039099693
20	0x3d058598	0.032598108
21	0x3b29df8f	0.0025920605
22	0x3d2b4569	0.04181424
23	0x3ac5fb7d	0.0015104857
24	0xbc9c0eb2	-0.019049976
25	0x3cf0d2e6	0.02939744
26	0x3cbfd2f0	0.023416013
27	0x3cf0b907	0.029385103
28	0x3af48500	0.001865536
29	0x3cb4f428	0.022089079
30	0x3d062ce3	0.03275765
31	0x3ca16d3e	0.019705411
32	0x3c2569b8	0.010096006
33	0x3c6ea536	0.014565757
34	0x3d044a9f	0.032297727
35	0x3ca5ed1d	0.020254666
36	0xbc96ab8d	-0.018392349
37	0xbc910d6b	-0.017706593
38	0xbd0ecff8	-0.034866303
39	0x3a35044f	0.0006905244
40	0xbc918ee6	-0.017768335
41	0x3d12a1ce	0.03579884
42	0x3d09ae3e	0.033613436
43	0x3c951640	0.018199086
44	0x3ca030d0	0.019554526
45	0x3c660738	0.014039807
46	0x3cc2c3c9	0.023774998
47	0xbc0b6fdd	-0.008510557
48	0xbc829f45	-0.015945086
49	0x3ca6daf8	0.020368084
50	0x3c99e3dd	0.018785411
51	0x3cfd31d1	0.030907543
52	0x3cc34f70	0.02384159
53	0x3ce6e595	0.028185645
54	0x3ad1dc12	0.0016011021
55	0x3ab10dce	0.0013508142
56	0x3d0ff47e	0.035145275
57	0xbcc37b73	-0.023862576
58	0x3c629c8d	0.01383127
59	0x3c8075a9	0.015681105
60	0x3bfdd4b0	0.0077463016
61	0xbb44fbb1	-0.0030057246
62	0x3cdf39c4	0.027249224
63	0xbc66717a	-0.014065141
64	0x3d22ed2d	0.03977697
65	0xbb4d5dc1	-0.00313364
66	0x3adb4e42	0.0016731697
67	0xbc05e38a	-0.008171925
68	0xbc35b272	-0.011089908
69	0x3d11a4ad	0.035557438
70	0x3bed0aea	0.007233967
71	0xbcda5c44	-0.026655324
72	0xbb05b29a	-0.0020400644
73	0xbcecd862	-0.028911773
74	0x3d36c0fa	0.04461763
75	0x3d03dabf	0.032191034
76	0x3d1e3351	0.038623158
77	0x3c2057aa	0.009786526
78	0x3bdefdf8	0.006805178
79	0x3cfe561d	0.031046921
80	0x3be054e4	0.0068460573
81	0xbc14d945	-0.009085004
82	0x3cce5003	0.025184637
83	0xbd13463b	-0.03595565
84	0x3c28256e	0.01026283
85	0x3c21f360	0.009884685
86	0xbd0c8e10	-0.03431517
87	0xbcbc3507	-0.022974504
88	0x3ccd2be6	0.025045346
89	0xbc1e74a0	-0.00967136
90	0x3cd2f8da	0.025753427
91	0x3bf14690	0.007363148
92	0x3d3ff2c6	0.046862386
93	0xbc5d59f9	-0.013510221
94	0x3cdce54e	0.02696481
95	0x3cf62bf8	0.030050263
96	0x3cf98328	0.030458048
97	0x3bc248da	0.0059290947
98	0xbc194681	-0.009355188
99	0xbca44749	-0.020053523
100	0xbc35e61d	-0.011102227
101	0x3d15a209	0.036531482
102	0xbc2a58a0	-0.010397106
103	0x3c7767aa	0.015100399
104	0x3cb0a16f	0.021561353
105	0xbd035e45	-0.032072324
106	0x3d09c89a	0.033638574
107	0x3d2211b7	0.039567675
108	0x3b80856f	0.0039221565
109	0x3cfcdde5	0.030867526
110	0xbcfe4cfb	-0.031042567
111	0x39abd39e	0.0003277333
112	0x3c9d48b6	0.01919971
113	0xb846eb74	-4.742616e-05
114	0xbc70c298	-0.014694832
115	0xbcc9a8e0	-0.024616659
116	0xbc06955a	-0.008214319
117	0x3cbfc312	0.023408446
118	0x3bc70ef6	0.0060747815
119	0xbca9346e	-0.020654883
120	0x3cf6f0ca	0.030144114
121	0x3b5400dd	0.0032349147
122	0xbc84b599	-0.016199874
123	0x3c06f5a2	0.008237274
124	0x3d2fd6eb	0.04292957
125	0xbcfe0ff9	-0.031013476
126	0x3b9c0288	0.004761044
127	0x3cdca6fb	0.026935091
128	0x3c83c0d3	0.016083157
129	0x3bdf51a1	0.006815151
130	0x3cae5c17	0.021284146
131	0x3cc4de35	0.024031738
132	0xbb54ca8c	-0.003246936
133	0x3cec8a34	0.028874494
134	0x3a95eaca	0.001143777
135	0xbbaa7675	-0.0052021095
136	0xbc091edb	-0.008369173
137	0x3b1f1db3	0.0024279177
138	0x3c9bc110	0.019012958
139	0xbd1a78c0	-0.037712812
140	0x3cda0470	0.026613444
141	0xbc88c814	-0.016696967
142	0x3cb00c8c	0.021490358
143	0x3d0406de	0.03223311
144	0xbd27e215	-0.040987093
145	0x3c8a446d	0.016878331
146	0x3d00a121	0.031403664
147	0x3c373fa3	0.011184606
148	0x3c5c4e7f	0.013446449
149	0xbbc40325	-0.00598182
150	0xbd1dab5d	-0.038493503
151	0x3cfce532	0.030871008
152	0xbd0748b0	-0.033028305
153	0x3c9cba53	0.019131815
154	0x3baf2e56	0.0053461
155	0x3cf225e5	0.029559085
156	0xbc196e15	-0.0093646245
157	0x3c1bcb97	0.009508989
158	0xbb95a502	-0.0045667896
159	0x3cc6972a	0.024242003
160	0x3b0842fb	0.0020791877
161	0xbca14dc6	-0.019690406
162	0x3cb48f63	0.022041028
163	0x3b2b90f8	0.0026178937
164	0x3cd97b6e	0.026548114
165	0x3d239b30	0.03994292
166	0x3c9c0ea6	0.019049954
167	0x3ceb67a6	0.028735947
168	0x3cc7f2d8	0.02440779
169	0x3b96d08d	0.004602498
170	0x3c9880a1	0.018616023
171	0x3c5682e9	0.013092735
172	0xbcd5fd52	-0.02612177
173	0xbc7478f9	-0.01492142
174	0xbb35c10f	-0.002773348
175	0xbcc615e1	-0.024180355
176	0x3d33ba2c	0.04387872
177	0x3c74961a	0.014928365
178	0xbc19a5cf	-0.009377911
179	0x3c86bd37	0.016447647
180	0x3d17e106	0.037079833
181	0x3c54a5b8	0.012978964
182	0x39f7d306	0.00047268736
183	0xba6e14cb	-0.0009082078
184	0xbc98d878	-0.018657908
185	0x3c9773af	0.01848778
186	0xbbd4b021	-0.0064907228
187	0x3ccd4f14	0.025062121
188	0x3cee9bb6	0.029126983
189	0x3d060e10	0.032728255
190	0x3d0ac814	0.033882216
191	0x3b2587ab	0.0025257866
192	0xbcb1c3f2	-0.02169988
193	0x3ca75ee5	0.020430991
194	0x3ce6e056	0.028183144
195	0x3c217d8e	0.009856595
196	0x3cd25f59	0.02568023
197	0x3b486bf5	0.0030581926
198	0x3c392bde	0.011301963
199	0xbb1bf651	-0.002379794
200	0x3c8f751d	0.017511899
201	0xbc1c176e	-0.00952707
202	0x3c9962b2	0.01872382
203	0x3c0de6b5	0.008660962
204	0xbc632e75	-0.013866057
205	0x3b5fff61	0.0034179317
206	0xbc18efbe	-0.009334503
207	0x3c2b55d9	0.010457479
208	0x3be0df3a	0.006862548
209	0x3c0f6e83	0.008754375
210	0x3d011e29	0.031522904
211	0xbcc9bda3	-0.024626559
212	0xbc4f9306	-0.01266933
213	0xbc5fdb1d	-0.0136630805
214	0xbbe88cba	-0.007096854
215	0xbcc74db7	-0.02432905
216	0xbceeeba0	-0.02916509
217	0x3c9080bb	0.017639508
218	0x3c4f18b7	0.01264017
219	0x3bbfc3bb	0.0058521903
220	0x3cf1febe	0.029540416
221	0xbbc9d1d9	-0.006159049
222	0x3c5452cb	0.0129591925
223	0x3c73cc77	0.014880291
224	0xbc204fdd	-0.009784666
225	0xbc8e1478	-0.017343745
226	0x3ce560b1	0.028000208
227	0x3cbf6f8e	0.023368623
228	0x39dc26d1	0.0004199059
229	0xbc82581d	-0.015911156
230	0x3cefc47b	0.029268494
231	0x3c40348a	0.011731276
232	0x3d047239	0.032335494
233	0x3cc77b5a	0.02435081
234	0x3cd9db3c	0.026593797
235	0x3cf5c342	0.030000333
236	0x3a9f8f69	0.0012173477
237	0xbc02fb5e	-0.007994501
238	0xbbf88d0d	-0.007585174
239	0x3bf1c388	0.0073780455
240	0xbc9d8c96	-0.019232076
241	0x3caabebb	0.0208429
242	0xbc616e7a	-0.01375925
243	0xbcab30ad	-0.020897234
244	0xbd11d72d	-0.0356056
245	0xbbe9fbd9	-0.0071406183
246	0x3c900f23	0.017585343
247	0x3ce1591f	0.027508317
248	0xbc2c45a0	-0.010514647
249	0xbcd13c7e	-0.02554154
250	0x3cacc6fc	0.021090977
251	0x3d1cae19	0.03825197
252	0x3bcd9f14	0.006275067
253	0x3a653827	0.0008744024
254	0xbc348242	-0.011017384
255	0x3a05ce49	0.0005104286
