ethosu_compiler/gen_cms/spk_mnist_mlp/model_params/fc1_bias.npy (npy, 4128 bytes, 1 tensors)

array f4 [1000]
00000000: cdb8 f63c 2c39 ac3b 6ec3 29bb 44bc b8bc
00000010: e3c2 fb3b 20dd abbb 3b92 ef3c 529c 233d
00000020: 3110 86bc 80ba 0c3d d906 123c fcad 1c3d
00000030: 97a9 92bc 2717 4abb 91b5 773c cfa9 e63b
00000040: 7e61 02bc d231 2abd f905 e93c 688e 1e3d
00000050: d1d1 263d c490 f139 57e3 2f3d 79d5 213a
00000060: 4d7a a6bc 2208 e93c 1649 c03c 3947 003d
00000070: 7e38 08bc 9b55 dd3c 6b67 123d fa3b a73c
00000080: 4c3b 123c 309e 433c e8d2 033d de1f ae3c
00000090: 6f78 65bc 0ce7 8fbc 108d e1bc ae20 84ba
000000a0: 682e b5bc 68f8 1c3d 0953 013d 5983 a93c
000000b0: 4995 863c f6ea 533c f48b ad3c 677b f1bb
000000c0: 3462 89bc 0aef b23c 8d10 903c 4b84 f33c
000000d0: d03c ac3c ea10 e43c 12e3 bd3a f113 6c3a
000000e0: 846f 193d 0f21 b4bc bd16 6f3c ee91 953c
000000f0: 6df9 083c 6eda fcba d84a d43c 929a 1dbc
00000100: fb48 3a3d aa08 47bb 742b dd3a db23 f4bb
00000110: a729 56bc 2718 ea3c 20df c53b 9048 e3bc
00000120: c717 83bb 27cc 00bd 0e14 4a3d 2c0d f03c
00000130: 2061 133d bbba 233c 238b d33b 8328 133d
00000140: 57c5 ff3b 0974 d8bb 32e9 cc3c ba69 19bd
00000150: a902 f13b 38a9 2e3c a27c 05bd e65a bfbc
00000160: 4ac8 ca3c bd0c 6bbc 9a8a d63c 9195 813b
00000170: a9e4 443d a4c8 39bc a08b fb3c faf6 093d
00000180: d6ea f53c c2a2 033c 524b aabb 8ff9 a7bc
00000190: c2e1 1abc 23e9 403d 78a7 0ebc 19f8 a13c
000001a0: 6bf6 c83c 970c 09bd 23ab 013d a732 f83c
000001b0: 4353 d63b 4961 e43c 206c 04bd f6cd 613b
000001c0: fb95 803c fb90 21ba cf2b 77bc a352 05bd
000001d0: abcc 57bb 18e3 c23c 3ff8 0a3c 65ad 8fbc
000001e0: 4c6f f33c 124c 9d3b 4af0 4cbc 5604 2b3c
000001f0: e48c 343d c43d 03bd 3989 953b c60c d93c
00000200: 8221 8f3c 91bd 2d3c 4784 8e3c 4b23 d83c
00000210: cd83 a3bb da85 eb3c 1d9f 14bb 3685 87bb
00000220: f5f2 d6bb 6775 12ba 384f 953c 2c00 20bd
00000230: c5b0 c63c ce10 5abc 4baf cf3c 1b22 173d
00000240: 6c2f 1fbd cfe6 9f3c 7380 d63c dd4c 493c
00000250: 6ab7 983c 11e3 b9bb 9497 35bd 40b9 f13c
00000260: 304f 08bd 7b56 ba3c d1f5 453b e577 f13c
00000270: d0e0 06bc 5fdc e03b 97cd efbb a51a c03c
00000280: ae12 6dba fd2e 9fbc 4a20 a33c 34eb 643b
00000290: d544 c63c fb9b 253d 616d 963c 44ae f13c
000002a0: 063b e83c 2186 853b d9a6 9f3c e4db af3c
000002b0: 9f11 9abc 807a 8bbc 7174 23ba 8d24 b5bc
000002c0: e0a8 3c3d 6021 893c 9f58 33bc 4a68 a13c
000002d0: ddc9 023d 53c4 743c 2bab beba 886b a43a
000002e0: dbf0 64bc 72e9 8c3c f254 10bc e22e e53c
000002f0: 9961 d23c cfc8 003d c028 033d 5e62 0e3b
00000300: ead8 b7bc 600f 943c 69eb f63c dd33 173c
00000310: ed64 cc3c f5be 0ab8 2a87 803c bcb9 8cba
00000320: 54e8 913c 225b 6ebc eddf ab3c 284c 0b3c
00000330: f6c3 35bc 54dd cd3a b3ff 10bc aac5 8e3c
00000340: 1d56 dd3b addd e63b 1778 e53c 0063 c1bc
00000350: 038a 60bc dd2a a6bc 9fe8 82bb 086b c3bc
00000360: 447c e7bc 0f58 8e3c 2124 9d3c ea7b 793b
00000370: 8b32 fe3c 49dd 79bb 8786 4f3c e0d0 893c
00000380: f89f ccbc c1ea 71bc 2bca e43c 3148 d63c
00000390: 1636 4e3b 7504 96bc 0457 df3c 35c5 523c
000003a0: 4df0 103d 75f3 893c 1a57 d63c 4661 f73c
000003b0: c15e 90ba f36b 17bc 63cb 43bb a1a8 063c
000003c0: 542a 8dbc ea7b a73c 429d 80bc 72cd 9fbc
000003d0: 7d49 0dbd 6c5f 27bc a78d ad3c 08b3 023d
000003e0: cd3d fcbb 285a bdbc f4d5 b33c d3bd 213d
000003f0: 8a0f bd3b 1dd8 13bb 3632 2abc 3de8 b5ba
0.030117417 0.005255839 -0.0025903839 -0.02255071 0.0076831444 -0.005244866 0.029244533 0.039944
-0.016365143 0.034357548 0.008912765 0.038251862 -0.017903132 -0.0030836554 0.015118972 0.0070392857
-0.007957814 -0.04155142 0.02844523 0.038710028 0.04072744 0.0004607496 0.042941418 0.00061734725
-0.02032199 0.02844626 0.02347235 0.031317923 -0.00831425 0.027018359 0.03574316 0.020414341
0.00892527 0.01193957 0.032183558 0.02125543 -0.014005764 -0.017566226 -0.027533084 -0.001008054
-0.022116855 0.038322836 0.03157333 0.020692514 0.016428607 0.012934437 0.021184899 -0.007369447
-0.01677046 0.021842498 0.017586017 0.029726168 0.021025091 0.027840097 0.0014487228 0.0009005657
0.037459865 -0.02198842 0.014592824 0.018258061 0.008360249 -0.0019291171 0.025914595 -0.009619372
0.045479756 -0.0030370154 0.0016873912 -0.0074505634 -0.013071454 0.02857597 0.0060385615 -0.027744561
-0.004000637 -0.031444695 0.049335532 0.029303156 0.035981297 0.0099932505 0.0064557954 0.035927307
0.007805507 -0.0066056293 0.02501354 -0.037454344 0.0073550534 0.010660462 -0.032589562 -0.023358773
0.024753708 -0.014346299 0.026189137 0.0039545973 0.04806963 -0.01133934 0.030706227 0.0336828
0.030019205 0.00803441 -0.005196967 -0.020504741 -0.009453239 0.047097337 -0.00870692 0.019771622
0.024531564 -0.033459272 0.03165735 0.03029759 0.0065406873 0.02787842 -0.03232968 0.0034455038
0.015696516 -0.00061632664 -0.015086128 -0.03254951 -0.0032928388 0.023789927 0.008482038 -0.017538736
0.029716156 0.004800328 -0.012508461 0.0104380455 0.044079676 -0.032041326 0.0045634774 0.026495349
0.017472032 0.010604278 0.01739706 0.026384016 -0.004990077 0.028750349 -0.0022677847 -0.004135753
-0.0065597245 -0.00055869523 0.018226251 -0.039062664 0.024254212 -0.013309671 0.02535214 0.03689776
-0.038863584 0.019519238 0.026184296 0.012286392 0.018642146 -0.0056728204 -0.04433401 0.02950728
-0.033278644 0.022746315 0.0030206332 0.029476115 -0.00823231 0.006862208 -0.0073182094 0.023450205
-0.0009043616 -0.019431585 0.019912858 0.003493023 0.024202744 0.040431958 0.018362703 0.029502042
0.028348457 0.0040748273 0.019488739 0.021467157 -0.01880723 -0.017026186 -0.00062353077 -0.022112155
0.04605949 0.016739547 -0.010946422 0.01970305 0.031930793 0.0149393855 -0.0014546862 0.0012544254
-0.01397344 0.01720116 -0.008809315 0.027976457 0.025681304 0.031441506 0.032021284 0.0021726112
-0.0224423 0.018073738 0.03014155 0.009228674 0.024950469 -3.3079607e-05 0.015689451 -0.0010736506
0.017810978 -0.014548095 0.0209808 0.008502044 -0.011094084 0.001570622 -0.008850026 0.017428238
0.0067546503 0.007045469 0.028011365 -0.023606777 -0.01370478 -0.02028411 -0.0039950158 -0.023854747
-0.028257497 0.017375974 0.019182267 0.0038068243 0.03102996 -0.003812628 0.012666351 0.016823232
-0.024978623 -0.014765442 0.027928432 0.02615747 0.0031465343 -0.018312672 0.027263172 0.012864401
0.03538542 0.016839722 0.02616458 0.03019775 -0.0011014567 -0.009242046 -0.0029875867 0.008218915
-0.017232098 0.020444829 -0.015699986 -0.019507144 -0.034493912 -0.010215621 0.02118571 0.03190902
-0.007697797 -0.023114279 0.021952607 0.03948767 0.0057696747 -0.0022559233 -0.010387948 -0.0013878417
