ethosu_compiler/gen_cms/spk_mnist_mlp/model_params/fc2_weights.npy (npy, 40128 bytes, 1 tensors)

array f4 [10, 1000]
000000 c1 95 79 bd 29 6e 8c bb 5a 0b f4 3a a3 30 d6 3c
       -0.060933832 -0.004285593 0.0018619106 0.026146239
000010 54 0d 50 bc 62 c1 a3 bc cb 32 15 3d 55 cf 82 bc
       -0.01269849 -0.019989673 0.036425393 -0.015968004
000020 0b 6d f7 3b ce c3 ab 3c 09 f2 14 bc b6 33 1a bd
       0.0075508407 0.02096739 -0.009090909 -0.03764697
000030 9d d2 1b bd 2e 6f 0f 3d 23 77 2a 3d 1e 1f 96 3b
       -0.038042653 0.03501814 0.041617524 0.004581346
000040 2e af 4b 3d 7a 76 e7 bc 1a e9 15 3d ff 94 31 3d
       0.04972761 -0.028254736 0.036599256 0.043354984
000050 08 98 9f bc 17 e9 9f bc e4 63 d7 bc 98 41 49 bd
       -0.019481674 -0.019520326 -0.026292749 -0.04913482
000060 d7 ed b0 3b 6b a8 4c bd 7f 49 4b bc a5 54 97 bb
       0.0053994465 -0.049965303 -0.01240766 -0.0046182447
000070 08 1e 46 bc 8f b9 92 3c 3f e8 21 bb 56 2f 03 bd
       -0.012092121 0.017910747 -0.002470508 -0.032027565
000080 1a ab 2a bd 26 cc d2 bc 1d 36 12 3d 1f d8 7b bb
       -0.04166708 -0.025732111 0.035696138 -0.0038428379
000090 9b 09 43 bd 87 37 1d 3b da 0a a0 bc 4b 93 0b 3d
       -0.047616582 0.0023989396 -0.019536424 0.034076016
0000a0 a3 ee 24 bd c5 05 61 3d 16 54 b0 bd 45 32 4b bc
       -0.040266644 0.054937143 -0.08609788 -0.012402122
0000b0 c3 11 ef 3c cb 42 95 3b 28 70 d6 bc 91 05 df 3b
       0.029183274 0.0045550815 -0.026176527 0.0068060835
0000c0 8c 72 a5 3c 3d c2 02 bd 19 69 eb 3b 0b 29 99 bc
       0.020196222 -0.03192352 0.0071841595 -0.018696329
0000d0 12 fa 0c bd e9 02 f8 3c 15 9c 04 3d 48 67 a4 3c
       -0.034418173 0.030274825 0.032375414 0.02006878
0000e0 f1 e8 41 bd 8b e8 4c 3c c9 93 2b 3d f8 f0 24 bb
       -0.04734129 0.012506614 0.041888986 -0.0025168043
0000f0 4f 85 2b bc df ee 26 bd f3 4f 12 bd 9f 4b cc 3b
       -0.010468795 -0.04075515 -0.035720777 0.0062346007
000100 67 d1 e4 3c 81 5f 12 bd bb 3d 00 bc 86 a4 08 bd
       0.027931882 -0.03573561 -0.007827218 -0.033360027
000110 af 0d e6 bc f7 fe 16 bb be 55 84 bd 4d 6c 8e 3d
       -0.028082697 -0.0023040154 -0.064616665 0.069542505
000120 36 43 a0 3c 04 7e b9 3c 0c 5d 75 3c a8 e7 34 bd
       0.019563299 0.022643097 0.014975797 -0.044166237
000130 8d 75 d9 3a 09 03 6a bb e2 d2 97 3a cb 8c 87 3c
       0.0016590819 -0.0035707376 0.0011583234 0.016546628
000140 af a2 ce 3c 1f c3 ad bc d2 a2 c9 3c 41 e0 2f 3d
       0.025224058 -0.021211205 0.024613772 0.042938475
000150 69 f0 04 bd 69 95 71 bc 65 bd b8 bc a4 74 b2 bc
       -0.032455835 -0.014745095 -0.022551248 -0.021784134
000160 7d df ca 3b c1 49 38 3b fc 11 fc 3c 80 e8 18 3d
       0.0061911927 0.0028120133 0.030770294 0.037331104
000170 03 4d 3b 3d e9 aa 91 bd e3 41 22 3c 53 20 6c 3c
       0.04572774 -0.07112677 0.009903404 0.014412004
000180 33 3b b1 bc ef ae 06 bd 01 34 e2 bc f6 f2 d8 ba
       -0.021634674 -0.032881673 -0.027612688 -0.00165519
000190 0b 50 4a bb 17 b2 4b bd 47 4c 5f 3c 4b 38 43 bc
       -0.0030870463 -0.049730387 0.013629026 -0.011915277
0001a0 03 6a 0a bd a2 d5 55 bd f6 95 93 bc 40 88 21 bd
       -0.033792507 -0.05220569 -0.018015843 -0.03943658
0001b0 ae 9a 58 3d 66 c0 18 3c d6 c8 31 3c 59 0e 8f bd
       0.05288189 0.009323215 0.010851106 -0.069851585
0001c0 e8 0f 31 3d 8c 04 eb 3c bc 7e 30 bd b8 47 4b bd
       0.04322806 0.028688692 -0.043089613 -0.049628943
0001d0 3d b0 9c bc 19 73 fa 3b 19 0e ad bc 5b 18 12 bd
       -0.019127006 0.0076431152 -0.021124886 -0.03566776
0001e0 40 fa 9a bc a5 20 3c 3c 64 e1 4a 3d 30 cd 71 3c
       -0.018918157 0.011482392 0.049531356 0.014758393
0001f0 1b d3 e6 bc 56 77 9a bc 36 10 94 3c 7c 94 1a bd
       -0.028176835 -0.018855732 0.018074136 -0.037739262
000200 8c c6 13 bd ad 78 33 3c b3 5d 36 bd 36 fb 8a bd
       -0.03607802 0.010954064 -0.044522952 -0.06786196
000210 29 81 1a bd b6 56 17 bd c1 83 c4 3c 8f a6 fc bc
       -0.037720833 -0.03694793 0.023988606 -0.03084114
000220 11 6c f2 ba 01 84 a7 3c 1a ea 11 3d b6 91 20 bc
       -0.0018495341 0.020448687 0.035623647 -0.009800365
000230 b1 71 f5 3c 4f 0c fe 3c da ee e0 bc f9 33 4c 3b
       0.029961439 0.031011729 -0.027457643 0.0031158908
000240 9f 29 8e bc 26 54 33 bc 1e 98 14 bd f2 c0 08 3d
       -0.01735383 -0.0109453555 -0.036277883 0.033387132
000250 17 f5 13 3d a2 3b 67 3d e9 c3 11 bd 95 d6 df 3c
       0.036122408 0.056453355 -0.035587225 0.027324
000260 86 d4 89 3a f8 ba 34 bd 66 12 c9 3c 27 28 cd bc
       0.0010515607 -0.04412362 0.024544906 -0.02504356
000270 14 e4 4e bd 8e c6 0f 3c 66 1c 2a bd c6 24 c9 3c
       -0.05051048 0.0087753665 -0.04153099 0.024553668
000280 98 e7 ca 3c cb 85 26 3c 12 55 65 bd 09 8d 19 bd
       0.024768636 0.010163735 -0.055989332 -0.037488017
000290 eb bc 04 3d 61 17 e4 bc ee 0d 25 bd c7 c5 ab 3c
       0.03240673 -0.02784318 -0.040296488 0.020968331
0002a0 8b 7c 1e 3a 13 22 95 bc 05 97 dc 3c 48 4d f7 bc
       0.000604578 -0.018204724 0.02692748 -0.030188218
0002b0 53 5b ba bc b3 cb 0c 3d 75 b5 f2 ba ff a7 e7 bc
       -0.022748625 0.03437395 -0.0018517213 -0.028278349
0002c0 af 4e 0b bd 2c 85 c0 3b 12 bc df 3c d7 1a 42 bc
       -0.034010585 0.0058752503 0.027311359 -0.011847219
0002d0 fd fc bb bc df f1 e8 bc 9a ec be bb 33 74 ea bc
       -0.022947783 -0.028435646 -0.005826545 -0.028619861
0002e0 6b 41 01 bd dc a1 c9 3c 46 a4 49 bc 62 dd 8c 3c
       -0.031556528 0.024613313 -0.012307232 0.017195407
0002f0 79 6b e2 bb 27 84 59 3c d3 60 29 bd cc 0b a1 bb
       -0.0069097844 0.0132761365 -0.041352104 -0.0049147364
000300 d6 d6 24 ba b2 30 d4 3c 54 65 17 bd 56 92 1d bc
       -0.00062881166 0.025902126 -0.03696187 -0.009617409
000310 3a 20 00 bd 71 fa b8 bc 31 f1 81 bc 88 58 0a 3d
       -0.031280734 -0.022580357 -0.01586208 0.033775836
000320 98 83 9b bc 3f 3b f3 bb 7b 87 8a b7 50 4e da 3c
       -0.018983647 -0.007422834 -1.651397e-05 0.02664867
000330 1c 98 9a 3c e2 0c c6 3b 6f 80 74 3b 05 e7 09 bb
       0.01887136 0.006044016 0.0037307998 -0.002104224
000340 fa 3a 6b 3c be 5a bc bc d7 1c 1c bd dc 3b 95 bc
       0.014357323 -0.022992488 -0.03811344 -0.01821702
000350 3e a5 21 3c 0d 98 b2 bc 57 0a 3c bd 35 3e e3 ba
       0.009866057 -0.02180102 -0.0459083 -0.0017337265
000360 c9 4e 04 bc 9d d0 bf bb 60 61 23 bb a7 02 3e bd
       -0.0080754245 -0.005853726 -0.0024929866 -0.04638925
000370 19 26 91 bc c9 32 1b 3d 35 85 d3 bc 86 08 4d 3d
       -0.017718362 0.03789023 -0.025820354 0.050056957
000380 d5 37 22 bd 1e 6c 35 3d a5 85 e6 3c d7 74 0c bd
       -0.039604027 0.04429256 0.028139899 -0.034291115
000390 68 33 b0 3c bf 18 3f bd 81 b3 cb bc be ca b3 bc
       0.021508887 -0.04665446 -0.024865868 -0.021947261
0003a0 0f 4f 05 bc 1d 05 8d bc 88 fc 10 bd a9 e5 2a bc
       -0.008136525 -0.017214352 -0.035397083 -0.010430732
0003b0 fa 25 83 3c 15 f7 b1 bc a7 03 2b bd 90 20 0d 3b
       0.01600932 -0.021724263 -0.04175153 0.0021534301
0003c0 0f c5 b4 3c a3 83 d6 bc 21 5b 0f 3c 27 29 23 bc
       0.022066621 -0.026185816 0.008749754 -0.009958542
0003d0 ca 12 56 bd a7 72 d0 3c 36 7c 17 bd f2 4b a6 3c
       -0.052264012 0.025445295 -0.03698369 0.020299885
0003e0 31 f7 d9 3c b8 97 9d 3d 39 7c 83 3c 91 3d 40 bc
       0.026607128 0.07694954 0.016050445 -0.011733429
0003f0 40 e3 09 bd ab 49 71 bc 29 d0 d4 3b 7e df f6 bc
       -0.033663988 -0.0147270365 0.006494541 -0.030135866
