ethosu_compiler/gen_cms/spk_mnist_mlp/model_params/fc2_weights.npy (npy, 40128 bytes, 1 tensors)

array f4 [10, 1000]
0.013236064 0.018883828 -0.0035379608 -0.03867738 -0.0068508955 0.0055162697 -0.026935041 0.030242411
0.02015128 0.0063169557 0.012593301 -0.034050405 -0.056599796 -0.045369625 -0.019992018 0.045698367
0.035403233 -0.01641139 0.012797809 0.011441477 0.019962147 0.015793549 0.019041374 0.04486863
-0.02878141 0.015717864 0.03805184 0.031838365 -0.015180582 0.011331475 0.02900839 0.047090523
-0.01174646 -0.043160137 0.0047462424 0.03608424 -0.003289403 -0.0349894 0.04843855 0.0038326888
-0.001441892 -0.030164976 -0.018912947 0.015133955 0.044137143 0.011554411 0.011709558 0.0035954444
0.010386678 -0.029186329 -0.029002512 0.030457424 0.0080328 0.020217476 -0.029291911 -0.028178034
0.012473245 0.01437304 -0.031959124 -0.020212531 -0.0041000564 -0.0010464428 -0.035004556 -0.022307428
0.005647051 0.016260263 -0.019775243 0.008140983 -0.033481896 0.006262207 -0.023238638 0.014025876
0.0088008735 0.03363158 0.012102062 0.026379079 -0.02923783 -0.0041872407 -0.0047099 -0.04970204
0.009236558 -0.044774164 -0.013417975 0.014523625 -0.028436756 0.021624941 -0.04331233 -0.013248675
0.0051504415 -0.012330845 -0.033801906 -0.052806392 -0.04412414 -0.04197062 0.0054224017 -0.027875507
-0.012532923 0.04270579 0.03409519 -0.0028861791 -0.04090474 -0.034963053 -0.026151145 0.011306953
0.063362464 -0.028549194 -0.03769762 -0.023442129 0.017243046 -0.04072785 0.044268105 0.0077795745
0.0032062458 0.016283426 -0.033617746 0.024840465 0.014212524 -0.017190106 0.019325068 0.011937691
-0.005592688 -0.04242846 0.022386108 0.01801136 -0.058774617 -0.008262946 -0.04302954 0.034231536
0.026967615 -0.010358773 -0.0053745154 0.033931457 -0.044092637 -0.073958 -0.030978154 0.0065044747
-0.00880181 -0.00033796424 0.006431202 0.013944422 -0.047150075 -0.04837349 -0.009135819 -0.065627
0.01046443 0.005313034 -0.023773886 -0.019122314 -0.0195397 -0.0309196 -0.011547796 0.042909365
-0.03580944 0.0006525134 -0.012115984 -0.044345375 0.0014401855 0.04637005 0.014274604 0.03849738
0.00020807897 -0.0060790237 -0.02411175 0.0355581 0.02515633 0.019907353 0.031038415 -0.077932976
-0.005121666 -0.018338948 0.0003022808 0.016280549 -0.0050914837 0.0070977653 0.027383853 -0.0049232123
-0.041760486 -0.04202243 -0.0065530688 -0.012936492 0.03222351 0.011243391 -0.005316755 -0.0051541463
-0.050803028 -0.044457763 -0.0013578506 -0.01595778 0.021511992 -0.002781491 0.030639572 0.006679399
-0.023850933 -0.027706433 -0.021405417 -0.060315907 -0.034168012 -0.029459022 0.015726026 0.03627273
0.049651675 0.0114891315 -0.003704927 -0.005727164 -0.035411537 0.010908546 0.001037092 -0.013344273
-0.03286046 -0.04194108 0.019366194 0.039969884 0.011207609 0.066349514 -0.03643049 0.038788248
0.021136457 0.00804536 0.014685684 -0.017969746 0.01432834 0.03257318 -0.048680294 0.022869622
-0.02523522 -0.0336275 -0.013832923 0.016204933 0.004738202 -0.034491647 -0.0146368835 0.01779528
0.023281079 -0.010210506 0.046077944 -0.052021768 -0.028361833 -0.02575483 -0.058564898 -0.018373989
0.03179879 -0.029819086 -0.033228736 0.022704221 0.027255036 0.019180214 -0.04918553 -0.027200323
-0.032371596 0.003703569 -0.009808643 -0.019653244 0.023712954 -0.05046156 -0.033932574 0.03477506
00000000: 14dc 583c 42b2 9a3c 22dd 67bb 2c6c 1ebd
00000010: 7a7d e0bb d3c1 b43b e0a6 dcbc efbe f73c
00000020: 4c14 a53c 77fe ce3b 2254 4e3c 7078 0bbd
00000030: 30d5 67bd 80d5 39bd 4dc6 a3bc 362e 3b3d
00000040: fb02 113d 2e71 86bc e7ad 513c 0875 3b3c
00000050: a887 a33c 7961 813c a8fc 9b3c 2bc8 373d
00000060: fec6 ebbc c0c2 803c 3fdc 1b3d f268 023d
00000070: fab7 78bc a7a7 393c 01a3 ed3c fee1 403d
00000080: 3974 40bc afc8 30bd 5e86 9b3b 11cd 133d
00000090: 0693 57bb 0c51 0fbd 8067 463d d92d 7b3b
000000a0: defd bcba 8a1c f7bc 53ef 9abc 68f4 773c
000000b0: 26c9 343d b64e 3d3c 72d9 3f3c 8ca1 6b3b
000000c0: e32c 2a3c 2b18 efbc ad96 edbc d981 f93c
000000d0: 019c 033c 1f9f a53c 97f5 efbc 9fd5 e6bc
000000e0: 955c 4c3c e67c 6b3c 92e7 02bd c094 a5bc
000000f0: c459 86bb cb28 89ba f060 0fbd 11be b6bc
00000100: e60a b93b 3e34 853c b1ff a1bc c261 053c
00000110: 5024 09bd 3333 cd3b f55e bebc cacc 653c
00000120: 8a31 103c 45c1 093d ba47 463c f018 d83c
00000130: 2c84 efbc 1f35 89bb 8155 9abb 5e94 4bbd
00000140: ef54 173c 1d65 37bd 11d7 5bbc 80f4 6d3c
00000150: 33f4 e8bc ca26 b13c 4568 31bd f810 59bc
00000160: 09c5 a83b 5007 4abc de73 0abd 844b 58bd
00000170: 84bb 34bd 63e9 2bbd 67ae b13b 2d5b e4bc
00000180: e456 4dbc 44ec 2e3d 66a7 0b3d 0d26 3dbb
00000190: bb8b 27bd 6b35 0fbd ed3a d6bc cc40 393c
000001a0: 2ec4 813d 00e0 e9bc d268 1abd b509 c0bc
000001b0: 4a41 8d3c 3fd2 26bd 7952 353d cdeb fe3b
000001c0: e11f 523b d264 853c c3b2 09bd 3b7e cb3c
000001d0: a5db 683c 44d2 8cbc 9b4f 9e3c 4e96 433c
000001e0: de42 b7bb 77c9 2dbd 1263 b73c 8f8c 933c
000001f0: a7bd 70bd 4f61 07bc be3f 30bd 5e36 0c3d
00000200: 30eb dc3c d8b7 29bc b41c b0bb b6fb 0a3d
00000210: 7b9a 34bd 4b77 97bd e6c5 fdbc 7d23 d53b
00000220: 7835 10bc cb30 b1b9 d5bc d23b 2577 643c
00000230: 7020 41bd 4823 46bd 67ae 15bc 7367 86bd
00000240: 0073 2b3c f618 ae3b 74c1 c2bc 66a6 9cbc
00000250: b911 a0bc 1a4b fdbc f832 3dbc bbc1 2f3d
00000260: ebac 12bd 6f0d 2b3a 1f82 46bc 7fa3 35bd
00000270: 9bc4 bc3a 86ee 3d3d 07e0 693c 6eaf 1d3d
00000280: c62f 5a39 8c32 c7bb 0186 c5bc 5fa5 113d
00000290: a614 ce3c bf14 a33c 4644 fe3c 539b 9fbd
000002a0: a6d3 a7bb 903b 96bc 717b 9e39 c95e 853c
000002b0: 76d6 a6bb 5f94 e83b 1a54 e03c e652 a1bb
000002c0: 0b0d 2bbd b61f 2cbd 20bb d6bb 95f3 53bc
000002d0: cdfc 033d 3336 383c 2c38 aebb 1de4 a8bb
000002e0: d616 50bd 5819 36bd e8f9 b1ba e4b9 82bc
000002f0: eb39 b03c ad49 36bb d7ff fa3c dcde da3b
00000300: 0863 c3bc 9af8 e2bc 6a5a afbc d00d 77bd
00000310: c2f3 0bbd 0c54 f1bc ded3 803c b792 143d
00000320: 8e5f 4b3d e93c 3c3c 5cce 72bb efaa bbbb
00000330: b00b 11bd c2b9 323c 08ef 873a f0a1 5abc
00000340: b198 06bd 69ca 2bbd daa5 9e3c 76b7 233d
00000350: 1fa0 373c 41e2 873d 2338 15bd 6de0 1e3d
00000360: 5d26 ad3c b0d0 033c 399c 703c 4a35 93bc
00000370: 6ac1 6a3c 746b 053d fd64 47bd 1359 bb3c
00000380: 18ba cebc fdbc 09bd 7ca3 62bc 35c0 843c
00000390: eb42 9b3b 1d47 0dbd 8acf 6fbc 68c7 913c
000003a0: f6b7 be3c f749 27bc 3abc 3c3d c714 55bd
000003b0: 1357 e8bc cbfb d2bc bfe1 6fbd 0c85 96bc
000003c0: 733f 023d 2847 f4bc db1a 08bd 34fe b93c
000003d0: f445 df3c d31f 9d3c c476 49bd 36d3 debc
000003e0: 1498 04bd 94b7 723b 6eb4 20bc d7ff a0bc
000003f0: ab41 c23c c8b0 4ebd e2fc 0abd 4b70 0e3d
