ethosu_compiler/gen_cms/spk_mnist_mlp/weights_init.npy (npy, 40128 bytes, 1 tensors)

array f4 [10, 1000]
00000000: 2078 cd3c ce91 8d3c 1041 c0bb 7566 eebc
00000010: 927d 0a3c 7d04 bc3b cf3e c9bc 9f3f ab3c
00000020: 6290 923c 404a d53b f620 953c 26bb 0abd
00000030: 9a30 31bd c76b 2abd 1f42 d8bc c70e 373d
00000040: 8d82 0a3d d8b3 97bc fe8f 0dbc 93b7 243c
00000050: f1bf 943c 7939 803c d6c8 813c e15b 1a3d
00000060: 6002 b6bc b24b 073d c1f1 2e3d 9628 f53c
00000070: aa54 1bbc ef05 843c 553a ef3c b63e 3c3d
00000080: b52b 2bbc 39dd 2dbd 473b 35b9 f423 133d
00000090: 8fb3 41bc 159d 0abd 33a7 483d 44fc 733a
000000a0: a3a9 b53b 7109 c2bc c895 07bc b439 5a3c
000000b0: 9daa 3f3d e257 713c 3546 853b 9ddb 1b3b
000000c0: 5e05 0b3c a517 b9bc 2a15 fdbc 568c e73c
000000d0: c6dc a13b 58ab 8b3c c8e3 04bd 6e80 e5bc
000000e0: a671 383c a576 473c f1c3 1abd b287 c8bc
000000f0: 701a 12bc 2313 d9bb 429e febc 54c6 c0bc
00000100: 4e92 9f3b c18f 593c 5e81 9bbc 1dcb 333c
00000110: 368e 17bd bd3f 9a3b 7538 c7bc 435a 6a3c
00000120: c6f8 863b f8f6 163d 3c71 2b3c 8e4a cc3c
00000130: d3f2 d9bc 4ad6 10bc bf4e c1bb 600e 00bd
00000140: b7e0 a23b 517f 3dbd ed6a 81bc 9af7 5f3c
00000150: a6c1 07bd f5ac bd3c 4da0 38bd 5243 92bc
00000160: cd50 4c3b e7f0 e3bc eea8 1dbd cdf1 9bbd
00000170: 1397 32bd 4d7c 14bd b921 013c 6eba 7cbc
00000180: e602 69bc 63c5 1e3d 3769 143d 2f2f 9839
00000190: f162 23bd f36b 03bd ab75 a2bc 12c6 5d3c
000001a0: 799c 873d bf40 e6bc 8804 10bd 3544 b3bc
000001b0: daa2 7c3c 0c6b 2fbd 57e4 373d 4d4a e93b
000001c0: ee08 ee3b 5dd0 553c 39b3 3fbc 955a a03c
000001d0: 1919 213c 6520 8cbc c48e 8e3c d5dd 883c
000001e0: 42f3 c0bb 5fad 1cbd 2b7d ce3c 06ce 973c
000001f0: 430e 94bc 77d2 26bc 37c4 28bd 2e05 123d
00000200: e435 ae3c 2c32 95bc ec83 04bc d2e6 0e3d
00000210: ada0 5abd 1560 c3bd 1079 fbbc 4cc3 613b
00000220: 5cff ecbb 645c 1d3c f603 ea39 4572 3f3c
00000230: a6c1 38bd 01fb 53bd f8e3 7fbc e34b 37bd
00000240: 64c3 263c fe0a 323c 22ec b4bc b33e 8fbc
00000250: dbd7 dcbc 9603 0fbd 514b 6bbc d01b 303d
00000260: be99 17bd 17e2 173b 3c51 7cbc 9915 19bd
00000270: d85a a2bb e0df 253d aceb 9e3c 2ca1 173d
00000280: 3d92 303b d61c 1abc c158 b8bc 5766 093d
00000290: 92de 013d e22d a03c e5d5 f23c 0b79 85bd
000002a0: 42ae c7bb 8b81 98bc 3982 0e3b 88f6 833c
000002b0: 80d5 bf3b cc52 513c a9cb 623c c9d8 4dbb
000002c0: 1bd1 39bd 05ae 75bd d2e3 9e3b 5d8e 60bc
000002d0: 9f97 043d 0916 653c 7587 86bb 7419 b6bb
000002e0: 0dd4 58bd 60aa 29bd 0d3b cbbb 3b4a 86bc
000002f0: c48d af3c 852f d1bb 5446 f73c af80 343c
00000300: de26 9ebc 0df4 06bd 0046 cbbc 39c2 35bd
00000310: 17fe 17bd 9d03 13bd 8a9e 883c 1947 c73c
00000320: 9f63 813d 6502 993b c6bd b8bb 9850 0dbc
00000330: 1a4f bebc 2a03 9f3c 3d79 4c3a 2a39 86bc
00000340: 5a78 15bd cd2b 20bd b595 7e3c fc3e 123d
00000350: 070a 963c 7e80 633d 7791 1dbd 7133 223d
00000360: d547 af3c a6b3 a83b c562 e13c 4e7c 7a3a
00000370: f3d9 3e3c 74ba 0c3d 3cfb 66bc 366f c53c
00000380: 1256 cabc b09f 05bd 1527 0fbc c125 a13c
00000390: e10c b63b a03e 18bd 0368 e3bb 4aca 953c
000003a0: 846c c23c 1dea b5bb f82a 563d 5e38 4abd
000003b0: 48b1 e3bc 8260 e3bc cb3c 53bd 5adb a8bc
000003c0: 535a 033d e304 e2bc 2d1f f1bc e41c b33c
000003d0: e93a d43c e483 b43b b469 58bd ff28 00bd
000003e0: 7990 4dbd 40ad bf39 b5af 5abc ebd7 d5bc
000003f0: 9119 b73c 8d88 15bd 3f89 04bd 9508 0a3d
0.025081694 0.01728144 -0.005867131 -0.02910159 0.00845279 0.0057378397 -0.024566082 0.02090436
0.017891113 0.0065090954 0.018204194 -0.033869885 -0.04325924 -0.04160669 -0.026398716 0.044691827
0.03381591 -0.018518373 -0.008640287 0.010053533 0.018157931 0.015652405 0.015842836 0.03768528
-0.02221793 0.033031173 0.042711023 0.02992658 -0.009480635 0.01611611 0.02920262 0.045958243
-0.010447432 -0.042447302 -0.00017283588 0.03592296 -0.011822595 -0.03384121 0.04898758 0.0009307305
0.005543904 -0.023686143 -0.008275457 0.013319422 0.04679357 0.014730426 0.004067207 0.0023782023
0.008485166 -0.022594282 -0.03089388 0.02826516 0.0049396483 0.017049477 -0.03244379 -0.028015342
0.011257565 0.012174283 -0.03778452 -0.024478767 -0.008917436 -0.0066245957 -0.031081323 -0.02353207
0.004869736 0.0132789025 -0.018982586 0.010973719 -0.037000857 0.004707305 -0.024318913 0.014303747
0.0041190116 0.03685662 0.010464009 0.024937894 -0.026605045 -0.008840153 -0.00589928 -0.03126371
0.0049706358 -0.046263997 -0.015798056 0.013669873 -0.033143662 0.023153761 -0.04507475 -0.017854366
0.003117609 -0.027824832 -0.038491182 -0.07614479 -0.043601107 -0.036251355 0.007881575 -0.015425308
-0.014221882 0.03876246 0.036233153 0.00029026854 -0.03988928 -0.03208537 -0.0198315 0.013535993
0.06621642 -0.028107045 -0.03516057 -0.02188311 0.015419686 -0.042826697 0.044895496 0.007119453
0.007264248 0.013050166 -0.011700445 0.019574443 0.009832644 -0.01710529 0.01740206 0.01670734
-0.0058883736 -0.038251277 0.02520617 0.018530857 -0.018073207 -0.010182015 -0.04120275 0.03564947
0.021265931 -0.0182124 -0.008088093 0.034888096 -0.05337589 -0.095398106 -0.030697376 0.0034448681
-0.0072325896 0.009604547 0.0004463491 0.011684959 -0.045106553 -0.051753048 -0.015618317 -0.044750106
0.010178421 0.010866879 -0.022085253 -0.017485952 -0.026958397 -0.03491553 -0.014361219 0.042995274
-0.037011854 0.0023175532 -0.015400227 -0.037374113 -0.004954677 0.040496707 0.019399486 0.03701894
0.0026942634 -0.009406289 -0.022503259 0.033544865 0.0317064 0.019553129 0.029643008 -0.06517228
-0.006093771 -0.018616458 0.00217451 0.016108766 0.0058543086 0.012776088 0.013842502 -0.0031409732
-0.045365434 -0.05998041 0.0048489356 -0.013705817 0.03237116 0.013982304 -0.004105503 -0.0055572335
-0.052936602 -0.041422248 -0.0062021078 -0.016392818 0.021429904 -0.0063838386 0.030184902 0.011017009
-0.019305643 -0.03294759 -0.024813652 -0.04437468 -0.037107553 -0.035892118 0.01667716 0.024325894
0.06317829 0.004669475 -0.005637857 -0.008625172 -0.023231078 0.019410688 0.00078000483 -0.01638468
-0.03649173 -0.03910427 0.015538623 0.035704598 0.018315328 0.05554246 -0.038468804 0.03959984
0.021396557 0.005148369 0.027512917 0.0009555266 0.011648643 0.034357503 -0.014097985 0.024100881
-0.024699245 -0.032622993 -0.008737345 0.019671323 0.0055557345 -0.0371691 -0.0069398894 0.018284936
0.023733385 -0.00555159 0.052287072 -0.049370162 -0.027794495 -0.02775598 -0.05157165 -0.020612407
0.03206856 -0.02759022 -0.029433811 0.021864362 0.025906997 0.0055088867 -0.05283518 -0.031289097
-0.050186608 0.0003655944 -0.013347556 -0.026103934 0.022351058 -0.036507178 -0.03235745 0.03369959
