ethosu_compiler/gen_cms/spk_mnist_784x100x10/model_params/fc2_weights.npy (npy, 4128 bytes, 1 tensors)

array f4 [10, 100]
000000 a9 52 ae 3c 81 d7 e4 bd ac 38 a6 3d ff 85 f8 3d
       0.02127965 -0.111739166 0.08116278 0.12134933
000010 00 f9 52 bd 2e ce 84 3d 85 d4 5c 3d 40 a8 d4 bc
       -0.051506996 0.06484638 0.053913612 -0.025959134
000020 70 3e df bd a4 04 d7 3d 52 06 91 3d d1 38 a0 bd
       -0.10900581 0.10498932 0.07081284 -0.07823337
000030 d9 fe 15 be d4 74 9e 3d 4a 96 12 bc 03 c0 52 3d
       -0.14647998 0.07737127 -0.0089469645 0.051452648
000040 3c 2e 11 3e 8b 92 38 bb e6 a5 35 bd 5f 38 36 be
       0.14177793 -0.0028163518 -0.044347666 -0.17794941
000050 86 e3 cf 3d 4b 40 f7 bd a0 71 a6 bd 75 6f 0b be
       0.101508185 -0.1207281 -0.08127141 -0.13616736
000060 8e f7 82 bd 5e 2b c2 bb 43 7f 98 bd f6 da 0a 3d
       -0.063948736 -0.00592558 -0.07446148 0.033900224
000070 6f 20 32 3d a4 18 c8 3d b1 56 88 bd a5 b6 b9 bd
       0.043487962 0.09770325 -0.0665716 -0.0906804
000080 5b bd c9 ba 1f f9 a7 bd 17 46 a9 3c cc 97 0e 3e
       -0.0015391515 -0.08201813 0.020663304 0.13925093
000090 f5 28 b6 3d 21 9f 67 bd 31 3a f6 3c b3 fe 78 3d
       0.08894531 -0.05654824 0.030057045 0.060789775
0000a0 2b 9a ee 3d a9 cf e2 bd 86 b7 0c 3e 4e d4 e3 3d
       0.11650499 -0.11074764 0.13741884 0.11124478
0000b0 5b c5 b3 3d 27 7b 11 ba b1 8b c6 3d 02 a1 66 bd
       0.08777877 -0.0005549662 0.09694613 -0.056305893
0000c0 6d 0d 78 3a 40 6c 1e bc 2f 6f 2d bd f9 a7 1c be
       0.000946245 -0.0096693635 -0.04234236 -0.15298451
0000d0 56 dd 14 be 7f 03 15 bd 44 c9 09 bc 2f 77 07 3e
       -0.14537558 -0.036380287 -0.008409802 0.13229059
0000e0 fa 49 6f 3d 8e a0 d0 bd 63 e4 8a bd 93 84 a2 3d
       0.05842016 -0.101868734 -0.067818426 0.07935443
0000f0 a1 77 cf 3c f3 38 af 3b 4b b1 25 be e1 2e 03 be
       0.025325598 0.005347365 -0.16180913 -0.12810852
000100 5e 20 09 3e 70 dd 1b bd 9d e8 7d 3d 95 98 e9 3c
       0.13391253 -0.038052976 0.061989415 0.02851514
000110 b5 0a 08 be c1 2a 19 be d0 cf fb 3d 36 a7 b4 bd
       -0.13285334 -0.14957716 0.122954965 -0.088209555
000120 8d dd 2c bd 58 71 86 3d e0 a7 10 be 13 78 e0 bb
       -0.042203475 0.06564587 -0.14126539 -0.0068502515
000130 77 02 d4 3d 94 30 c8 bd 53 3b eb bc 58 3c c6 3d
       0.10352033 -0.097748905 -0.028714811 0.096794784
000140 76 a0 9d bd 33 a5 82 bd a7 a5 9c 3d c7 2c e1 bd
       -0.07696621 -0.063791655 0.07648783 -0.10994869
000150 45 cd 5c 3c 9a ff 34 bd 2b ff 2a be 25 33 0f be
       0.013476674 -0.044189073 -0.16698901 -0.13984354
000160 52 20 60 3d 8b 55 18 3e 4c fc e2 bd 56 c1 df 3d
       0.054718323 0.14876382 -0.11083278 0.10925548
000170 c2 0e 08 be 23 a5 39 bd ab 31 80 bd 6b a0 bc bb
       -0.1328688 -0.045323502 -0.062594734 -0.005756428
000180 e8 9f 60 3d b5 ff 2d 3d 37 9b a5 3d 27 5c a0 bd
       0.05484 0.04248019 0.080862455 -0.07830077
000190 33 4c 1d be e1 97 1d be ca 82 cd bb a6 5e fa bd
       -0.15361099 -0.15389968 -0.006271695 -0.12225084
0001a0 de e7 fb bd 66 e4 9b 3d 59 ab b2 bd 02 1f 01 3e
       -0.123000845 0.07611923 -0.08724088 0.12609485
0001b0 33 51 91 3d 25 4d 8d bd d2 5e 30 3e b0 8e 15 3e
       0.07095566 -0.0689948 0.17223671 0.14605212
0001c0 4e 0f 88 3c 0e 1b be bd c9 db d5 bd 23 2d 3c 3d
       0.01660886 -0.09282504 -0.10442311 0.045941483
0001d0 52 9a 9c bd 1b d1 bc 3d 91 fc 99 bd 2b 61 fa bd
       -0.07646622 0.09219571 -0.07518876 -0.122255646
0001e0 c4 e0 9f 3c 2e ad 09 be ef 0e d2 bd 01 21 90 3d
       0.019516356 -0.13444969 -0.102567546 0.07037545
0001f0 d1 ab 0b 3e 03 1d 8a bd 6f a3 0b bc 96 1f c3 3d
       0.13639762 -0.06743815 -0.008522852 0.09527509
000200 f4 ea c1 bd b5 fa 1f bc 20 89 21 be 3c 81 f0 3a
       -0.09468642 -0.009764363 -0.15774965 0.0018349062
000210 8c 95 b6 bd 7f 49 d4 3c f1 78 9d bd 7d 0e 11 bd
       -0.089152426 0.025913952 -0.07689083 -0.035414208
000220 10 51 f4 bd 17 71 9d 3d 5c 63 af 3d a9 48 03 3e
       -0.11929524 0.07687586 0.08563873 0.12820686
000230 18 f3 1f bd 0d 69 24 bd 44 97 a8 3c 94 e0 2a be
       -0.03905019 -0.040139247 0.020579942 -0.16687232
000240 f1 3a bc bd 3b 03 f3 3d 95 6f 1a bb 00 5c 72 bd
       -0.0919093 0.118658505 -0.0023565043 -0.05916977
000250 6d bf c5 bd 37 d8 f2 3d b0 32 1a 3e 36 1c b0 bd
       -0.09655652 0.11857646 0.15058398 -0.08599131
000260 b9 31 c4 3d 6d 97 19 3e 8c fd 82 bd cd d1 ed bd
       0.09579796 0.1499917 -0.063960165 -0.11612282
000270 67 52 0a be 47 94 71 3c a0 51 76 3d 44 20 f8 bd
       -0.13507996 0.014744825 0.060136437 -0.12115529
000280 d0 d6 c0 bd 36 ac 20 be 48 bd 22 ba e2 ed d8 3d
       -0.09415972 -0.15690693 -0.00062080147 0.105922475
000290 86 08 16 be 19 f5 9b 3c 25 74 15 3d 9b be 5c bd
       -0.14651689 0.01903777 0.036487717 -0.053892713
0002a0 82 8c db 3d ce 3d 0d bd 30 ec 8e bd 6f 19 ce bd
       0.10720159 -0.03448277 -0.06978643 -0.10063445
0002b0 c6 0e 20 be a7 5d e1 3c d7 c1 ba 3c de 6a f3 3d
       -0.15630636 0.027510477 0.022797508 0.11885618
0002c0 e9 5c 7e bc 2f 5a 5a 3d be 3b 09 be 6c a1 ac bc
       -0.015525081 0.053308662 -0.13401696 -0.021073066
0002d0 fd b5 bf bd f1 94 a1 3d 09 ca 06 be 88 bd 1e 3e
       -0.093608834 0.078897364 -0.13163008 0.15501988
0002e0 c0 af 8c bd 74 9b c5 bd 83 66 d7 3d eb 86 06 3e
       -0.06869459 -0.09648791 0.105175994 0.13137405
0002f0 59 74 8f bc e4 34 d7 3b e4 35 a8 3d d5 70 00 bc
       -0.017511534 0.0065675844 0.08213404 -0.007839401
000300 ce 6d 00 be 64 36 f7 bd 3c 15 19 3e a7 00 96 3d
       -0.12541887 -0.12070921 0.14949507 0.07324343
000310 e6 b9 21 be 2c d2 ed 3d 3f c1 e7 bd af de 09 be
       -0.15793571 0.11612353 -0.11316156 -0.13463853
000320 3a 16 92 3d 49 3f f3 bc be 5c a8 3d 50 07 e9 3c
       0.07133146 -0.029693263 0.08220814 0.02844587
000330 07 5e 8a 3d 67 85 f4 3d 21 f6 a5 bd 95 34 b6 bc
       0.067562155 0.11939507 -0.08103586 -0.02224187
000340 f9 4e 19 be 0a b2 c4 3d 2b ce 00 be 8e ef ae 3d
       -0.14971532 0.09604271 -0.12578647 0.08541785
000350 1a fa 1a be 08 67 0a 3e 1b 73 0f 3d e9 1b 0c be
       -0.15134469 0.13515866 0.035021883 -0.13682522
000360 c1 7c 18 be 31 bf 30 3d 0d 26 1b bd cc 9f ec 3b
       -0.1489134 0.043151084 -0.037878085 0.0072211977
000370 01 b2 e9 3d 0c c9 07 be 34 be 5f bd 4c 11 3c be
       0.11410905 -0.13260287 -0.05462475 -0.18365973
000380 41 8d 41 be 5b 45 11 be f3 d3 f5 3c 41 ce 1f be
       -0.1890154 -0.14186613 0.030008292 -0.15606023
000390 b4 43 67 3d 1a a9 ff bd 2d 09 90 bd 07 1f 13 3e
       0.05646105 -0.124834254 -0.07033 0.14367305
0003a0 0b 07 ec bd 14 56 17 be b5 74 12 3d 7b 31 1c bd
       -0.11524781 -0.1477893 0.03575583 -0.038133126
0003b0 c3 38 e6 3c ee f0 08 bd 27 b1 f7 3d bf 12 ea 3d
       0.028103238 -0.033432893 0.12094336 0.11429357
0003c0 e3 16 87 3d 70 86 ef bd 03 8f cf bd 77 99 3d 3d
       0.06596162 -0.11695564 -0.10134699 0.046288934
0003d0 d3 4d 8c bd 9d c3 e8 bd c9 ff 49 3c 97 c5 0f 3d
       -0.06850781 -0.11365435 0.01232905 0.035100546
0003e0 f7 d8 ad 3d 19 6e d5 3c a6 14 08 3e 26 ac aa bd
       0.084886484 0.026053475 0.13289127 -0.08333616
0003f0 10 9f ef 3d 31 1e 09 3e 39 a5 d8 3d 70 42 74 bd
       0.11700261 0.13390423 0.10578389 -0.059633672
