ethosu_compiler/gen_cms/spk_mnist_784x100x10/model_params/save_model_dict_784x100x10.pt (torch, 322226 bytes, 4 tensors)

fc1.weight f4 [100, 784]
0	0x3cdfaea1	0.02730495
1	0x3cf2d62c	0.02964314
2	0xbc091537	-0.008366874
3	0x3d066135	0.032807548
4	0xbc0034f7	-0.007825128
5	0x3bec271c	0.0072068106
6	0xbc8e709c	-0.01738768
7	0x3cabd277	0.02097438
8	0x3d00f507	0.031483676
9	0xbcd6a37e	-0.026201006
10	0x3cfe4d4e	0.031042721
11	0x3bdb07a5	0.006684261
12	0x3cfee6c9	0.031115906
13	0x3c1df147	0.0096400445
14	0x3cb55f98	0.02214031
15	0xbba53bdc	-0.005042536
16	0x3ce18a08	0.027531639
17	0x3bacfa8a	0.00527889
18	0xbc889583	-0.016672855
19	0x3c1526e5	0.009103511
20	0xbc86cc63	-0.016454881
21	0xbb893e25	-0.0041883164
22	0xbc6da921	-0.0145056555
23	0x3cc2155a	0.023691822
24	0xbce6f27a	-0.028191794
25	0xbc86e0e3	-0.016464656
26	0xbc253ac5	-0.0100848125
27	0xbcafea47	-0.021474017
28	0x3b5ce913	0.003370826
29	0xbd107bbd	-0.035274256
30	0x3d041caa	0.0322539
31	0xbcf887b8	-0.030338153
32	0x3cef5c04	0.029218681
33	0x3c37d824	0.011220966
34	0xba733a10	-0.00092783663
35	0x3d1c435e	0.038150184
36	0x3cd799a4	0.026318379
37	0x3d18e22b	0.037325066
38	0x3c33baa4	0.010969792
39	0x3b0cd444	0.0021488825
40	0x3ce34518	0.027742907
41	0x39e83b17	0.00044294514
42	0x3c82718b	0.015923282
43	0x3d07504f	0.033035573
44	0x3d18f359	0.03734145
45	0xbb89c491	-0.0042043407
46	0x3cdfcb42	0.0273186
47	0x3c68f2bf	0.014218031
48	0x3ccd0870	0.025028437
49	0xbc72e481	-0.014824987
50	0xbcffa2ed	-0.031205619
51	0xbb9f3b41	-0.0048593585
52	0xbce068b3	-0.027393674
53	0x3cf010f5	0.02930496
54	0x3c288a1c	0.010286834
55	0x3c725fc5	0.014793341
56	0x3c390ed7	0.011295042
57	0xba22ddb7	-0.00062128477
58	0x3ce8abed	0.028402293
59	0xbceb168a	-0.02869727
60	0x3cb5a1c3	0.02217186
61	0xbbc98585	-0.00614995
62	0x3cd97530	0.026545137
63	0x3b482be8	0.0030543748
64	0x3ce7f302	0.028314117
65	0x3cac8104	0.021057613
66	0x3d747cc0	0.059689283
67	0x3b4b97f0	0.0031065904
68	0x3bcf1235	0.006319309
69	0x3baea81b	0.0053300983
70	0x3d7549fa	0.059885003
71	0x3d09e072	0.033661313
72	0x3d71ea72	0.059061475
73	0x3bd81370	0.006594114
74	0xbc1277c7	-0.00893969
75	0xbba1c3d5	-0.004936675
76	0xbb8fd4e8	-0.004389394
77	0x3d185c3a	0.03719733
78	0x3d0bac22	0.034099706
79	0x3d2bf205	0.041978855
80	0xbc5eb867	-0.01359377
81	0xbca6d780	-0.02036643
82	0x3c9b3b65	0.01894922
83	0xbc6c8473	-0.014435875
84	0x3cb1918e	0.021675851
85	0xbc0adad3	-0.008475023
86	0x3cc85235	0.024453262
87	0xbc6fe4e6	-0.014641976
88	0xbc530e98	-0.012881897
89	0x3c4d2a0a	0.01252223
90	0x3c87f25d	0.01659506
91	0x3b1808cd	0.0023198605
92	0x3d3287d7	0.04358658
93	0x3d7c6a5c	0.06162487
94	0x3be7d163	0.0070745214
95	0x3bb60156	0.0055543585
96	0x3d4bbd39	0.049741004
97	0x3bc534e7	0.0060182693
98	0x3be69c60	0.0070376843
99	0xbc81faa6	-0.015866589
100	0x3bd4b0f3	0.0064908206
101	0x3d3c19c5	0.045923013
102	0x3d05f832	0.0327074
103	0x3c830484	0.015993364
104	0x3d2a8c76	0.04163786
105	0x3ca110f3	0.019661402
106	0x3c815456	0.015787285
107	0x3c41057f	0.0117810955
108	0xba1a8c98	-0.0005895584
109	0xbbe15bd6	-0.006877403
110	0x3d40f1dc	0.047105655
111	0x3bdd09a5	0.0067455345
112	0x3c345145	0.011005704
113	0xbd2ca0d0	-0.04214555
114	0xbd0b17f7	-0.0339584
115	0xbcbcbd4b	-0.02303948
116	0x398445ea	0.00025229092
117	0xbd52dcba	-0.051480033
118	0xbca98dcd	-0.020697499
119	0xbc6530cd	-0.013988686
120	0x3c4f8ca8	0.012667812
121	0x396ae25d	0.00022400306
122	0x3ba72a16	0.0051014526
123	0xbcf515e1	-0.02991766
124	0xbd0b4a17	-0.034006204
125	0xbd14d888	-0.036339313
126	0xbca10888	-0.019657388
127	0xbcd3d60d	-0.025858903
128	0x3d2de777	0.04245707
129	0x3c86b06d	0.016441548
130	0x3d4fdfc3	0.050750505
131	0x3d1c6225	0.038179535
132	0x3bf9b5fe	0.007620572
133	0x3d83e0da	0.064393714
134	0x3d1305fb	0.035894375
135	0x3ccbe00a	0.024887104
136	0xbc20db67	-0.009817935
137	0xbc867384	-0.016412504
138	0x3c81d769	0.015849786
139	0xb8e22d9e	-0.00010785017
140	0x3c63cf45	0.013904397
141	0xbcf01a4a	-0.02930941
142	0x3cd6922a	0.026192743
143	0xbd3e5598	-0.046468347
144	0xbce72a14	-0.028218307
145	0xbc937fdf	-0.01800531
146	0x3c1a9e80	0.009437203
147	0x3d258cf1	0.040417615
148	0x3d525aec	0.05135624
149	0xbcb01400	-0.021493912
150	0x3c22efcf	0.00994487
151	0xbc90b1b6	-0.017662864
152	0xbc69cf10	-0.014270559
153	0xbd20abb7	-0.03922626
154	0x3c9bbc97	0.019010825
155	0xbcfc2a0c	-0.030781768
156	0x3cc1d9c3	0.023663407
157	0x3ccb9fb0	0.024856418
158	0x3d0a9109	0.033829723
159	0x3c0be145	0.008537595
160	0x3d87684b	0.06611689
161	0x3d1cf7fc	0.038322434
162	0x3d0392b5	0.032122333
163	0xbbb99d80	-0.0056645274
164	0x3d18dd91	0.037320677
165	0x3c4eb61b	0.0126166595
166	0xbb023b68	-0.0019871835
167	0x3d2e4d8c	0.042554423
168	0x3c0274f7	0.007962457
169	0xbce022b1	-0.027360292
170	0xbc6b5754	-0.014364082
171	0xbcc06a72	-0.023488257
172	0x3bf32408	0.0074200667
173	0xbc6e943f	-0.014561712
174	0xbc8c9f13	-0.017165696
175	0x3c17952a	0.009251872
176	0xbc01a336	-0.007912448
177	0x3cbf019d	0.023316199
178	0x3d04a607	0.0323849
179	0xbd09f2af	-0.033678707
180	0x3b42db44	0.0029732743
181	0x3c7d2196	0.015449902
182	0x3c22d5a3	0.00993863
183	0xbac5b319	-0.0015083282
184	0x3d003d85	0.03130867
185	0x3d0abda0	0.033872247
186	0x3ce717e4	0.028209634
187	0x3c1f0993	0.0097068725
188	0x3be0b657	0.006857674
189	0x3c2036c9	0.009778687
190	0xbb848ff1	-0.0040454795
191	0xbc38ab4a	-0.011271307
192	0x3d1ed6d5	0.0387791
193	0x3d53ab72	0.051677175
194	0x3c9b8c79	0.018987881
195	0xbb1e80fc	-0.0024185767
196	0x3c1acc47	0.009448118
197	0xbc9598c9	-0.01826133
198	0x3c9ad1c2	0.018898848
199	0x3c05b3e5	0.008160566
200	0xbd16ef2f	-0.036849197
201	0xbc61d729	-0.013784208
202	0x3d37667f	0.044775482
203	0x3ce46928	0.027882174
204	0x3c487189	0.0122341
205	0xbc1d3723	-0.009595665
206	0xbc805d6a	-0.015669543
207	0xbcb43a93	-0.022000587
208	0xb952e6d9	-0.00020113158
209	0x3cb880d1	0.022522362
210	0x3d2167ce	0.039405636
211	0x3d1c2143	0.03811766
212	0xbc4fefff	-0.012691497
213	0xbb1e86ca	-0.0024189227
214	0x3b5dc0e8	0.0033836905
215	0x3d0bf767	0.034171488
216	0x3b3f24c9	0.0029166213
217	0xbc924caa	-0.017858822
218	0x3b84f06e	0.0040569818
219	0xbcd55487	-0.026041282
220	0xbcd9e25a	-0.02659719
221	0x3d05b81e	0.03264629
222	0xbc0ca37f	-0.008583902
223	0xbc0d8c2b	-0.008639376
224	0xbc929cbe	-0.017897006
225	0x3cffc34f	0.03122106
226	0x3d4901db	0.049074035
227	0x3c8ba700	0.017047405
228	0xbd1c401f	-0.03814709
229	0xbd2a93e2	-0.04164494
230	0xbd072a5c	-0.03299938
231	0x3ce93567	0.028467847
232	0x3cbbb67e	0.022914167
233	0x3d060a7c	0.032724842
234	0x3cd23099	0.025657939
235	0x3cb86064	0.0225069
236	0x3c613a0f	0.013746752
237	0xbc7ea272	-0.01554166
238	0xbc11b880	-0.008894086
239	0xbc540a87	-0.012941963
240	0x3cf84f91	0.030311378
241	0xbc102ca7	-0.008799708
242	0xbc861259	-0.01636617
243	0xbd280042	-0.04101587
244	0xbcdba3cf	-0.026811508
245	0xbd46965d	-0.04848324
246	0xbd690ecb	-0.056898873
247	0xbc952224	-0.018204756
248	0xbcf93d7e	-0.03042483
249	0x3c8aa6a0	0.016925156
250	0xbc317167	-0.01083026
251	0xbd0696db	-0.03285871
252	0xbbf6ce1f	-0.007531896
253	0xbbf37763	-0.0074300035
254	0x3c194c8e	0.009356631
255	0xbd19be57	-0.037535038

fc1.bias f4 [100]
0	0x3cbd7851	0.02312866
1	0x3d4bdd9c	0.04977189
2	0x3cef86f8	0.029239163
3	0xbc4b74d7	-0.0124179935
4	0xbc4dbcb0	-0.012557194
5	0x3c87737c	0.01653456
6	0xbd16e373	-0.036838006
7	0x3d4cf15e	0.050034873
8	0x3c5a165e	0.013310997
9	0x3b909fcd	0.004413581
10	0x3c112646	0.008859223
11	0x3b346261	0.0027524459
12	0x3ce7ca6b	0.028294763
13	0x3d1740ed	0.036927152
14	0x3d5677cb	0.052360337
15	0x3d54d1df	0.05195796
16	0x3cb2ce09	0.02182676
17	0x3bd5c3fe	0.006523608
18	0x3ba2357a	0.0049502226
19	0x3ca901b1	0.02063069
20	0x3d92f8a6	0.07176332
21	0x3b8143d0	0.0039448515
22	0x3d11ee59	0.035627697
23	0x3d7f7fc4	0.062377706
24	0x3d46b431	0.048511688
25	0xbbd92b02	-0.0066274414
26	0xbca3394a	-0.019924778
27	0x3cadbed8	0.021209165
28	0x3d281778	0.041038007
29	0xbc940494	-0.01806859
30	0x3d05fde6	0.03271284
31	0xbd22b1f3	-0.039720487
32	0x3bb7aafb	0.0056050993
33	0x3ca1aaee	0.019734826
34	0x3c6d8dd2	0.014499145
35	0xbb484c46	-0.003056304
36	0xbd5346a9	-0.05158106
37	0x3d3b7c43	0.045772802
38	0x3cd52b1f	0.026021538
39	0x3d5b1ba2	0.05349315
40	0x3cdd10dd	0.02698558
41	0xbc3d09c4	-0.011537973
42	0xb8036b3c	-3.1332704e-05
43	0xbc5c6b7b	-0.01345336
44	0xbc456a79	-0.012049311
45	0x3c519f94	0.012794394
46	0x3d1f83ab	0.038943928
47	0x3d19e3e8	0.037570864
48	0x3cf42f98	0.02980785
49	0x3cbf3c7c	0.02334427
50	0xbc263b47	-0.010145969
51	0x3d193606	0.037405036
52	0x3cb9cc2f	0.02268037
53	0x3d2c884d	0.042122174
54	0xbd1a6de7	-0.037702467
55	0xbca1d025	-0.019752571
56	0xbcf7ce56	-0.030249756
57	0xbb949407	-0.004534248
58	0xbd211f5c	-0.039336547
59	0x3d5c9632	0.053854175
60	0xbcea326e	-0.0285885
61	0x3b6e6461	0.0036375748
62	0x3c3b46e3	0.011430475
63	0x3d56b736	0.052420817
64	0xbcaffb2c	-0.021482073
65	0x3d3c467a	0.04596565
66	0x3c0955f6	0.008382311
67	0x3d0b8494	0.034061983
68	0xbc94f70d	-0.01818421
69	0xbb84957b	-0.00404614
70	0x3caadffa	0.020858753
71	0x3d6600a2	0.056152947
72	0x3caab1ee	0.020836797
73	0x3d6aed32	0.057355113
74	0x3d3ddd0b	0.04635338
75	0x3d4a3210	0.04936415
76	0x3d0007f1	0.031257574
77	0x3c916bb9	0.017751561
78	0xbc1f15ea	-0.009709815
79	0xbccef237	-0.025261981
80	0x3dae619d	0.08514712
81	0x3d86698c	0.065631
82	0x3cd16eaa	0.025565464
83	0x3d2c27b0	0.042030036
84	0xbcf6c6dd	-0.030124122
85	0xbcce9418	-0.025217101
86	0x3d08976f	0.033347543
87	0x3cdfc748	0.027316704
88	0x3d4f9e28	0.05068794
89	0x3b42bb04	0.002971352
90	0xbd0a9dd4	-0.033841923
91	0xbcb9e4fb	-0.022692194
92	0x3b9a3069	0.004705478
93	0xbce685cc	-0.028139971
94	0x3d0589fc	0.032602295
95	0x3d06db85	0.032924194
96	0x3d43d71f	0.047812577
97	0x3c67c6a7	0.0141464835
98	0x3d15988f	0.036522444
99	0xbc853be1	-0.016263904

fc2.weight f4 [10, 100]
0	0x3cae52a9	0.02127965
1	0xbde4d781	-0.111739166
2	0x3da638ac	0.08116278
3	0x3df885ff	0.12134933
4	0xbd52f900	-0.051506996
5	0x3d84ce2e	0.06484638
6	0x3d5cd485	0.053913612
7	0xbcd4a840	-0.025959134
8	0xbddf3e70	-0.10900581
9	0x3dd704a4	0.10498932
10	0x3d910652	0.07081284
11	0xbda038d1	-0.07823337
12	0xbe15fed9	-0.14647998
13	0x3d9e74d4	0.07737127
14	0xbc12964a	-0.0089469645
15	0x3d52c003	0.051452648
16	0x3e112e3c	0.14177793
17	0xbb38928b	-0.0028163518
18	0xbd35a5e6	-0.044347666
19	0xbe36385f	-0.17794941
20	0x3dcfe386	0.101508185
21	0xbdf7404b	-0.1207281
22	0xbda671a0	-0.08127141
23	0xbe0b6f75	-0.13616736
24	0xbd82f78e	-0.063948736
25	0xbbc22b5e	-0.00592558
26	0xbd987f43	-0.07446148
27	0x3d0adaf6	0.033900224
28	0x3d32206f	0.043487962
29	0x3dc818a4	0.09770325
30	0xbd8856b1	-0.0665716
31	0xbdb9b6a5	-0.0906804
32	0xbac9bd5b	-0.0015391515
33	0xbda7f91f	-0.08201813
34	0x3ca94617	0.020663304
35	0x3e0e97cc	0.13925093
36	0x3db628f5	0.08894531
37	0xbd679f21	-0.05654824
38	0x3cf63a31	0.030057045
39	0x3d78feb3	0.060789775
40	0x3dee9a2b	0.11650499
41	0xbde2cfa9	-0.11074764
42	0x3e0cb786	0.13741884
43	0x3de3d44e	0.11124478
44	0x3db3c55b	0.08777877
45	0xba117b27	-0.0005549662
46	0x3dc68bb1	0.09694613
47	0xbd66a102	-0.056305893
48	0x3a780d6d	0.000946245
49	0xbc1e6c40	-0.0096693635
50	0xbd2d6f2f	-0.04234236
51	0xbe1ca7f9	-0.15298451
52	0xbe14dd56	-0.14537558
53	0xbd15037f	-0.036380287
54	0xbc09c944	-0.008409802
55	0x3e07772f	0.13229059
56	0x3d6f49fa	0.05842016
57	0xbdd0a08e	-0.101868734
58	0xbd8ae463	-0.067818426
59	0x3da28493	0.07935443
60	0x3ccf77a1	0.025325598
61	0x3baf38f3	0.005347365
62	0xbe25b14b	-0.16180913
63	0xbe032ee1	-0.12810852
64	0x3e09205e	0.13391253
65	0xbd1bdd70	-0.038052976
66	0x3d7de89d	0.061989415
67	0x3ce99895	0.02851514
68	0xbe080ab5	-0.13285334
69	0xbe192ac1	-0.14957716
70	0x3dfbcfd0	0.122954965
71	0xbdb4a736	-0.088209555
72	0xbd2cdd8d	-0.042203475
73	0x3d867158	0.06564587
74	0xbe10a7e0	-0.14126539
75	0xbbe07813	-0.0068502515
76	0x3dd40277	0.10352033
77	0xbdc83094	-0.097748905
78	0xbceb3b53	-0.028714811
79	0x3dc63c58	0.096794784
80	0xbd9da076	-0.07696621
81	0xbd82a533	-0.063791655
82	0x3d9ca5a7	0.07648783
83	0xbde12cc7	-0.10994869
84	0x3c5ccd45	0.013476674
85	0xbd34ff9a	-0.044189073
86	0xbe2aff2b	-0.16698901
87	0xbe0f3325	-0.13984354
88	0x3d602052	0.054718323
89	0x3e18558b	0.14876382
90	0xbde2fc4c	-0.11083278
91	0x3ddfc156	0.10925548
92	0xbe080ec2	-0.1328688
93	0xbd39a523	-0.045323502
94	0xbd8031ab	-0.062594734
95	0xbbbca06b	-0.005756428
96	0x3d609fe8	0.05484
97	0x3d2dffb5	0.04248019
98	0x3da59b37	0.080862455
99	0xbda05c27	-0.07830077
100	0xbe1d4c33	-0.15361099
101	0xbe1d97e1	-0.15389968
102	0xbbcd82ca	-0.006271695
103	0xbdfa5ea6	-0.12225084
104	0xbdfbe7de	-0.123000845
105	0x3d9be466	0.07611923
106	0xbdb2ab59	-0.08724088
107	0x3e011f02	0.12609485
108	0x3d915133	0.07095566
109	0xbd8d4d25	-0.0689948
110	0x3e305ed2	0.17223671
111	0x3e158eb0	0.14605212
112	0x3c880f4e	0.01660886
113	0xbdbe1b0e	-0.09282504
114	0xbdd5dbc9	-0.10442311
115	0x3d3c2d23	0.045941483
116	0xbd9c9a52	-0.07646622
117	0x3dbcd11b	0.09219571
118	0xbd99fc91	-0.07518876
119	0xbdfa612b	-0.122255646
120	0x3c9fe0c4	0.019516356
121	0xbe09ad2e	-0.13444969
122	0xbdd20eef	-0.102567546
123	0x3d902101	0.07037545
124	0x3e0babd1	0.13639762
125	0xbd8a1d03	-0.06743815
126	0xbc0ba36f	-0.008522852
127	0x3dc31f96	0.09527509
128	0xbdc1eaf4	-0.09468642
129	0xbc1ffab5	-0.009764363
130	0xbe218920	-0.15774965
131	0x3af0813c	0.0018349062
132	0xbdb6958c	-0.089152426
133	0x3cd4497f	0.025913952
134	0xbd9d78f1	-0.07689083
135	0xbd110e7d	-0.035414208
136	0xbdf45110	-0.11929524
137	0x3d9d7117	0.07687586
138	0x3daf635c	0.08563873
139	0x3e0348a9	0.12820686
140	0xbd1ff318	-0.03905019
141	0xbd24690d	-0.040139247
142	0x3ca89744	0.020579942
143	0xbe2ae094	-0.16687232
144	0xbdbc3af1	-0.0919093
145	0x3df3033b	0.118658505
146	0xbb1a6f95	-0.0023565043
147	0xbd725c00	-0.05916977
148	0xbdc5bf6d	-0.09655652
149	0x3df2d837	0.11857646
150	0x3e1a32b0	0.15058398
151	0xbdb01c36	-0.08599131
152	0x3dc431b9	0.09579796
153	0x3e19976d	0.1499917
154	0xbd82fd8c	-0.063960165
155	0xbdedd1cd	-0.11612282
156	0xbe0a5267	-0.13507996
157	0x3c719447	0.014744825
158	0x3d7651a0	0.060136437
159	0xbdf82044	-0.12115529
160	0xbdc0d6d0	-0.09415972
161	0xbe20ac36	-0.15690693
162	0xba22bd48	-0.00062080147
163	0x3dd8ede2	0.105922475
164	0xbe160886	-0.14651689
165	0x3c9bf519	0.01903777
166	0x3d157425	0.036487717
167	0xbd5cbe9b	-0.053892713
168	0x3ddb8c82	0.10720159
169	0xbd0d3dce	-0.03448277
170	0xbd8eec30	-0.06978643
171	0xbdce196f	-0.10063445
172	0xbe200ec6	-0.15630636
173	0x3ce15da7	0.027510477
174	0x3cbac1d7	0.022797508
175	0x3df36ade	0.11885618
176	0xbc7e5ce9	-0.015525081
177	0x3d5a5a2f	0.053308662
178	0xbe093bbe	-0.13401696
179	0xbcaca16c	-0.021073066
180	0xbdbfb5fd	-0.093608834
181	0x3da194f1	0.078897364
182	0xbe06ca09	-0.13163008
183	0x3e1ebd88	0.15501988
184	0xbd8cafc0	-0.06869459
185	0xbdc59b74	-0.09648791
186	0x3dd76683	0.105175994
187	0x3e0686eb	0.13137405
188	0xbc8f7459	-0.017511534
189	0x3bd734e4	0.0065675844
190	0x3da835e4	0.08213404
191	0xbc0070d5	-0.007839401
192	0xbe006dce	-0.12541887
193	0xbdf73664	-0.12070921
194	0x3e19153c	0.14949507
195	0x3d9600a7	0.07324343
196	0xbe21b9e6	-0.15793571
197	0x3dedd22c	0.11612353
198	0xbde7c13f	-0.11316156
199	0xbe09deaf	-0.13463853
200	0x3d92163a	0.07133146
201	0xbcf33f49	-0.029693263
202	0x3da85cbe	0.08220814
203	0x3ce90750	0.02844587
204	0x3d8a5e07	0.067562155
205	0x3df48567	0.11939507
206	0xbda5f621	-0.08103586
207	0xbcb63495	-0.02224187
208	0xbe194ef9	-0.14971532
209	0x3dc4b20a	0.09604271
210	0xbe00ce2b	-0.12578647
211	0x3daeef8e	0.08541785
212	0xbe1afa1a	-0.15134469
213	0x3e0a6708	0.13515866
214	0x3d0f731b	0.035021883
215	0xbe0c1be9	-0.13682522
216	0xbe187cc1	-0.1489134
217	0x3d30bf31	0.043151084
218	0xbd1b260d	-0.037878085
219	0x3bec9fcc	0.0072211977
220	0x3de9b201	0.11410905
221	0xbe07c90c	-0.13260287
222	0xbd5fbe34	-0.05462475
223	0xbe3c114c	-0.18365973
224	0xbe418d41	-0.1890154
225	0xbe11455b	-0.14186613
226	0x3cf5d3f3	0.030008292
227	0xbe1fce41	-0.15606023
228	0x3d6743b4	0.05646105
229	0xbdffa91a	-0.124834254
230	0xbd90092d	-0.07033
231	0x3e131f07	0.14367305
232	0xbdec070b	-0.11524781
233	0xbe175614	-0.1477893
234	0x3d1274b5	0.03575583
235	0xbd1c317b	-0.038133126
236	0x3ce638c3	0.028103238
237	0xbd08f0ee	-0.033432893
238	0x3df7b127	0.12094336
239	0x3dea12bf	0.11429357
240	0x3d8716e3	0.06596162
241	0xbdef8670	-0.11695564
242	0xbdcf8f03	-0.10134699
243	0x3d3d9977	0.046288934
244	0xbd8c4dd3	-0.06850781
245	0xbde8c39d	-0.11365435
246	0x3c49ffc9	0.01232905
247	0x3d0fc597	0.035100546
248	0x3dadd8f7	0.084886484
249	0x3cd56e19	0.026053475
250	0x3e0814a6	0.13289127
251	0xbdaaac26	-0.08333616
252	0x3def9f10	0.11700261
253	0x3e091e31	0.13390423
254	0x3dd8a539	0.10578389
255	0xbd744270	-0.059633672

fc2.bias f4 [10]
0	0xbd1a586d	-0.037681986
1	0x3d84b4c1	0.064797886
2	0x3d5bf555	0.053700764
3	0x3d28959c	0.041158304
4	0xbd8f586d	-0.06999288
5	0x3dc9f0c4	0.098603755
6	0x3d87837b	0.06616875
7	0x3d939e20	0.07207894
8	0x3ce664fb	0.028124323
9	0xbda9cbce	-0.08290826
