snn_models/n_mnist_qat_snn/784x48x48x48x48x10/model_state_dict.pkl (torch, 196059 bytes, 10 tensors)

linear_layers.0.weight f4 [48, 784]
0	0xbd338b1f	-0.043833848
1	0x3d30c77d	0.043158997
2	0x3d459fcf	0.04824811
3	0xbeaf50a2	-0.34241205
4	0xbe927aeb	-0.28609404
5	0xbd475e12	-0.048673697
6	0xbe829f68	-0.25512242
7	0x3ca3a5cd	0.01997652
8	0xbdb1ef00	-0.08688164
9	0xbe93935a	-0.28823358
10	0xbed9e55a	-0.42557794
11	0xbd8887e1	-0.06666542
12	0xbe1fdeb3	-0.15612297
13	0xbdf32085	-0.11871437
14	0xbe753e41	-0.23949529
15	0xbefbf38c	-0.4920925
16	0xbe7ac4ba	-0.24489108
17	0xbe1211c6	-0.14264593
18	0xbe483c1f	-0.19554184
19	0xbdbba2ce	-0.09161912
20	0xbea13e77	-0.3149297
21	0xbe6874ca	-0.22700801
22	0xbe17e903	-0.1483498
23	0xbe96f9a1	-0.29487327
24	0xbeac60b2	-0.33667523
25	0x3d25b437	0.04045507
26	0xbe46870b	-0.19387452
27	0xbe398060	-0.18115377
28	0xbd33c282	-0.04388667
29	0xbe1d8038	-0.15380943
30	0xbd987d18	-0.07445735
31	0xbe8708d5	-0.26373926
32	0xbe434791	-0.19070269
33	0xbe5cd368	-0.2156502
34	0xbe6ac25b	-0.22925703
35	0xbec37613	-0.3817602
36	0xbec09220	-0.37611485
37	0xbdb7c39e	-0.08972858
38	0x3cb2d2dd	0.021829063
39	0xbe670947	-0.22562133
40	0xbe226e2e	-0.15862343
41	0xbe82665d	-0.25468722
42	0xbd43fce7	-0.04784861
43	0xbe4fd7f9	-0.20297231
44	0xbcc76cf6	-0.024343949
45	0xbd857c7d	-0.06517885
46	0xbdca1260	-0.09866786
47	0xbdb21ad9	-0.08696527
48	0x3c8564fa	0.016283501
49	0xbc631659	-0.013860309
50	0xbe7dbece	-0.24779817
51	0xbe52c532	-0.20583037
52	0xbd8bb962	-0.06822468
53	0xbe9ded0b	-0.30844912
54	0xbe391f1b	-0.18078272
55	0xbe8ab744	-0.27092946
56	0xbcb0f74c	-0.021602295
57	0xbec0c130	-0.3764739
58	0xbe099942	-0.1343737
59	0xbe668d52	-0.22514847
60	0xbe669de5	-0.2252117
61	0xbeb711c0	-0.3575573
62	0xbe29d832	-0.16586378
63	0xbe97125e	-0.295062
64	0xbe4d05e3	-0.20021777
65	0xbe8bcee0	-0.2730627
66	0xbef78d4f	-0.48349997
67	0xbeab9039	-0.3350847
68	0xbefac4ee	-0.4897837
69	0xbeb400bf	-0.3515682
70	0xbece00dd	-0.40235034
71	0xbe7800c3	-0.2421904
72	0xbe6ccc20	-0.23124743
73	0xbe07cc6a	-0.13261572
74	0xbe0b56d6	-0.13607344
75	0xbd854152	-0.065065995
76	0xbd8a5bce	-0.067557916
77	0xbe6cf11e	-0.23138854
78	0xbdd7e417	-0.105415516
79	0xbe1a2d8c	-0.15056437
80	0xbdf67d5f	-0.120356314
81	0xbdcb0f4f	-0.09915029
82	0x3d3718b4	0.044701293
83	0xbe517c0b	-0.20457475
84	0xbe49c6a4	-0.19704682
85	0xbe354e5c	-0.17705673
86	0xbeccbdcd	-0.39988557
87	0xbeadc723	-0.33940992
88	0xbe096f3d	-0.1342134
89	0xbe85c699	-0.2612808
90	0xbeca0b39	-0.39461687
91	0xbe9cbeb5	-0.30614248
92	0xbe8768ac	-0.26447046
93	0xbeb81bb5	-0.3595864
94	0xbe87c208	-0.26515222
95	0xbea63f48	-0.32470155
96	0xbed81247	-0.42201445
97	0xbeac4a22	-0.3365031
98	0xbeb2c3e8	-0.3491509
99	0xbe4c3520	-0.1994214
100	0xbe2ed3c4	-0.1707297
101	0xbd57a459	-0.05264697
102	0xbd2d30a9	-0.042282734
103	0xbcbe520f	-0.023232488
104	0xbd0f9fe8	-0.035064608
105	0xbe3e4c58	-0.1858381
106	0xbdbed2ab	-0.093175255
107	0xbda11da6	-0.07866983
108	0xbd9169ce	-0.07100259
109	0xbe1d8d43	-0.15385918
110	0xbe0b1ba3	-0.13584761
111	0xbe86b5b2	-0.26310498
112	0xbc89949c	-0.016794495
113	0xbcc90182	-0.024536852
114	0x3e36c691	0.17849185
115	0xbe22ed1c	-0.15910763
116	0xbe71fae4	-0.23630863
117	0xbe72bf71	-0.23705842
118	0xbe96f418	-0.29483104
119	0xbe8ca32d	-0.27468243
120	0xbe9866f4	-0.29766047
121	0xbea73042	-0.32654005
122	0xbeac83ea	-0.33694392
123	0xbebe8a70	-0.37214994
124	0xbe9ca048	-0.30591035
125	0xbec6d676	-0.38835496
126	0xbe85c7e5	-0.2612907
127	0xbe8d992a	-0.27655917
128	0xbe1d45c6	-0.15358648
129	0xbdf36395	-0.11884228
130	0xbdb6d46d	-0.08927236
131	0xbdaefe00	-0.085445404
132	0xbddbabcf	-0.10726129
133	0xbddcb88d	-0.10777388
134	0xbdffb83c	-0.12486312
135	0xbdee83e1	-0.11646248
136	0xbd80f520	-0.06296754
137	0xbd7985ed	-0.060918737
138	0xbe8e0f91	-0.2774625
139	0xbd6ae401	-0.057346348
140	0xbda6be9f	-0.08141827
141	0xbd58b8a9	-0.05291048
142	0xbe61707d	-0.22015567
143	0xbdebbeb6	-0.115109846
144	0xbea6367a	-0.32463437
145	0xbed47577	-0.4149587
146	0xbe7be88d	-0.2460043
147	0xbea2f85d	-0.3183011
148	0xbec534df	-0.385169
149	0xbe8da655	-0.27665964
150	0xbea4d8c8	-0.3219664
151	0xbeb2e81a	-0.34942704
152	0xbeabb3b8	-0.33535552
153	0xbea603c4	-0.32424748
154	0xbe38e12c	-0.18054646
155	0xbe6c3d44	-0.23070246
156	0xbe0197f0	-0.12655616
157	0xbe17e219	-0.14832343
158	0xbd625513	-0.055256914
159	0xbdd70ae9	-0.10500128
160	0xbd94a44e	-0.07257901
161	0xbdb168f2	-0.08662595
162	0xbd72095e	-0.059090964
163	0xbdc90f12	-0.098173276
164	0xbcb57927	-0.022152497
165	0xbd52ad19	-0.05143461
166	0xbdae70fa	-0.08517642
167	0xbe812941	-0.25226787
168	0xbe1843ea	-0.14869657
169	0x3adaf38f	0.0016704666
170	0xbebb8e7a	-0.36632138
171	0xbe8a4053	-0.270022
172	0xbe79549e	-0.24348685
173	0xbeb21366	-0.34780425
174	0xbec9f400	-0.3944397
175	0xbea10cf2	-0.3145519
176	0xbe9a1384	-0.30093014
177	0xbe827447	-0.25479338
178	0xbe9ee8fb	-0.31037125
179	0xbe8302cc	-0.2558807
180	0xbe76d068	-0.24102938
181	0xbe62d218	-0.22150457
182	0xbe822c10	-0.25424242
183	0xbe5b46c1	-0.21413709
184	0xbe32effb	-0.17474358
185	0xbdbdd8e7	-0.092698865
186	0xbdcf1b5f	-0.101126425
187	0xbdd8aef0	-0.10580242
188	0xbd6a29b0	-0.057168663
189	0xbdf5527f	-0.119786255
190	0xbd869bbd	-0.065726735
191	0x3c856f46	0.01628841
192	0xbb9f13d7	-0.00485466
193	0xbdd9fd47	-0.10644012
194	0xbe28789b	-0.16452257
195	0xbe12d8b7	-0.14340483
196	0xbe3b7ef3	-0.18310146
197	0xbeac90d6	-0.3370425
198	0xbe94fa7d	-0.29097357
199	0xbe69f35a	-0.22846738
200	0xbea7692e	-0.32697433
201	0xbeafbc43	-0.3432332
202	0xbe8e3291	-0.27772954
203	0xbea6bd79	-0.3256643
204	0xbe773324	-0.24140602
205	0xbe973cbb	-0.2953852
206	0xbe8e1a59	-0.27754477
207	0xbe8b30e6	-0.27185744
208	0xbe72412d	-0.23657675
209	0xbe6aeafc	-0.22941202
210	0xbe3bf2a1	-0.18354274
211	0xbe3fa158	-0.18713892
212	0xbdd0441e	-0.10169242
213	0xbddfb582	-0.10923292
214	0xbdb0f8dc	-0.08641216
215	0xbd1f7771	-0.038932268
216	0xbdee855e	-0.116465315
217	0xbdced188	-0.10098559
218	0xbd42a301	-0.047518734
219	0xbdd0b196	-0.10190122
220	0xbdd2afbe	-0.102874264
221	0xbdbbf8fb	-0.09178349
222	0x3bbc977a	0.005755362
223	0xbe22b240	-0.1588831
224	0xbebc4b0f	-0.36776015
225	0xbede81b5	-0.43458334
226	0xbeb5f56c	-0.35538805
227	0xbeb28b0e	-0.34871715
228	0xbe8a1331	-0.26967767
229	0xbe9187ca	-0.2842391
230	0xbe7f7816	-0.24948153
231	0xbe8e614e	-0.27808613
232	0xbe493f63	-0.19653086
233	0xbe53acf3	-0.20671444
234	0xbe59fce9	-0.21287884
235	0xbe5ffd81	-0.21874048
236	0xbe27975f	-0.16366337
237	0xbe4f251c	-0.20229
238	0xbe69100e	-0.2276003
239	0xbe6e5f37	-0.23278509
240	0xbe13756b	-0.1440026
241	0xbe2a1529	-0.16609634
242	0xbd8d4dee	-0.068996295
243	0xbd8983e0	-0.06714606
244	0xbd9b8e03	-0.07595446
245	0xbde52285	-0.11188225
246	0xbc74076d	-0.014894349
247	0xbd829cc8	-0.0637756
248	0xbe0017ad	-0.12509032
249	0xbdfd2abe	-0.12361668
250	0xbe79e5ed	-0.24404116
251	0xbe22139d	-0.15827794
252	0xbe678e20	-0.2261281
253	0xbe839d92	-0.25706154
254	0xbeeadfed	-0.45873967
255	0xbeb5413f	-0.3540134

linear_layers.0.bias f4 [48]
0	0xbedd7057	-0.4324977
1	0x3f62fd78	0.8866801
2	0xbe9a36d5	-0.3011996
3	0xbf2ef550	-0.6834307
4	0xbf192b8a	-0.5983206
5	0x3e5fbff5	0.2185057
6	0xbf21d96a	-0.6322237
7	0xbf6b0717	-0.91807693
8	0xbf980401	-1.1876222
9	0xbedcbf26	-0.43114585
10	0xbf9ac2d4	-1.2090707
11	0x3e96539b	0.2936066
12	0xbe3867e8	-0.18008387
13	0xbe12e160	-0.14343786
14	0xbe6e8479	-0.23292722
15	0xbf164e1b	-0.5871293
16	0xbe842676	-0.25810593
17	0x3f868e15	1.051211
18	0xbf083d03	-0.53218096
19	0xbed32f5c	-0.4124707
20	0x3f090117	0.5351729
21	0xbea8a445	-0.32937828
22	0xbf307b34	-0.68937993
23	0xbebfdbe5	-0.37472454
24	0xbeca6ed2	-0.39537674
25	0xbf179ef0	-0.59226894
26	0xbf887a7a	-1.0662377
27	0x3f58c5ab	0.8467662
28	0x3fabac8d	1.3412033
29	0x3da3aa1a	0.07991429
30	0xbf399865	-0.7249816
31	0xbe82c0a7	-0.25537607
32	0xbecffd34	-0.40622866
33	0x3f23471c	0.6378038
34	0x3ef9587f	0.4870033
35	0xbed0b5eb	-0.40763792
36	0xbf104ebf	-0.56370157
37	0x3eaa42d7	0.3325412
38	0xbec2eaf8	-0.38069892
39	0xbefc2435	-0.49246374
40	0xbf1488d0	-0.5802126
41	0xbf20d2bc	-0.62821555
42	0x3eb05323	0.34438428
43	0xbf31a845	-0.69397384
44	0xbf75f6f3	-0.9607994
45	0xbf453c8f	-0.7704553
46	0xbf7fcb39	-0.9991947
47	0xbf1db66f	-0.61606497

linear_layers.1.weight f4 [48, 48]
0	0x3da6f457	0.08152073
1	0xbfd4e428	-1.6632128
2	0xc00d2f7c	-2.2060232
3	0xbd69feb7	-0.05712768
4	0xbdf2a007	-0.11846929
5	0xbc352446	-0.011056012
6	0x3d471cef	0.048611578
7	0x3d59bd4e	0.05315905
8	0xbe040271	-0.12891556
9	0x3d9c3b0a	0.07628448
10	0xbe16085c	-0.14651626
11	0xbfd29ab2	-1.6453459
12	0x3d1d318b	0.038377326
13	0x3dec0e40	0.115261555
14	0xbd88e034	-0.06683388
15	0x3debf39b	0.115210734
16	0x3be7977e	0.00706762
17	0xbfbd6b62	-1.4798396
18	0x3daac444	0.08338216
19	0x3cc29b37	0.023755653
20	0xbfcc67ae	-1.596914
21	0x3dd89163	0.10574605
22	0x3d837588	0.06418902
23	0xbd8a8d60	-0.067652464
24	0x3d8dee90	0.06930268
25	0x3d6ee2e5	0.058321852
26	0x3d349b25	0.04409327
27	0xbfcc2da7	-1.5951432
28	0xc022892a	-2.5396218
29	0xbfb02adf	-1.3763083
30	0x3d578b86	0.052623294
31	0xbd8fb1b8	-0.07016319
32	0xbd8106dc	-0.063001364
33	0xbfc5b64e	-1.544626
34	0xbfe3b72b	-1.7790273
35	0xbca0a9ec	-0.019612275
36	0x3daf9b3d	0.08574531
37	0xbf86017f	-1.0469207
38	0x3e09dc18	0.13462865
39	0x3e0a745c	0.1352095
40	0xbd84bb2a	-0.06481011
41	0x3d11f112	0.035630293
42	0xbf7bdb97	-0.9838194
43	0xbd8bbe30	-0.06823385
44	0xbdd00ee2	-0.10159089
45	0xbddb564c	-0.10709819
46	0x3d27ec5a	0.040996887
47	0xbb517d87	-0.003196569
48	0x3e16519a	0.14679566
49	0xbf92576e	-1.1432931
50	0xc019283d	-2.393081
51	0x3cff13d0	0.031137377
52	0xbe02c284	-0.12769514
53	0x3e325afb	0.17417519
54	0xbc858ba9	-0.016301947
55	0x3db1b0e5	0.08676318
56	0xbdb49e57	-0.088192634
57	0x3db3ccef	0.08779322
58	0xbd66f507	-0.05638602
59	0xc0236dc1	-2.5535738
60	0xbcfa0f00	-0.03052473
61	0xbd9f1bf4	-0.077690035
62	0x3d887982	0.06663801
63	0x3e0e1e98	0.13878858
64	0xbd2138c9	-0.039360795
65	0xbfbba75e	-1.4660451
66	0x3d7a75bd	0.06114744
67	0x3e0a2302	0.13489917
68	0xbffb173a	-1.9616463
69	0xbc8ebe3e	-0.017424699
70	0x3d37763b	0.044790488
71	0xbd23058e	-0.03980022
72	0x3dc5c1a5	0.096560754
73	0x3e0a8cb2	0.13530234
74	0xbd750708	-0.05982116
75	0xbfa02ae7	-1.2513093
76	0xc038db40	-2.888382
77	0xbfc603cd	-1.546991
78	0xbe028ac6	-0.1274825
79	0x3ce83bf1	0.028348895
80	0x3e0d538e	0.13801405
81	0xc0089fee	-2.1347613
82	0xbff6b708	-1.9274607
83	0x3dff42eb	0.124639355
84	0x3c5b01ff	0.013367175
85	0xbf97fd24	-1.1874127
86	0x3d8452c7	0.06461101
87	0xbd82a5e2	-0.06379296
88	0x3de1c134	0.11023179
89	0x3d590c2f	0.052990135
90	0xbf37c7df	-0.71789354
91	0x3dbd05f9	0.09229655
92	0xbddbd146	-0.10733275
93	0xbde46cba	-0.111535504
94	0x3bf0955f	0.007342025
95	0x3e14a2ba	0.145152
96	0x3dfda937	0.12385791
97	0x3f6a6769	0.9156404
98	0xbee75a08	-0.45185876
99	0x3e07ac0f	0.13249229
100	0xbdc02dad	-0.09383712
101	0xbe262067	-0.16223298
102	0x3d842014	0.06451431
103	0x3dc8f369	0.09812052
104	0xbd396d7b	-0.045270424
105	0x3d4bbf7f	0.04974317
106	0xbe018159	-0.12646998
107	0x3e52d79f	0.20590065
108	0x3cbc5834	0.022991277
109	0x3c847652	0.0161697
110	0x3d1fb1e3	0.038988005
111	0x3de40625	0.111339845
112	0xbc566237	-0.01308494
113	0x3e00814c	0.12549323
114	0xbac940d6	-0.0015354406
115	0xbdc68dd6	-0.09695022
116	0x3e42762d	0.18990393
117	0xbdcc6d79	-0.09981818
118	0x3d1d4855	0.03839906
119	0x3df8a704	0.12141231
120	0xbdbd5cca	-0.09246214
121	0xbd882838	-0.06648296
122	0xbc9680a7	-0.018371893
123	0xbf0f8506	-0.5606235
124	0x3ea9456b	0.33060774
125	0x3ec192ed	0.37807408
126	0xbe0f595d	-0.13998933
127	0xbcb85703	-0.022502428
128	0x3c90149c	0.017587952
129	0xbf41eb31	-0.757495
130	0xbdc57dc3	-0.09643128
131	0x3db8d27b	0.09024521
132	0x3dcadf96	0.09905927
133	0xbf367c0b	-0.71283025
134	0xbdf2dc42	-0.11858417
135	0x3e076e10	0.1322558
136	0xbe18e477	-0.14930902
137	0x3da4dddc	0.08050129
138	0xbf524992	-0.8214351
139	0xbd694a7a	-0.056955792
140	0x3e1a3bc0	0.15061855
141	0xbcb11f4d	-0.02162137
142	0xbd5a3082	-0.053268917
143	0xbe115032	-0.14190748
144	0xbd5f2501	-0.05447865
145	0xbfdc9e05	-1.7235724
146	0xc00ee948	-2.2329884
147	0x3dcdf5ff	0.10056686
148	0xbd46d865	-0.048546214
149	0xbe4191cf	-0.18903278
150	0x3d7040f5	0.058655698
151	0x3da50fc3	0.08059647
152	0x3ce1755d	0.027521783
153	0x3d9f1a06	0.077686355
154	0xbd89535e	-0.06705354
155	0xbfc2a448	-1.5206385
156	0x3cf9c5d5	0.030489841
157	0x3d52797d	0.05138539
158	0x3d8dd00e	0.06924449
159	0x3b8ec8e5	0.0043574446
160	0xbd45685f	-0.04819524
161	0xbfc3725f	-1.5269278
162	0x3daf3662	0.085552946
163	0xbd6fef2c	-0.0585777
164	0xbf8e8865	-1.1135374
165	0xbd62f9e6	-0.055414103
166	0x3dc09d6b	0.09405025
167	0x3c6bf921	0.014402659
168	0x3c041f34	0.00806408
169	0x3d5bd8be	0.0536735
170	0x3dd58ac3	0.10426857
171	0xc014c156	-2.3243003
172	0xc044cdce	-3.0750613
173	0xbfb34770	-1.4006176
174	0xbd72efcb	-0.059310716
175	0x3a2bbb93	0.0006551083
176	0x3e0a7121	0.13519718
177	0xbfc76ef2	-1.5580733
178	0xc02e1467	-2.7199953
179	0xbe04ec5e	-0.12980792
180	0xbca7e02a	-0.020492632
181	0xbf2a79a0	-0.66591835
182	0x3def0c26	0.11672239
183	0xbdf05115	-0.11734215
184	0xbd6296f9	-0.05531976
185	0xbcf1cdd5	-0.029517094
186	0xbf4a844d	-0.79108125
187	0xbd432e1d	-0.0476514
188	0x3dba1785	0.09086517
189	0x3d823f57	0.06359737
190	0xbe19fbd2	-0.15037468
191	0x3de2961d	0.11063788
192	0x3d95d11e	0.073152766
193	0xbf1e6929	-0.6187921
194	0x3e579499	0.2105278
195	0x3da853f9	0.082191415
196	0xbd97d223	-0.07413127
197	0xbebde51d	-0.37088862
198	0x3e08b192	0.13348988
199	0x3e0d1d4e	0.1378071
200	0x3d50a355	0.050937016
201	0x3d5eeee9	0.05442706
202	0x3da691ee	0.08133303
203	0xbe6a11cc	-0.22858351
204	0xbdca6eb1	-0.09884394
205	0x3c415a9e	0.01180139
206	0x3dc071a2	0.09396674
207	0xb813c6f6	-3.5232828e-05
208	0x3d478119	0.0487071
209	0xbf1120eb	-0.56690854
210	0xbbcba5f9	-0.006214854
211	0x3e06f10b	0.13177888
212	0xbf526a38	-0.82193327
213	0xbc8d74c6	-0.017267596
214	0xbdf4cda4	-0.11953285
215	0x3d8ed7e1	0.069747694
216	0xbb1f4fd3	-0.0024309054
217	0x3ddd963a	0.10819669
218	0xbcf97074	-0.03044913
219	0xbf53f8fd	-0.828018
220	0xbf2eee35	-0.68332225
221	0xbf2771e9	-0.6540819
222	0xbdfa7118	-0.12228602
223	0x3d81c3d9	0.06336183
224	0xbdbd349d	-0.09238551
225	0xbcd34bcc	-0.025792979
226	0xbf17aadd	-0.5924509
227	0xbd83ebc6	-0.064414546
228	0x3d8a7947	0.06761413
229	0xbee7c8ab	-0.45270285
230	0x3d217963	0.039422404
231	0x3df1a978	0.11799902
232	0xbb0736e5	-0.0020632085
233	0xbcdda2c8	-0.02705516
234	0xbef3c86a	-0.4761384
235	0xbd54fd33	-0.051999282
236	0xbe0471bf	-0.12934016
237	0xbde69bd8	-0.112601936
238	0xbd6ceaf4	-0.057841256
239	0xbe166326	-0.1468626
240	0xbdfc9f82	-0.12335111
241	0xbfc44e4a	-1.5336392
242	0xbfc92a25	-1.5715986
243	0x3ddcbdf4	0.10778418
244	0xbd801e8e	-0.06255828
245	0x3cc22732	0.02370033
246	0x3d1719c0	0.03688979
247	0xbb6aa073	-0.0035801202
248	0xbdbee4c3	-0.093209766
249	0x3dc74bfe	0.09731291
250	0xbdce4c36	-0.1007313
251	0xc018a315	-2.3849537
252	0xbddcd672	-0.1078309
253	0xbdb81dd9	-0.08990068
254	0xbe08d990	-0.13364244
255	0x3dcfb637	0.101421766

linear_layers.1.bias f4 [48]
0	0xbfaddb88	-1.3582621
1	0xbfc9937c	-1.5748134
2	0x3d1ac15e	0.037782066
3	0xbf946808	-1.1594248
4	0xbeab2964	-0.33430016
5	0xbf9e4628	-1.236516
6	0xbfaf64dc	-1.3702655
7	0xbfd9409b	-1.6972841
8	0x3deeeebe	0.1166663
9	0xbfe7b5cf	-1.8102359
10	0x3def1ffb	0.11676022
11	0xbfb4acde	-1.4115255
12	0xbfb98139	-1.4492561
13	0xbde07021	-0.10958887
14	0xbfb48ea6	-1.4106033
15	0xbfd7e4c2	-1.6866686
16	0xbf90f9b0	-1.1326199
17	0xbecd4c36	-0.40097207
18	0xbfa9b59d	-1.3258549
19	0xbfb03397	-1.3765744
20	0xbf56037c	-0.83599067
21	0xbf815abe	-1.0105817
22	0xbe48f031	-0.19622876
23	0xbf99003f	-1.19532
24	0xbfbf3007	-1.4936532
25	0xbdae2c2c	-0.08504519
26	0xbfcfad93	-1.6224846
27	0xbf0f6b27	-0.56022877
28	0x3e980aad	0.29695645
29	0xbf51816f	-0.81838125
30	0xbfbb7e3c	-1.4647899
31	0xbf8559c4	-1.0418019
32	0xbfb76358	-1.4327192
33	0xbe7bba17	-0.24582706
34	0xbf884d4c	-1.0648589
35	0xbf9fa533	-1.247229
36	0xbfab5019	-1.3383819
37	0xbf9a7e9e	-1.206989
38	0xbeca6673	-0.39531288
39	0xbfd59f8b	-1.6689314
40	0x3db22761	0.08698917
41	0xbfc88bb5	-1.5667635
42	0xbf921218	-1.1411772
43	0xbfa6e1d2	-1.3037665
44	0x3e7e9c12	0.24864224
45	0x3e809d11	0.25119832
46	0xbfa70253	-1.3047584
47	0xbb1aea0a	-0.0023638033

linear_layers.2.weight f4 [48, 48]
0	0xbe0dd54d	-0.13850899
1	0xbdd46de6	-0.10372524
2	0xbf8bd60a	-1.0924695
3	0x3ca35042	0.01993573
4	0xbf12c9dc	-0.5733926
5	0xbd888d06	-0.06667523
6	0x3d9bbf19	0.07604808
7	0xbbe12e67	-0.0068719867
8	0xbf8245e4	-1.0177579
9	0x3dce21c7	0.10065036
10	0xbf2ededf	-0.68308824
11	0x3c8d4501	0.017244818
12	0x3dfb48a0	0.122697115
13	0xbf9ac952	-1.2092688
14	0x3e018846	0.1264964
15	0xb717ddd0	-9.051946e-06
16	0x3cd80251	0.026368292
17	0xc0033c9f	-2.050575
18	0xbe3803c1	-0.17970182
19	0xbd938de9	-0.072048016
20	0xbdfbb2f4	-0.12289992
21	0xbd07aa9c	-0.03312169
22	0xc05b0747	-3.4223192
23	0xbdc32a16	-0.09529512
24	0x3c811dea	0.015761334
25	0xc007f7b3	-2.1244934
26	0x3df48bfe	0.11940764
27	0xbebbbf91	-0.3666959
28	0xbf9eb472	-1.2398818
29	0xbd192776	-0.03739115
30	0x3deef407	0.11667638
31	0x3d8b7bbb	0.06810709
32	0xbe0d7837	-0.1381539
33	0xbf7a76a1	-0.97837263
34	0x3dff8a8a	0.12477596
35	0xbdca33d3	-0.09873166
36	0xbcaef355	-0.021356264
37	0x3da40026	0.08007841
38	0xbfaaed84	-1.3353734
39	0xbd7b0a1f	-0.06128895
40	0xbfec5a08	-1.8464975
41	0xbd971f29	-0.0737899
42	0x3d8c4f45	0.06851057
43	0xbe1361d0	-0.14392781
44	0xc01cc1fe	-2.4493403
45	0xc00c5b52	-2.1930737
46	0xbd92675e	-0.07148622
47	0xbed800d8	-0.42188144
48	0xbd9c44c7	-0.07630306
49	0xbd0bd390	-0.03413731
50	0xbf9d96b7	-1.231162
51	0xbdc9390a	-0.098253325
52	0xbf09448d	-0.53620225
53	0x3db570bd	0.08859394
54	0x3dd2f015	0.10299698
55	0xbcdbc57c	-0.026827566
56	0xbf857854	-1.0427346
57	0xbd84dc74	-0.064873606
58	0xbf5f1845	-0.8714641
59	0xbdc4b536	-0.09604876
60	0x3d8de9ad	0.06929336
61	0xbfc567d5	-1.5422312
62	0x3d3b4193	0.045716833
63	0xbc9a68ef	-0.018848864
64	0xbd5706b5	-0.05249663
65	0xbfcd8ea7	-1.6059159
66	0xbd9ed700	-0.07755852
67	0x3e031c80	0.1280384
68	0x3d196853	0.037453007
69	0x3cc82231	0.024430366
70	0xc0307cc8	-2.757616
71	0x39350265	0.00017262397
72	0xbd491b1e	-0.049098127
73	0xc01d180d	-2.454593
74	0xbb65ce42	-0.0035065566
75	0xbeee98a6	-0.46600837
76	0xbfab7b1d	-1.3396946
77	0xbd799add	-0.060938705
78	0x3b2acfee	0.0026063877
79	0x3e03c427	0.12867795
80	0x3c8ddf06	0.01731826
81	0xbf6efc30	-0.9335356
82	0x3e010695	0.12600167
83	0xbc82ee3e	-0.015982743
84	0x3db77dbb	0.08959528
85	0x3be35a7c	0.006938277
86	0xbf8c5f62	-1.0966609
87	0xbbe516ce	-0.006991244
88	0xbfdcb410	-1.7242451
89	0x3dba8657	0.091076545
90	0xbe007fb5	-0.12548716
91	0xbc7aa4e0	-0.015298098
92	0xc0070a51	-2.1100047
93	0xc01bdfe6	-2.4355407
94	0x3d94d6bf	0.07267522
95	0xbea69321	-0.32534125
96	0xbdbdc00f	-0.09265148
97	0x3c693306	0.014233356
98	0xbfc0eeb8	-1.5072851
99	0xbc5d52a8	-0.013508476
100	0xbedd886d	-0.43268147
101	0xbd84d82a	-0.064865425
102	0x3db086cf	0.08619463
103	0xbcb3b718	-0.021937892
104	0xbf8bb66c	-1.0915046
105	0xbe04b194	-0.12958366
106	0xbf8370c7	-1.0268792
107	0xbda92c12	-0.08260359
108	0x3d73fe93	0.059568953
109	0xbfc7c67b	-1.5607446
110	0x3dd6b3c6	0.10483508
111	0xbbfc951f	-0.0077082063
112	0xbd1bde61	-0.038053874
113	0xc0497e0a	-3.1483178
114	0x3d24c5eb	0.04022781
115	0xbe0a6e27	-0.13518582
116	0xbe328363	-0.17432933
117	0xbcc77106	-0.024345886
118	0xc06f9660	-3.7435532
119	0x3ded1c0b	0.115776144
120	0xbd538e2e	-0.051649265
121	0xc012ee3e	-2.2957911
122	0xbdd9a66a	-0.10627444
123	0xbe5e4fce	-0.2171013
124	0xbfcbc94a	-1.5920804
125	0xbd7db537	-0.061940398
126	0xbd9d7387	-0.07688051
127	0xbd8804a2	-0.06641509
128	0x3c669d59	0.014075601
129	0xbf9a500a	-1.2055676
130	0xbd95e71a	-0.0731947
131	0xbddbf6bd	-0.10740421
132	0xbd81bc0e	-0.06334697
133	0x3dcef6dc	0.101056784
134	0xbfd4dfba	-1.6630776
135	0x3cff7ccd	0.03118744
136	0xbff28d38	-1.8949347
137	0xbb0e38dd	-0.0021701374
138	0xbc9cbea2	-0.01913387
139	0x3d99df54	0.075132996
140	0xc01f6081	-2.4902651
141	0xc01a6cc6	-2.412889
142	0x3d64b5d9	0.055837486
143	0xbf2e4139	-0.6806827
144	0xbcf47879	-0.029842602
145	0xbd1d0535	-0.038335044
146	0xbf86758b	-1.0504621
147	0x3ce4f625	0.027949402
148	0xbeae6f01	-0.34069064
149	0xbd557c69	-0.0521206
150	0x3c53b145	0.012920682
151	0x3c75d082	0.015003325
152	0xbf837919	-1.0271331
153	0x3da38d58	0.079859436
154	0xbf88aed6	-1.0678356
155	0x3de5bfd3	0.11218228
156	0x3d424d57	0.04743704
157	0xbf3dd488	-0.7415242
158	0x3dc23fe6	0.09484844
159	0x3d4bd6b0	0.04976529
160	0x3e149ac3	0.14512162
161	0xc06b6b2e	-3.6784167
162	0xbb030120	-0.0019989684
163	0x3e148631	0.14504315
164	0xbe894dae	-0.26817077
165	0xbce9559b	-0.028483203
166	0xc0824075	-4.0703683
167	0xbdbf9e62	-0.09356381
168	0x3de84424	0.11341122
169	0xbfab3fa6	-1.3378799
170	0x3cd2490a	0.025669593
171	0xbdde82c4	-0.10864785
172	0xbfd0598a	-1.6277325
173	0xbe50beaf	-0.2038524
174	0xbb73f56c	-0.003722514
175	0xbc2a11da	-0.010380233
176	0x3db4a6f5	0.08820907
177	0xbf707835	-0.9393342
178	0x3cf02c57	0.029318018
179	0x3d6583ea	0.056034006
180	0x3dc4eaa7	0.09615069
181	0xbcf3fd6e	-0.02978393
182	0xbf95383b	-1.1657785
183	0x3df30169	0.11865503
184	0xbfcfa22a	-1.6221364
185	0x3c9a7506	0.01885463
186	0x3d8591eb	0.06521972
187	0xbd6eba26	-0.058282994
188	0xc01001e0	-2.2501144
189	0xbfe0e6a5	-1.7570387
190	0x3d4c6c38	0.049907893
191	0xbf041ba9	-0.51604706
192	0x3dd90901	0.105974205
193	0xbdf9febf	-0.12206792
194	0xbf8ac82f	-1.0842341
195	0x3db2940c	0.08719644
196	0xbef4a0a9	-0.47778824
197	0x3dd9b625	0.106304444
198	0x3c9fe9c7	0.019520653
199	0xbd265379	-0.04060695
200	0xbf5b1e42	-0.85593045
201	0xbd8558da	-0.06511088
202	0xbf28de8a	-0.6596457
203	0x3d6c1c2b	0.05764405
204	0xbd000ac5	-0.03126027
205	0xbf91f9d1	-1.1404363
206	0xbe0b9150	-0.13629651
207	0xbdc34aca	-0.09535749
208	0xbcef7ac8	-0.029233351
209	0xbfcbda72	-1.5926039
210	0xbdb94152	-0.09045662
211	0xbd6e08cb	-0.058113854
212	0xbe014be3	-0.12626605
213	0x3d8a360b	0.06748589
214	0xc03fd825	-2.9975674
215	0x3dc1010d	0.094240285
216	0x3dba0b48	0.09084183
217	0xbffc78fb	-1.972442
218	0xbc267bb5	-0.01016133
219	0xbeb4db0b	-0.35323367
220	0xbf98c33d	-1.1934582
221	0xbdbd7cfe	-0.09252356
222	0x395d5777	0.00021108786
223	0x3d8818be	0.06645344
224	0x3a9d28be	0.0011990292
225	0xbf709953	-0.93983954
226	0xbdc9f847	-0.09861808
227	0x3dce5dbc	0.10076472
228	0x3da13418	0.07871264
229	0x3df91d84	0.12163833
230	0xbfac6bf2	-1.3470442
231	0xbd1696a2	-0.03676475
232	0xbfc3dd49	-1.5301906
233	0x3d9d27cc	0.07673606
234	0x3b0ccb5d	0.0021483519
235	0xbde031a7	-0.109469704
236	0xbffbb718	-1.9665251
237	0xbff0c3c7	-1.8809747
238	0x3d9065f1	0.07050694
239	0xbf1719af	-0.59023565
240	0xbe10d15d	-0.14142366
241	0xbd97c867	-0.074112706
242	0xbfb9525f	-1.4478263
243	0xbe175299	-0.14777602
244	0xbf177e8f	-0.5917749
245	0xbda82718	-0.082105815
246	0xbb5e7746	-0.0033945604
247	0x3d676137	0.056489196
248	0xbfa733bc	-1.3062663
249	0xbd901758	-0.070357025
250	0xbf9fbc5b	-1.2479357
251	0x3cdb745e	0.026788887
252	0xbdf58d98	-0.119898975
253	0xbfb4af8e	-1.4116075
254	0xbcb878ba	-0.022518504
255	0xbe0bf5a1	-0.13667919

linear_layers.2.bias f4 [48]
0	0xbf385a12	-0.72012436
1	0xbf5460ba	-0.82960093
2	0xbf6c2e05	-0.9225772
3	0xbf9257e9	-1.1433078
4	0xbf08a03a	-0.53369486
5	0xbfa19d1a	-1.2626069
6	0xbeaee385	-0.3415796
7	0xbf647a55	-0.89249164
8	0x3c907992	0.017636094
9	0xbf934e6f	-1.1508311
10	0xbfaed214	-1.3657861
11	0xbf2f2825	-0.6842063
12	0xbf993b7e	-1.197128
13	0xbf5ae821	-0.8551045
14	0xbf72dfec	-0.9487293
15	0xbf3d6fc3	-0.7399866
16	0xbf5bdd8f	-0.85884947
17	0xbf97a29a	-1.1846497
18	0xbf9f86ef	-1.2463053
19	0x3eb1f257	0.34755203
20	0x3e7a877b	0.24465744
21	0xbfa153be	-1.2603681
22	0x3f23f215	0.6404126
23	0xbf9165d9	-1.1359206
24	0xbe8044a8	-0.2505238
25	0xbfa10d42	-1.2582171
26	0xbf9bac49	-1.2161952
27	0xbf7f3a05	-0.99697906
28	0xbfbfd7af	-1.4987696
29	0xbf863acc	-1.0486693
30	0x3e9bebde	0.3045339
31	0xbf7dcc9a	-0.9914032
32	0x3ddd96c7	0.10819774
33	0xbf99c729	-1.2013904
34	0xbe4a47a7	-0.19753896
35	0xbf1f0b37	-0.6212649
36	0xbf0faa6b	-0.5611941
37	0xbf9cefbe	-1.2260664
38	0xbf529245	-0.8225444
39	0xbf2d7be7	-0.67767185
40	0x3e7be635	0.24599536
41	0x3d9efe39	0.07763333
42	0xbf4d155d	-0.8011072
43	0xbf74c8b4	-0.9561875
44	0xbf50512f	-0.81373876
45	0xbf974155	-1.1816813
46	0xbf7335ef	-0.9500417
47	0x3e5b0941	0.21390249

linear_layers.3.weight f4 [48, 48]
0	0xbdea55a9	-0.1144212
1	0xbbbdcc36	-0.005792166
2	0xbd162059	-0.036651943
3	0xbc8a3e0e	-0.016875293
4	0xbe17bb57	-0.14817558
5	0xbdaa319a	-0.08310242
6	0xbf3e46af	-0.74326605
7	0x3db4ce8d	0.08828459
8	0xc02af775	-2.6713536
9	0xbd4dc154	-0.0502332
10	0xbdce8b7e	-0.100852
11	0xbdec82a8	-0.11548358
12	0x3dba5d5b	0.090998374
13	0xbe7e1806	-0.24813852
14	0x3c8dcd38	0.01730977
15	0xbdd35577	-0.103190355
16	0xbe103a5c	-0.14084762
17	0x3e0818a4	0.1329065
18	0xbdcc587a	-0.09977813
19	0xbf8c3538	-1.0953741
20	0xc04c8f95	-3.1962636
21	0xbdbe3015	-0.09286515
22	0xc0904ddd	-4.509505
23	0x3ddb2a29	0.10701401
24	0xbf90fa6f	-1.1326426
25	0xbd785515	-0.060628016
26	0x3d9c9c9a	0.07647057
27	0x3d7c9ba5	0.06167187
28	0xbdb7f8af	-0.089829795
29	0xbd521c06	-0.051296256
30	0xbf8bf40e	-1.0933855
31	0x3da7bf10	0.08190739
32	0xbf017d7c	-0.505821
33	0x3df88d2d	0.12136302
34	0xbe4e4822	-0.20144704
35	0xbcdd19a0	-0.026989758
36	0x3af67ea7	0.0018806056
37	0x3dec772d	0.115461685
38	0x3d71f25a	0.059069015
39	0xbef2e81d	-0.47442713
40	0xbf36e121	-0.7143727
41	0xc02aeff0	-2.6708946
42	0xbe8f50a2	-0.27991205
43	0x3e08dcac	0.1336543
44	0xbe04a7e0	-0.12954664
45	0x3d7e8751	0.062140767
46	0x3aef1bd4	0.0018242546
47	0xbf18c3ad	-0.5967358
48	0x3cdd5c68	0.027021602
49	0xbde53f79	-0.11193747
50	0x3d6a7838	0.057243556
51	0xbda80252	-0.082035676
52	0xbdec40de	-0.1153581
53	0xbe0acf47	-0.13555633
54	0xbe9b693b	-0.30353722
55	0x3de436fa	0.111432984
56	0xc009f8c9	-2.1558096
57	0xbcd02219	-0.025406884
58	0xbd2bc066	-0.041931532
59	0xbbea748f	-0.007155008
60	0x3e020a4f	0.12699245
61	0x3db4f167	0.08835106
62	0xbdb32e70	-0.087490916
63	0xbd356946	-0.04428985
64	0xbeb2a8b4	-0.34894335
65	0x3dcd6da5	0.10030679
66	0xbe43cfe5	-0.19122274
67	0xbf668ca6	-0.9005836
68	0xc0074be0	-2.114006
69	0x3c02734f	0.007962062
70	0xc08d5d72	-4.417657
71	0x3ddf8d44	0.10915616
72	0xbfbce571	-1.475752
73	0xbc90adec	-0.017661057
74	0x3ce259c2	0.02763069
75	0xbdeb9e89	-0.115048476
76	0xbdbcd358	-0.09219998
77	0xbddddd69	-0.10833246
78	0xbf60d7aa	-0.8782908
79	0xbdce6f27	-0.100797944
80	0xbeba34e3	-0.36368474
81	0x3dfd69a1	0.12373663
82	0xbea55acd	-0.32295838
83	0xbe426568	-0.18983996
84	0x3da8dcc7	0.08245235
85	0x3e0d4caa	0.13798776
86	0xbdcd635d	-0.10028718
87	0xbd0067af	-0.03134888
88	0xbe9be881	-0.30450824
89	0xc02171af	-2.5225637
90	0x3e04796c	0.12936944
91	0xbdab37ec	-0.083602756
92	0xbdae5f0a	-0.08514221
93	0xbdc66241	-0.09686709
94	0x3de62ad3	0.11238637
95	0xbf2d81ae	-0.67776
96	0xbcebb63b	-0.028773418
97	0x3e06e640	0.13173771
98	0xbe005262	-0.12531427
99	0x3c4470a7	0.011989749
100	0x3d3fae88	0.046797305
101	0xbca6366d	-0.020289624
102	0xbe98836d	-0.2978777
103	0x3d5f2bce	0.054485135
104	0xbfd10e36	-1.6332462
105	0xbd33f453	-0.043934178
106	0x3d81df2d	0.063413955
107	0xbdc36485	-0.09540657
108	0xbdc817b5	-0.09770147
109	0xbdb6f819	-0.089340396
110	0xbde368d6	-0.1110398
111	0x3d5b64fa	0.053563096
112	0xbedc5314	-0.43032134
113	0xbd7cf4da	-0.061756946
114	0xbde3bdf2	-0.111202136
115	0xbf18ee40	-0.5973854
116	0xbfd3a0f0	-1.6533489
117	0x3d0737a1	0.033012036
118	0xc090b162	-4.521653
119	0x3da7dc10	0.081962705
120	0xbfe6e4dd	-1.8038594
121	0x3b9347dc	0.0044946503
122	0x3cd20652	0.02563778
123	0xbddf9af4	-0.10918227
124	0x3d552070	0.052032888
125	0xbd35d097	-0.04438838
126	0xbfbd2fd2	-1.4780219
127	0xbe919b9b	-0.2843903
128	0xbe142677	-0.14467798
129	0xbe054241	-0.13013555
130	0xbebdbeec	-0.37059724
131	0xbe20d896	-0.15707621
132	0xbd5b1efe	-0.053496353
133	0xbd17d719	-0.037070367
134	0x3e063fe7	0.13110314
135	0xbd115d64	-0.035489455
136	0xbea0d922	-0.3141566
137	0xc01e727a	-2.475737
138	0x3cee5601	0.029093744
139	0x3d8acebc	0.06777713
140	0xbdce6252	-0.10077347
141	0xbd09c6d5	-0.033636887
142	0xbd98daf4	-0.07463637
143	0xbf45ff43	-0.77342623
144	0x3e01da0a	0.12680832
145	0x3bc49b60	0.0059999675
146	0x3d9cf1ea	0.07663329
147	0xbd5b1798	-0.053489298
148	0x3db778a6	0.08958559
149	0xbde3a2d7	-0.111150436
150	0xbead350e	-0.3382954
151	0xbcbd32c7	-0.023095502
152	0xc014cf3d	-2.3251488
153	0xbe16e06c	-0.14734048
154	0xbdbffb3b	-0.0937409
155	0x3d3611cd	0.04445057
156	0x3d9a49e5	0.075336255
157	0xbda8334b	-0.08212908
158	0xbd8e3f6d	-0.06945691
159	0xbe3f609c	-0.18689197
160	0xbd8806b1	-0.06641901
161	0xbbd071e3	-0.0063612326
162	0xbd483997	-0.048883047
163	0xbf4cea93	-0.8004543
164	0xc0240ad8	-2.5631618
165	0xbdc2d410	-0.09513104
166	0xc0954bec	-4.665518
167	0xbd52faf4	-0.05150886
168	0xbf79eb23	-0.97624415
169	0xbd967aad	-0.07347617
170	0x3d99beb7	0.07507079
171	0x3db219b1	0.086963065
172	0x3d8fbb4d	0.07018147
173	0xbd18dedb	-0.037321907
174	0xbf66d2c7	-0.9016537
175	0xbd9fb21d	-0.07797644
176	0xbf09e9c6	-0.53872335
177	0x3df8be5c	0.12145683
178	0xbe293d97	-0.16527401
179	0xbd338a2b	-0.04383294
180	0x3deb46ab	0.11488088
181	0xbc106626	-0.008813417
182	0x3d2988c2	0.041390188
183	0xbe754352	-0.23951462
184	0xbec734d4	-0.38907492
185	0xc034e71c	-2.8266058
186	0xbe9a1460	-0.3009367
187	0xbdc907fb	-0.09815975
188	0xbe0b854a	-0.13625064
189	0xbdee68bc	-0.1164107
190	0xbe0db94d	-0.13840218
191	0xbf05bc0b	-0.52240056
192	0xbe12bae4	-0.14329106
193	0x3dd5c9ed	0.10438905
194	0xbc8f84e0	-0.017519414
195	0xbda3e56f	-0.08002745
196	0xbaff69c0	-0.0019486472
197	0xbd7ac61f	-0.0612241
198	0xbf008d2b	-0.50215405
199	0x3cd02653	0.0254089
200	0xc0095c12	-2.1462445
201	0x3db9bcd1	0.09069217
202	0x3d667ab6	0.05626937
203	0x3db5017a	0.08838172
204	0x3b74d852	0.0037360382
205	0xbe0dfa30	-0.1386497
206	0xbe0d0810	-0.13772607
207	0xbbcde1a3	-0.0062830015
208	0xbed91c5c	-0.4240445
209	0x3d84c7d2	0.06483425
210	0xbe6fa783	-0.23403744
211	0xbf29a11a	-0.66261446
212	0xc0203ca5	-2.5037014
213	0xbd3e9d64	-0.04653682
214	0xc08ef9e8	-4.468006
215	0x3df1c802	0.118057266
216	0xbfce107c	-1.6098781
217	0xbd10d177	-0.03535601
218	0x3d55af17	0.05216893
219	0x3d866f0e	0.06564151
220	0x3e2b78d9	0.16745318
221	0x3d886e4f	0.06661665
222	0xbf9c5cb2	-1.2215788
223	0xbe2104aa	-0.15724435
224	0xbe5c95a8	-0.21541464
225	0x3dcb02e8	0.09912664
226	0xbe9b7d67	-0.30369112
227	0xbea5571e	-0.32293028
228	0x3d8fa84d	0.07014523
229	0xbcda198f	-0.026623515
230	0x3d735aa5	0.059412617
231	0xbe95bb1b	-0.29244313
232	0xbe8ceffc	-0.27526844
233	0xc036350f	-2.8469884
234	0xbeae9ec2	-0.34105498
235	0x39dd51b8	0.0004221329
236	0xbeb66499	-0.35623625
237	0x3e0a65cf	0.135154
238	0x3cda782c	0.02666863
239	0xbf5545db	-0.83309716
240	0x3dfc9db5	0.12334768
241	0xbcdae43f	-0.026720164
242	0x3de17e67	0.110104375
243	0xbd7f67d1	-0.062354866
244	0x3c1875fd	0.009305474
245	0x3c14b61d	0.009076622
246	0x3e252aba	0.1612958
247	0x3d510cfa	0.051037766
248	0xbfbb5573	-1.4635452
249	0x3dde2cf9	0.108484216
250	0xbdc99a96	-0.09843938
251	0xbca60b20	-0.020268977
252	0xbd2ab01b	-0.041671854
253	0x3e3ff272	0.1874483
254	0x3d2dd6f7	0.042441335
255	0xbcc4266c	-0.023944102

linear_layers.3.bias f4 [48]
0	0xbf2afbee	-0.66790664
1	0xbeed2a2b	-0.46321234
2	0xbeefce5d	-0.4683713
3	0xbec18529	-0.37796906
4	0xbf0995dc	-0.5374429
5	0xbed95c79	-0.42453364
6	0xbf2cb425	-0.6746238
7	0xbf1856e7	-0.595076
8	0xbed5e6b7	-0.41777584
9	0xbe2d9fd1	-0.16955496
10	0xbea2195f	-0.31659982
11	0xbf09d049	-0.5383344
12	0xbf4f64d8	-0.8101325
13	0xbf06ef41	-0.5270882
14	0xbf14441f	-0.57916445
15	0xbebb4418	-0.3657539
16	0xbf2769ba	-0.653957
17	0xbf2801f2	-0.6562797
18	0x3ed9077a	0.42388517
19	0xbf09464a	-0.5362288
20	0x3df524ce	0.119699106
21	0xbf423651	-0.7586413
22	0xbefa5e5f	-0.48900124
23	0xbec1b4e3	-0.37833318
24	0xbdca17b4	-0.09867802
25	0xbf0d650e	-0.5523232
26	0xbe8c1052	-0.273562
27	0xbf2e4dbc	-0.68087363
28	0xbec987f1	-0.39361528
29	0x3e00e9a4	0.12589127
30	0xbf50316c	-0.8132541
31	0xbf1b8331	-0.6074706
32	0xbf360260	-0.71097374
33	0xbf238e5f	-0.63889116
34	0xbeecc998	-0.46247554
35	0xbf0c959d	-0.5491579
36	0xbf6184db	-0.88093346
37	0xbeb06007	-0.34448263
38	0xbe108f95	-0.14117272
39	0xbf0c3609	-0.5476995
40	0xbf8d9128	-1.1059923
41	0xbe824256	-0.25441235
42	0xbf152ef1	-0.5827475
43	0xbf0a0fdf	-0.5393047
44	0xbede510c	-0.4342121
45	0xbdbbcd00	-0.0916996
46	0xbf58f641	-0.84750754
47	0x3f02ca82	0.5109025

linear_layers.4.weight f4 [10, 48]
0	0x3db7f011	0.08981336
1	0xbe3f45f4	-0.18679029
2	0xbd3db79c	-0.04631768
3	0x3d9b134a	0.075720385
4	0xbdf54b26	-0.11977224
5	0x3dcd0a83	0.100117706
6	0x3c6c96dc	0.014440265
7	0x3d53a2b1	0.051668826
8	0xbe900c24	-0.28134263
9	0xbed4afc1	-0.4154034
10	0xbe2ef454	-0.17085391
11	0xbd9c8b16	-0.07643716
12	0x3d98393b	0.07432791
13	0xbd737dcf	-0.059446152
14	0x3e10c08d	0.14135952
15	0x3da360ee	0.07977472
16	0xbd571011	-0.052505556
17	0xbe9ac2da	-0.30226785
18	0xc009af6c	-2.151332
19	0xbc31544e	-0.010823322
20	0xc0489c20	-3.134529
21	0xbb889c8f	-0.004169054
22	0xbd12f257	-0.035875645
23	0x3d55d37b	0.052203637
24	0xbf38c501	-0.72175604
25	0x3d8b8ee0	0.068143606
26	0x3dcbbb27	0.09947806
27	0x3d999ff4	0.07501212
28	0x3da5c47d	0.08094118
29	0x3e454488	0.19264424
30	0xbe8db030	-0.27673483
31	0x3bb97890	0.005660124
32	0x3e092ee8	0.133968
33	0xbdf82c5f	-0.12117838
34	0x3d5dfa2b	0.054193657
35	0xbdcdab95	-0.10042492
36	0x3e0865cf	0.13320087
37	0xbe89f233	-0.26942596
38	0xbfd89436	-1.692023
39	0xbdbb4f89	-0.091460295
40	0xbcc97e06	-0.024596225
41	0x3dd08b6e	0.10182844
42	0xbd8f4130	-0.069948554
43	0x3dcd278f	0.10017311
44	0x3dad02a1	0.08447767
45	0xbf3a9808	-0.7288823
46	0xbdbbffc4	-0.09179643
47	0x3f1aab95	0.60418063
48	0xbd862596	-0.06550138
49	0x3d1e23cf	0.03860837
50	0xbe613be6	-0.21995506
51	0xbd1b7a76	-0.037958585
52	0xbd1721af	-0.036897358
53	0xbe030aa8	-0.12797034
54	0xbd99d289	-0.075108595
55	0xbca73215	-0.020409623
56	0xbed949ce	-0.4243912
57	0xbe6a2025	-0.22863825
58	0xbfb3f551	-1.405924
59	0xbe8111fc	-0.25209033
60	0x3e0c9289	0.13727774
61	0xbdc0396d	-0.09385953
62	0xbcb7a09e	-0.022415455
63	0xbe1b7e57	-0.15184914
64	0x3d0dd69d	0.0346285
65	0xbdf6bfee	-0.120483264
66	0xbfb1dabe	-1.389488
67	0x3da35852	0.0797583
68	0xbf4eef01	-0.8083344
69	0xbd9b3a51	-0.07579482
70	0x3ccfc7ee	0.025363889
71	0x3d92025a	0.07129355
72	0xc0078da6	-2.1180205
73	0xbd085a2b	-0.033289116
74	0x3dcab2cd	0.09897385
75	0xbc17891a	-0.009248996
76	0x3d827bb5	0.063712515
77	0xbfccd3b2	-1.6002104
78	0xbedafb19	-0.42769697
79	0x3e0bf21c	0.13666576
80	0x3c801ade	0.015637811
81	0x3e044b6d	0.12919398
82	0x3de0cce7	0.10976582
83	0x3e10c474	0.14137441
84	0x3df0aa87	0.117512755
85	0x3e8a68a9	0.27032974
86	0x3f30fdb8	0.69137144
87	0xbe4869ec	-0.19571656
88	0xbd199d01	-0.037503246
89	0x3e0da731	0.1383331
90	0xbdbcc245	-0.092167415
91	0xbe03b8cf	-0.12863468
92	0xbdd0fa7f	-0.10204028
93	0xbf7c9ea9	-0.98679596
94	0xbd4befac	-0.049789116
95	0xbfedb14a	-1.8569729
96	0xbd13759d	-0.036000837
97	0xbd765ebd	-0.060148943
98	0xbd771d8d	-0.060330916
99	0x3dca354f	0.09873449
100	0xbdc67e2d	-0.09692035
101	0xbdf5e453	-0.1200644
102	0xbcd48b92	-0.025945459
103	0x3e0958a8	0.13412726
104	0xbe684dfb	-0.22685997
105	0xbee62425	-0.4494945
106	0x3f0d1086	0.5510334
107	0xbd80f6c8	-0.0629707
108	0xbe12484f	-0.14285396
109	0xbc26d672	-0.010182964
110	0xbdbc789a	-0.092026904
111	0xbd9007a3	-0.070327066
112	0xbe1049be	-0.1409063
113	0xbe649c03	-0.22325139
114	0xc0053100	-2.0811157
115	0x3ccdffae	0.025146332
116	0xbf8624fd	-1.0480038
117	0x3dee587c	0.11637971
118	0xbdfe2620	-0.124096155
119	0xbd273c53	-0.040829014
120	0xbfbbcd45	-1.4672018
121	0x3dc0c8fa	0.09413333
122	0xbc948995	-0.01813201
123	0x3d640b39	0.055674765
124	0x3da01bc6	0.07817797
125	0xbe9bd8ca	-0.30438834
126	0xbd05c967	-0.032662775
127	0xbc58d5d9	-0.013234579
128	0xbd87c01c	-0.06628439
129	0x3df3cd02	0.119043365
130	0x3abb256d	0.0014278122
131	0x3d158251	0.036501233
132	0xbd5c1fb2	-0.053741165
133	0xbdeb577b	-0.11491295
134	0xbe029480	-0.12751961
135	0xbe30d9a7	-0.17270528
136	0xbe12ce0f	-0.14336418
137	0xbe1a1944	-0.150487
138	0x3cb9b9bb	0.022671571
139	0xbdb7b431	-0.08969916
140	0xbd6edad5	-0.058314163
141	0xbefaf796	-0.49017018
142	0x3ca48856	0.020084541
143	0xbe9ad77b	-0.30242524
144	0x3d161b10	0.036646903
145	0x3d98b856	0.07457034
146	0x3d7c0c99	0.06153545
147	0xbdacc889	-0.084366865
148	0x3c8cf881	0.01720834
149	0xbdbf905d	-0.09353707
150	0xbd434d7b	-0.047681313
151	0x3d1d08a1	0.038338307
152	0xbe1dd04a	-0.15411487
153	0x3e18d0eb	0.14923446
154	0x3e751f94	0.23937827
155	0xbe025bfa	-0.12730399
156	0xbdf19cfa	-0.11797519
157	0xbca72503	-0.02040339
158	0xbe0d1eb4	-0.13781244
159	0xbc413071	-0.0117913345
160	0x3ccb0f8d	0.024787689
161	0xbdc1a20a	-0.094547346
162	0x3d1522c3	0.036410104
163	0x3d3d46e3	0.04621018
164	0x3e19b797	0.1501144
165	0xbdccffe5	-0.100097455
166	0xbd6be11a	-0.05758772
167	0xbe04d42c	-0.12971562
168	0xbe84ece9	-0.25961998
169	0x3d46e10a	0.048554458
170	0x3c016e84	0.007899884
171	0x3d9bbe70	0.076046824
172	0xbe00a595	-0.12563165
173	0xbfbec95d	-1.4905201
174	0xbe367d8b	-0.17821328
175	0x3d9fd474	0.07804194
176	0xbdbec8c4	-0.09315637
177	0xbdf34055	-0.11877505
178	0x3dc16d52	0.09444679
179	0x3dd0f9cc	0.10203895
180	0xbd94b4d3	-0.07261052
181	0x3e61cdc2	0.22051147
182	0x3c80631e	0.015672263
183	0xbe149aff	-0.14512251
184	0x3d1d131c	0.038348302
185	0xbf902b54	-1.1263223
186	0xbd025099	-0.031815145
187	0xbc1a3e5b	-0.009414281
188	0xbca150f0	-0.019691914
189	0xbfd3a276	-1.6533954
190	0x3d3fbfba	0.046813704
191	0x3e8b7232	0.27235562
192	0x3c4e8973	0.012606013
193	0x3caf2f4c	0.021384858
194	0xba8a741c	-0.0010563168
195	0xbcf5442c	-0.029939733
196	0xbbd7b10f	-0.0065823863
197	0xbe2dca1c	-0.1697163
198	0xbd46f8be	-0.048577063
199	0x3e09399d	0.13400884
200	0x3e88ddf7	0.26731846
201	0xbe6c078a	-0.23049751
202	0x3e1e1f9f	0.1544175
203	0xbec9ab56	-0.3938853
204	0x3d829687	0.06376367
205	0x3d650cbc	0.055920348
206	0xbdfeffb6	-0.12451117
207	0xbc3caee8	-0.01151631
208	0x3d85bf7b	0.065306626
209	0xbe7e8f9c	-0.2485947
210	0x3bd86c91	0.006604739
211	0xbdb9f236	-0.09079401
212	0xc05070eb	-3.256892
213	0x3e02e98a	0.127844
214	0xbd5f023c	-0.05444549
215	0x3ca133b3	0.019677972
216	0xbfaa5478	-1.3307028
217	0xbc128321	-0.008942396
218	0x3d8ddb72	0.069266215
219	0xbdb5fa93	-0.08885684
220	0xbca0ed9f	-0.019644557
221	0x3ea0a475	0.3137547
222	0x3e79bcaa	0.24388376
223	0x3beda649	0.0072524888
224	0x3c53fc2f	0.012938543
225	0xbd64b7ab	-0.055839222
226	0xbd2255a9	-0.039632473
227	0x3de68ce7	0.11257344
228	0xbe084594	-0.13307792
229	0xbef16967	-0.47150728
230	0xbfe0c8ab	-1.7561239
231	0x3bec6c25	0.0072150403
232	0x3de0aac4	0.10970071
233	0xbe9a62f3	-0.30153617
234	0xbd4eacf9	-0.05045793
235	0xbd5c9166	-0.0538496
236	0xbdb6c4c4	-0.08924249
237	0x3f3a9106	0.7287754
238	0x3d894044	0.06701711
239	0xbfd0224c	-1.6260467
240	0x3e136f69	0.14397968
241	0x3c972360	0.018449485
242	0x3c6faa08	0.014627941
243	0x3d786dd8	0.06065163
244	0xbdf89535	-0.12137834
245	0xbe31789d	-0.17331167
246	0x3dff31be	0.124606594
247	0x3d85c46d	0.06531606
248	0x3c87578d	0.01652124
249	0x3c759f29	0.01499156
250	0xbf2d516c	-0.67702365
251	0xbe013b4e	-0.12620279
252	0x3dee7fed	0.11645494
253	0x3db7fea9	0.089841194
254	0xbd3a4add	-0.04548155
255	0xbe17187b	-0.14755432

linear_layers.4.bias f4 [10]
0	0x3dea4e57	0.114407234
1	0xbd61890f	-0.05506235
2	0x3e6aa4ba	0.229144
3	0x3d974379	0.07385916
4	0xbdda0eb7	-0.10647338
5	0x3e3c7d22	0.1840711
6	0xbdf6c770	-0.120497584
7	0xbdcc4dbc	-0.09975764
8	0x3e23268b	0.15932672
9	0x3d59f4a3	0.05321182
