ethosu_compiler/gen_cms/nmnist_784x64x64x10/model_params/fc1_weights.npy (npy, 16512 bytes, 1 tensors)

array f4 [64, 64]
00000000: 41a1 98bc ecdd d7bc 9f34 403e 4264 9f3d
00000010: 2f10 113d 397b 9a3d e87c 8d3d 4dab 58bd
00000020: 0cf6 94bd d9b1 c3be b2a7 8abd b4b2 80bc
00000030: 7060 83bd 89da 00bd ff40 fdbd 0c2e 62bd
00000040: 44e5 9fbe 1862 6a3e de54 65bd 3915 a63d
00000050: de2d 2fbd 7dff f13b 42a6 163d 7d76 74bd
00000060: c670 df3d 541d 17bd 72e5 923c 22c3 76be
00000070: d36f 983e 201c 3f3d 6b25 913d d6df 903d
00000080: a52a 663e c3fa e63d cbbb f7bd c989 a33d
00000090: 8e48 443d f968 a8bb b51b edbd 19c9 e7be
000000a0: b59c 7b3d b265 ff3c 1224 32bd 0917 203e
000000b0: dcb6 ebbe 00f0 dcbc 852d 583d b0b9 cabd
000000c0: 8e4c 96bd 07ff c13c f440 793d f297 9cbc
000000d0: 8938 a03d 2c95 95be 62d0 b13b 8e52 923d
000000e0: 608e 9d3e 863d d43e 2578 cf3d 5439 69bd
000000f0: bf9e c5be 74f0 33bd 949c 073e 6eb5 bebe
00000100: 053f 323a b0b3 45bc e317 86be 0023 733b
00000110: 0c67 613d 9600 3d3d cbc2 dabc 0b68 b23d
00000120: 8d2b bb3c 6a8e 81be d981 373d 31ed 65be
00000130: a512 d63d 955b adbd b431 90bc e04b a1bd
00000140: c3de 97be 1d2c b6be 1ea8 68bd 9c89 df3d
00000150: f7e7 f1bc fc95 bebd d40a c1be 4f25 d63d
00000160: dc76 cd3d 25ca d1bd 4bb3 473d 6453 d5be
00000170: f753 a7be 8e01 0cbd 8c30 07bc c9c7 633d
00000180: 7bcf b9be 3479 a3bd 4101 9c3d b52e c93d
00000190: ea1d f9bc f197 cc3b 9a17 a3be 63b2 0fbe
000001a0: 7da5 36bd e430 dbbd 2cd9 113d c542 9ebe
000001b0: bcfa b9be 33e3 a6be 761e edbd 9ba1 e9bd
000001c0: afc1 853d e364 063d c516 dc3d 72f5 d4be
000001d0: 17a9 4dbd 9b57 4dbe 159b 163d 855e 943d
000001e0: 5037 d5be b330 3bbe a21e 963b f6ff a63d
000001f0: dbad 14be 40f2 dbbb 46ef 373b bb83 98be
00000200: e5c3 9bbc f01b e33d c61b f9be 96ca b73d
00000210: f96f 013d 0423 bb3c ee74 d9bd cef1 db3c
00000220: 84ab e5bb 5595 b53e 1d9a ecbc 3d1f 4bbe
00000230: 2ea9 aabd 8150 bbbe b287 cabd 5cf5 123d
00000240: b5a0 c9be 84a2 403d 7a52 d13d a576 b93a
00000250: d8cf 3fbd 2a15 d23d bbf9 713d 6969 8fbd
00000260: 1f50 3e3c 3f69 063a ae51 debc 289c b2be
00000270: 8ea4 e0be 425b db3d e3f2 e2bc 7ac7 973d
00000280: 9694 dcbe 87e7 583d 31db 0f3d fab1 e93d
00000290: f152 d5bd 2882 af3d a86f 30be 7167 b83e
000002a0: d01b 88bc 11c9 cf3d c771 903d 86df c73e
000002b0: 0f14 8abe a44f 843e fc2d b03d 22fe 3a3d
000002c0: 3748 cf3c 667a ddbd 2671 16bd 8878 4bbe
000002d0: 916f c43d 343e 04be ef45 193d 6fc6 9c3d
000002e0: cd23 68be 62ff 16be dd48 25bd 18a2 573d
000002f0: 3dd3 67be 00fd 6a3a 053c afbe 05fb ee3e
00000300: 2bd7 dabc 0789 cb3d 6d10 5ebe 6c35 193d
00000310: 9dad 78bb 3e21 6bbd 9958 41bd 6fa9 af3d
00000320: 3306 bebd 9626 b4be f39a 3a3c bcee 77bd
00000330: 600b 933d 00c9 91be 4cfd d43d 20d2 603d
00000340: 9d78 c4bd cc86 60bd 6028 b7bd cfec af3d
00000350: 5839 63bd ab97 053e 55f8 f5bd 2e30 69bd
00000360: 2929 6c3d 6ca6 8ebd dd08 483d aaf9 76be
00000370: 6cf8 eebc c6c3 ba3d 2714 c7bd bdea 91bd
00000380: 5665 8dbe 502d 3c3d c4d2 edbd 87ae 00be
00000390: f9b0 c8bd f694 9ebd c111 76be 8501 fa3d
000003a0: 00e8 35bc 4689 6cbd 35da da3c 0b0d f6bd
000003b0: 671d a3be f370 b2bd 786c d03d d871 ec3d
000003c0: a876 1e3d d092 c23a 63bc adbc 4e58 b4bc
000003d0: 205c b1bd 0f5e 593e faf6 42bd f702 4dbd
000003e0: 4516 e1be 9584 dfbe 47ac e93c 05d1 bfbd
000003f0: 1f2c 56be 8032 0d3c 4ff1 adbd af32 b2be
-0.01863158 -0.026350938 0.18770073 0.077827945 0.035415825 0.07543034 0.069085896 -0.05289774
-0.07273492 -0.38221624 -0.067702666 -0.015710212 -0.06414878 -0.03145841 -0.12365913 -0.055219695
-0.31229603 0.22888982 -0.05598914 0.08109517 -0.04276835 0.007385193 0.03677965 -0.05968331
0.10910182 -0.036893204 0.017931674 -0.24097875 0.29772815 0.04665768 0.07087215 0.07073943
0.22477205 0.11278298 -0.120963655 0.07985265 0.047920756 -0.005139467 -0.1157755 -0.45270613
0.061428744 0.031176422 -0.04349143 0.15633787 -0.46037948 -0.02696991 0.052777786 -0.09898698
-0.073388204 0.023681177 0.06085296 -0.019115422 0.07823283 -0.29215372 0.0054264525 0.07144652
0.30772686 0.4145319 0.101303376 -0.056939438 -0.38597676 -0.043930486 0.13243324 -0.37247795
0.0006799552 -0.012066767 -0.261901 0.003709972 0.055029914 0.046143137 -0.026704213 0.08711251
0.022847915 -0.25303966 0.044801567 -0.22453763 0.10452775 -0.084647335 -0.017601825 -0.078758
-0.2966214 -0.3558053 -0.056800954 0.10914919 -0.029529555 -0.09305951 -0.37703574 0.10456335
0.10032436 -0.10243634 0.04875497 -0.41665184 -0.32681248 -0.03418117 -0.008251321 0.05561045
-0.36291108 -0.07982102 0.07617427 0.09823362 -0.030409772 0.0062436988 -0.31853944 -0.14032893
-0.044591416 -0.107026845 0.035607502 -0.30910316 -0.36324108 -0.32595214 -0.115780756 -0.11407777
0.06531083 0.032811057 0.107465304 -0.4159351 -0.050210085 -0.2005295 0.03676899 0.07244591
-0.41643763 -0.18280296 0.0045812884 0.081542894 -0.14519446 -0.006712228 0.0028066202 -0.29788002
-0.019014308 0.11089313 -0.48654002 0.08974187 0.031600926 0.022843845 -0.10618006 0.0268487
-0.0070089716 0.35465494 -0.02888208 -0.19836135 -0.0833305 -0.36584857 -0.09889163 0.035878524
-0.39380422 0.047029987 0.10220809 0.0014149739 -0.046829075 0.10257943 0.059076052 -0.07002527
0.011615782 0.0005127377 -0.027138557 -0.34884763 -0.43875545 0.107107654 -0.027703708 0.07411094
-0.43082112 0.052955177 0.035121147 0.114108995 -0.104162104 0.08569747 -0.17230093 0.3601642
-0.016614825 0.10145772 0.07052951 0.39037722 -0.26968428 0.2584201 0.08602521 0.045652516
0.02530299 -0.10814361 -0.036729 -0.19870198 0.09591592 -0.12914354 0.03742021 0.07655036
-0.22669907 -0.14745858 -0.04035269 0.05264482 -0.22639175 0.00089640915 -0.3422548 0.46675888
-0.026713928 0.09938245 -0.21685953 0.037404463 -0.0037945278 -0.05740475 -0.047203634 0.08577239
-0.09278526 -0.3518569 0.011389482 -0.06053041 0.07179904 -0.28473663 0.10399875 0.05488789
-0.09593318 -0.054816052 -0.08943248 0.085900895 -0.05547461 0.13046138 -0.12010256 -0.056930713
0.05765644 -0.06965336 0.048836578 -0.24118677 -0.029171191 0.09119372 -0.09720641 -0.07124851
-0.27616376 0.04594165 -0.11612466 -0.12566577 -0.0979938 -0.07743256 -0.2403021 0.12207321
-0.011102676 -0.0577481 0.026715377 -0.120142065 -0.3185837 -0.087129496 0.10176939 0.115451515
0.03868738 0.0014844779 -0.021207994 -0.022014763 -0.086601496 0.21227287 -0.047598816 -0.050051656
-0.43962303 -0.4365584 0.028524531 -0.09366039 -0.20915268 0.008617997 -0.084932916 -0.34804294
