ethosu_compiler/gen_cms/nmnist_784x64x64x10/model_params/fc2_weights.npy (npy, 2688 bytes, 1 tensors)

array f4 [10, 64]
00000000: 9fe7 9fbe a078 36bd 571b 8a3e 3c0c 973e
00000010: b023 76be 2b70 d33d 2a45 8a3e d239 5cbe
00000020: 530f 923e da67 9fbe c66c 823e 865a 433d
00000030: a194 a4bd 1e0b 593e 9084 89be 6504 86be
00000040: ce90 3cbc dc31 35be f7ae ce3d f840 80be
00000050: d082 69be 131f a0be d17c 1e3e 3025 96bd
00000060: 05a6 6e3e b80a a0be 38e4 7cbe 5193 0cbd
00000070: 2a50 9cbe 1cdd 9fbe 5753 fbbd 8594 84be
00000080: d096 91be ebe6 903e 1b99 9fbe e7d3 b13d
00000090: ab54 94be 24d1 66be 9a56 98be ec55 33be
000000a0: d674 47be dfe3 79be b357 72be 735a 5ebe
000000b0: 6c11 b0bd 8073 79be 8b47 9cbe 0f32 73be
000000c0: 57e5 66be 5306 55be a7a6 be3d 21f7 92be
000000d0: 5f8a 7bbe 4d77 97bd 0caf 4fbd 0c50 3ebe
000000e0: 9867 a0be 563c 47be 54a7 80be acee 57be
000000f0: cb4c 00be 63a1 433e 6507 173e b9b9 9fbe
00000100: eb6e ebbd 5927 2abe 657d 12be e89d aebe
00000110: 2639 873e 6a4f 82be 8fd5 7fbc 892d 26be
00000120: 51fc 5abd 5b98 a43e b2dc 5ebe 84a7 95be
00000130: 3807 9dbe b77f 4abe e807 1ebe 2baa adbe
00000140: 5f20 a1be 3954 903e a351 27be d12f 8e3e
00000150: 0e0d 723e 6273 adbe fef3 b53b b1b7 b9bd
00000160: 0e99 13be ec12 5ebe 6779 51be 37ff 4ebe
00000170: 1fa4 0b3e a331 ad3e ee50 d0bd 1284 95be
00000180: e622 6a3c 2b44 96be 434e 543e c269 8dbe
00000190: b5fd 9abe 83ab 96bd 0400 4f3e c465 ac3d
000001a0: ecb8 1cbe 02f4 703e 4d38 aebe 8962 4abe
000001b0: d1c6 8f3e df13 7ebe 81e8 90be 9d44 76be
000001c0: 4267 66be 6b41 67be bae3 87be dcc1 acbe
000001d0: 7392 1cbe 13e6 b0bd 2a55 37be 5aa7 97be
000001e0: db04 8dbd 1db8 39be d7d2 8bbe dc82 803e
000001f0: 000f 903b 5c85 e6bd bbfd 09bd 3f04 9fbe
00000200: 7570 89bd c14b aa3c 8fef 95bd 2a49 b4be
00000210: f27b 8d3e d2b7 673e fe2c 58be 7d19 7f3e
00000220: dfcb 813e 6498 94be 4354 233e 3dd8 34be
00000230: 2b28 913e 7741 693d 9c8c 89bd e38c 3dbe
00000240: 77cb f3bd 2869 84be 2b3c 9bbd 118e d8bd
00000250: 0672 14be 3138 3abe a2e6 1b3e 77de 233e
00000260: 2d4e 913d 14ad 49be 5196 9c3e aa75 903d
00000270: 0577 4b3b c2bc b5be 73ac d9bc 636f 7cbe
00000280: 3f3b 863e 0ca9 b4be 1faf 8cbe c062 96be
00000290: e95a 7bbc 036f 5ebe a63d 97be ae19 e1bd
000002a0: 8e31 88be 6dec 51be 804b b4be c750 4cbe
000002b0: 4f06 90be ee47 d73c 94dd 92be 423c 803e
000002c0: 43ec 803d 847c c2bd 727d ecbc 2f26 56be
000002d0: 6cc4 be3c b478 b1bb c5e8 cbbd 009f 85be
000002e0: 5a30 b5be e714 d83d 11b7 99bc 3e62 0abe
000002f0: bee2 65be 97b4 403e a950 8fbe 11c2 54be
00000300: d45b f83d e15d 70be 42c0 96be 2d19 a3be
00000310: ee05 b5bd c734 94bd 1804 55be eb2a 2fbe
00000320: 08ca 85be 3106 a5be d6a0 c13d 9799 84be
00000330: 507e a4be 0b2d 7cbe 94c1 a2be c2b4 0dbd
00000340: 2332 283e f76b c7bd 196f 46be 81de c6bd
00000350: b570 85be 0cea 7dbd 6f46 a03d aded 4abe
00000360: be4b eabd 9e9f 94be 3675 563e 22e5 67be
00000370: 59bc 4d3e a3cc 92be 9904 00be c601 4cbd
00000380: c2bb 863e 8ad3 9dbe e845 2bbe 7d2b a3be
00000390: d432 9fbe 1a7c 8a3e 5956 b03d fc6f 35be
000003a0: 46e1 43be 593d 04be f987 c13c 499e adbb
000003b0: d17e 21be 9277 22be be80 a3be 02f4 8ebe
000003c0: 38d7 8dbe de7a eabd 856a 3e3d 7fb7 5bbe
000003d0: 6272 10be 9378 0dbd 7601 1ebe 9031 9b3e
000003e0: ff95 6e3e ca8e 8dbe 170e a2be 919e a4be
000003f0: 3aec a3be 5b05 a0bc 7a3a 6f3e 74cb 82be
-0.312314 -0.04454863 0.26973984 0.29501522 -0.24037051 0.10324129 0.27005893 -0.21506432
0.28527316 -0.3113392 0.25473613 0.04769375 -0.08036161 0.21195647 -0.2685895 -0.26175228
-0.0115091335 -0.17694801 0.10091966 -0.25049567 -0.22803807 -0.31273708 0.15477301 -0.07331312
0.23305519 -0.31258178 -0.24696434 -0.03432018 -0.3052991 -0.3122338 -0.12271755 -0.2589456
-0.28435373 0.28301176 -0.31171498 0.08682995 -0.28970847 -0.22540718 -0.29753572 -0.17513245
-0.19478163 -0.24403332 -0.23666267 -0.21714191 -0.08597073 -0.24360466 -0.30523333 -0.23749565
-0.22548424 -0.20803194 0.0930913 -0.2870417 -0.24564503 -0.07395802 -0.050704047 -0.18585223
-0.31329036 -0.1945661 -0.2512766 -0.2108714 -0.12529294 0.19104533 0.14748915 -0.31196383
-0.11495765 -0.16616572 -0.14305647 -0.34104848 0.26410788 -0.25451213 -0.015614881 -0.16228308
-0.053463284 0.32147488 -0.21763876 -0.29229367 -0.3066957 -0.19775282 -0.15432703 -0.3391889
-0.3147001 0.28189257 -0.16339736 0.27770856 0.23637792 -0.33877093 0.005552768 -0.090682395
-0.14413854 -0.21686906 -0.20456468 -0.20214544 0.13636826 0.33826932 -0.10171686 -0.29202324
0.014290547 -0.29348883 0.2073298 -0.2761975 -0.30271688 -0.07356932 0.2021485 0.08417848
-0.15304917 0.23530582 -0.3402733 -0.1976415 0.28081372 -0.24812268 -0.28302386 -0.24049611
-0.22500327 -0.22583549 -0.2654093 -0.33741653 -0.15290241 -0.08637633 -0.17903581 -0.29619867
-0.06885692 -0.1813664 -0.27309296 0.25099838 0.0043963194 -0.11255905 -0.03368924 -0.31057927
-0.067109026 0.020788075 -0.07321083 -0.3521207 0.27633625 0.22628716 -0.21110913 0.24912067
0.25350854 -0.29022515 0.15950112 -0.17660613 0.28350958 0.056947198 -0.06716272 -0.18510775
-0.11904042 -0.25861478 -0.075798355 -0.10573972 -0.14496621 -0.18185498 0.15224698 0.16002832
0.07094989 -0.1969493 0.30583432 0.07053693 0.0031046283 -0.35495573 -0.026571488 -0.24651866
0.26217076 -0.35285223 -0.27477357 -0.29372215 -0.015341499 -0.21722035 -0.29539222 -0.10991226
-0.26600307 -0.20500346 -0.35213852 -0.19952689 -0.28129813 0.026279416 -0.28684676 0.25045973
0.06295063 -0.09496406 -0.02886841 -0.20913003 0.02328702 -0.0054160003 -0.09956507 -0.2609787
-0.35388452 0.10550862 -0.01876405 -0.13514039 -0.22449777 0.1881889 -0.27991226 -0.20777155
0.1212689 -0.23473312 -0.29443556 -0.31855145 -0.088390216 -0.07236629 -0.20802343 -0.17106216
-0.261307 -0.32231286 0.09454505 -0.2589843 -0.3212762 -0.24626558 -0.31788313 -0.034596212
0.16425376 -0.097373895 -0.19378318 -0.09710408 -0.2606255 -0.061990783 0.07825934 -0.19817229
-0.11440228 -0.29028028 0.2094315 -0.22646001 0.2009138 -0.2867175 -0.12501754 -0.04980638
0.26315123 -0.30825454 -0.16725886 -0.31869116 -0.31093466 0.27047807 0.086102195 -0.177185
-0.19128904 -0.12914027 0.023624407 -0.00529841 -0.15771033 -0.15865925 -0.3193416 -0.27920538
-0.2770326 -0.11449216 0.046488304 -0.21456717 -0.14106134 -0.034538817 -0.15430245 0.3031125
0.23299406 -0.27648002 -0.31651375 -0.32152227 -0.32016164 -0.019533804 0.23362151 -0.25545847
