ethosu_compiler/gen_cms/nmnist_784x64x64x10/model_params/fc2_weights.npy (npy, 2688 bytes, 1 tensors)

array f4 [10, 64]
000000 28 6d 32 bf 6b f7 c2 3d 0f 1c 34 bf 8f 05 83 3d
       -0.6969781 0.095198475 -0.70355314 0.063975446
000010 bc c3 59 3e 47 b9 00 bd 17 c4 0c bf 4e b2 ed bd
       0.21266073 -0.031426694 -0.5498671 -0.116062745
000020 dc 7a 4f be bd d8 33 bf 86 43 58 bd 10 71 7d bd
       -0.20261711 -0.7025259 -0.05279877 -0.061875403
000030 98 1a 34 bf 4a 7a 5e be 93 33 ad be f3 d2 f0 be
       -0.7035308 -0.21726337 -0.3382841 -0.4703594
000040 c6 ba 00 be 0b 2c ed be ff 07 99 3e 25 f8 a0 be
       -0.12571248 -0.46322665 0.29888913 -0.3143932
000050 ea 2a b0 3d 98 cb 37 be d8 a2 f0 be e0 1b 33 bf
       0.08601935 -0.17948759 -0.4699924 -0.6996441
000060 10 9f 2e bf 0d 4b 7b be c4 0c 1d be 87 c4 da 3e
       -0.6821146 -0.24540348 -0.15336901 0.42728063
000070 ea bc 94 3d 06 60 d8 3d 47 07 37 be 4c 48 62 be
       0.07262595 0.1056519 -0.1787387 -0.22097892
000080 af d1 00 bf 5b fb 18 3d 85 34 f7 3c 92 5e f0 3e
       -0.5031995 0.037349086 0.03017641 0.4694715
000090 d2 4f 57 3e 3e f9 fb be 14 f9 43 bd 1c 37 9a 3d
       0.21026543 -0.49213594 -0.04784496 0.075300425
0000a0 1b ab 5f be ea 4b 97 bd 94 65 bb 3e b3 5b 26 bf
       -0.21842615 -0.07387526 0.36600935 -0.6498367
0000b0 01 6f 01 3c 49 b5 f3 3d 16 e0 a1 be 2a b6 4b be
       0.007900001 0.11899812 -0.31616277 -0.19893709
0000c0 b2 e8 75 3e 85 ad 91 3e c1 3f 32 be 40 c6 45 bc
       0.24014547 0.28452697 -0.17407133 -0.012071192
0000d0 90 51 19 3d 14 68 73 3d aa b3 80 bd 93 26 9d bd
       0.0374313 0.05942543 -0.06284268 -0.07673373
0000e0 88 90 b1 3c fe 7b 8e bd fe f7 0b bd 79 dc 28 bf
       0.021675363 -0.069572434 -0.03417205 -0.65961415
0000f0 f8 78 5f bd 7f 36 00 3b e4 b5 f1 bb 79 1e d5 bc
       -0.054558724 0.0019563732 -0.0073764194 -0.026015507
000100 5d af 21 bf 91 f1 5f bd 29 b6 f1 3e 41 1e 57 be
       -0.6315821 -0.054673735 0.4720929 -0.21007635
000110 ce 11 cd bd 06 55 d3 3b 42 9e c9 be 0b 88 ba bd
       -0.100131616 0.0064493446 -0.39378554 -0.091079794
000120 e6 05 99 be 47 82 2c bf 1d 1a 07 be 65 f8 28 bc
       -0.29887313 -0.6738629 -0.13193555 -0.010313128
000130 9a e6 25 bf 67 ce 56 3e 24 ae a8 be c5 66 81 be
       -0.64804995 0.20977174 -0.3294536 -0.2527372
000140 33 f8 c4 bd f1 47 9a 3e 0e f1 5e be 86 15 97 be
       -0.09617653 0.30133012 -0.21771643 -0.2950861
000150 7e 4a a8 be 40 eb 91 bc 39 d9 c8 3e 36 84 2c bf
       -0.32869333 -0.017812371 0.39228228 -0.6738924
000160 41 78 2c bf 9d e8 45 3e 3e a8 af bd 44 90 2c bf
       -0.6737099 0.19327016 -0.085770115 -0.6740763
000170 3e 22 b0 ba 94 34 fc 3d 71 69 33 be ac e5 c8 3d
       -0.0013437939 0.12314716 -0.17520691 0.098094314
000180 52 cb c9 be 79 5b d7 3d 36 6f b7 be 4a ba 09 bf
       -0.39412934 0.10515494 -0.35827035 -0.5379988
000190 e4 9a 1d 3d 5c 07 1d bf dc c9 4c bd a8 1a f9 3d
       0.038477793 -0.61339355 -0.049997196 0.121632874
0001a0 6c 4d 2d 3e 2c 79 35 3d 20 2a 68 bd 53 14 0f bf
       0.16924065 0.04430501 -0.0566808 -0.5589039
0001b0 b2 d8 c3 bd 22 a2 92 bd 61 7b ca 3e 3f 61 38 bc
       -0.09562816 -0.07159831 0.39547256 -0.011253654
0001c0 5c 15 9e be ad f3 66 be 50 bf 35 be 31 3b 57 bd
       -0.3087567 -0.22553892 -0.17748761 -0.052546684
0001d0 c4 7f 5e 3d 89 c0 c9 bd 40 82 30 be c7 6e f0 3c
       0.054321066 -0.09851176 -0.17237186 0.029349698
0001e0 f0 da e8 3c 90 8c 02 3c b9 a1 87 be 0f 18 9d 3e
       0.02842471 0.007968083 -0.26490572 0.30682418
0001f0 28 c3 d0 3d 2a 34 18 be 34 a0 f9 3b 15 bc 8a 3d
       0.10193473 -0.14863649 0.0076179747 0.06774155
000200 d7 5d a1 be fc 20 6b bd b2 b9 1e bf 6f 5a 72 3c
       -0.31516907 -0.057404503 -0.620021 0.014792069
000210 30 ad 60 be 7b ef 11 3e d1 e8 03 bf 1c c5 92 bd
       -0.21941066 0.14251511 -0.51527125 -0.07166502
000220 ca b3 53 be 8b f8 20 bf 04 61 f1 bb db ee 68 bd
       -0.20674053 -0.62879246 -0.0073663015 -0.056868415
000230 7f 1e 51 be 61 7a 85 be 7a ce 90 3e 8d 54 a0 3e
       -0.2042179 -0.2606993 0.2828253 0.31314507
000240 24 33 b1 3d 01 9f 12 bf 85 d1 c2 3d e3 47 fe bd
       0.086523324 -0.5727387 0.09512619 -0.12416055
000250 25 bd 15 be 76 69 7c be 86 06 5f be 55 be c7 be
       -0.14622934 -0.24649605 -0.21779832 -0.390124
000260 51 91 11 3e 59 87 b9 be c1 82 cc 3d 6f 89 c6 3e
       0.1421559 -0.36236075 0.09985877 0.3877673
000270 f2 7f 77 bd a8 ad 60 3d 13 b2 01 be 26 fd 26 be
       -0.060424753 0.05485311 -0.12665586 -0.16307506
000280 ab 59 05 bf 0e dd 8d 3c ca f1 a4 bd 9e 88 0a bf
       -0.5208995 0.017317321 -0.0805393 -0.5411471
000290 c9 af 13 bc 7f f9 8a be 10 a8 7d 3c 1e 46 c6 3d
       -0.009014078 -0.27143475 0.015481964 0.096813425
0002a0 4b 38 04 be c0 b0 2f bc 25 d0 42 be c2 0b 4a 3e
       -0.12912099 -0.010723293 -0.19024713 0.19731048
0002b0 0f ee 48 3e 43 73 07 3e a7 a9 87 be 4e a8 10 be
       0.19622062 0.13227563 -0.26496622 -0.14126703
0002c0 89 9b 51 be fe ba 98 be 34 91 05 be 1b a5 0f 3c
       -0.20469488 -0.29830164 -0.13043672 0.008767392
0002d0 00 3e af 39 62 ce 87 3d f8 07 aa 3d 77 74 25 3d
       0.00033424795 0.06631161 0.08302301 0.040394273
0002e0 8a 50 d8 bd 34 68 74 3d 4a 04 48 3e 50 92 c9 3e
       -0.105622366 0.05966969 0.19532886 0.3936944
0002f0 70 06 32 bc 06 a7 fe bd 8c 01 1a be 2b 54 e6 3d
       -0.010865793 -0.12434201 -0.15039653 0.112465225
000300 30 49 d1 3e 3a 62 a5 bd cb 3c 32 bf 6d c7 4e be
       0.4087615 -0.08075376 -0.6962401 -0.20193262
000310 c6 ab 18 bd 75 b0 28 be 57 48 98 be 43 e4 9e be
       -0.03727319 -0.16473563 -0.2974269 -0.31033525
000320 ec 80 b7 bd 78 6a 20 bf a8 78 2b bd 6d 07 82 3e
       -0.08960137 -0.6266246 -0.041863114 0.2539629
000330 b8 58 32 bf 22 da 6c be 3a ff 63 3d 90 b5 ff 3d
       -0.69666624 -0.23130086 0.055663325 0.12485802
000340 e8 bf 15 bd 86 59 0f be ee 14 13 3e 49 94 0f bf
       -0.03655997 -0.13998994 0.14363453 -0.5608564
000350 e3 ca 6f be 46 c3 f3 bd aa 5a 3f 3e 94 39 32 bf
       -0.23417239 -0.1190248 0.1868693 -0.6961911
000360 a5 12 32 bf 7b d8 fb be 91 77 6f bd 0b 4a aa be
       -0.695597 -0.491886 -0.058463637 -0.33259615
000370 a7 b0 f3 bd 00 61 a3 3b 12 6c 15 be 5c 64 83 be
       -0.11898928 0.0049859285 -0.14592007 -0.25662506
000380 3b 5d bd bc ad 2d 53 bd cf 3f b3 be c6 f4 c1 be
       -0.023115745 -0.05155723 -0.3500962 -0.3788206
000390 a7 9b e2 3d aa dc a1 3e 60 88 d0 3b f8 d8 e1 3c
       0.110648446 0.31613666 0.0063639134 0.02756928
0003a0 01 09 2a be 64 4f 2a bd cb e6 3f be e2 44 cd be
       -0.16604997 -0.04157962 -0.18740384 -0.40091616
0003b0 af 84 cc bd 34 23 f0 bc 18 f3 ee be 46 aa a0 3c
       -0.09986245 -0.029313661 -0.4666984 0.019612443
0003c0 5e 23 3e 3e a1 ac 93 be 14 fd 14 be e5 05 b5 bd
       0.18568179 -0.28842643 -0.14549667 -0.08839015
0003d0 c0 ea 39 bb 4b b2 b8 3d 94 db 2f bb 55 a4 05 3d
       -0.0028368682 0.09018382 -0.002683376 0.032627422
0003e0 de f3 ad bd 84 bd 49 bd 53 e7 8d be 63 36 1e 3e
       -0.084937796 -0.049253 -0.2771555 0.15450434
0003f0 f0 9e 26 3d 77 f6 d7 bd 92 c0 2d 3c f5 22 53 bd
       0.04067892 -0.10545056 0.010604994 -0.05154701
