snn_model/saved_models/tflite_vela/tflite_model_vela.tflite (tflite, 10128 bytes, 3 tensors)

main_split_1_command_stream u1 [424]
000000 43 4f 50 31 01 00 10 00 08 30 00 00 00 00 06 10
       67 79 80 49 1 0 16 0 8 48 0 0 0 0 6 16
000010 05 00 00 00 05 00 00 00 05 00 00 00 02 00 62 00
       5 0 0 0 5 0 0 0 5 0 0 0 2 0 98 0
000020 0f 01 01 00 00 40 00 00 40 00 00 00 01 40 00 00
       15 1 1 0 0 64 0 0 64 0 0 0 1 64 0 0
000030 00 00 00 00 02 40 00 00 00 00 00 00 03 40 00 00
       0 0 0 0 2 64 0 0 0 0 0 0 3 64 0 0
000040 00 00 00 00 0b 01 00 00 0c 01 00 00 0a 01 00 00
       0 0 0 0 11 1 0 0 12 1 0 0 10 1 0 0
000050 04 01 01 00 06 40 00 00 01 00 00 00 05 40 00 00
       4 1 1 0 6 64 0 0 1 0 0 0 5 64 0 0
000060 02 00 00 00 04 40 00 00 02 00 00 00 09 01 00 00
       2 0 0 0 4 64 0 0 2 0 0 0 9 1 0 0
000070 05 01 01 00 07 01 00 00 00 01 00 00 01 01 00 00
       5 1 1 0 7 1 0 0 0 1 0 0 1 1 0 0
000080 03 01 00 00 02 01 00 00 1f 01 01 00 10 40 00 00
       3 1 0 0 2 1 0 0 31 1 1 0 16 64 0 0
000090 70 00 00 00 11 40 00 00 00 00 00 00 12 40 00 00
       112 0 0 0 17 64 0 0 0 0 0 0 18 64 0 0
0000a0 00 00 00 00 13 40 00 00 00 00 00 00 1b 01 00 00
       0 0 0 0 19 64 0 0 0 0 0 0 27 1 0 0
0000b0 1c 01 00 00 1a 01 00 00 12 01 00 00 11 01 00 00
       28 1 0 0 26 1 0 0 18 1 0 0 17 1 0 0
0000c0 13 01 00 00 16 40 00 00 01 00 00 00 15 40 00 00
       19 1 0 0 22 64 0 0 1 0 0 0 21 64 0 0
0000d0 01 00 00 00 14 40 00 00 01 00 00 00 18 01 00 00
       1 0 0 0 20 64 0 0 1 0 0 0 24 1 0 0
0000e0 14 01 01 00 21 01 00 00 20 01 00 00 22 01 00 00
       20 1 1 0 33 1 0 0 32 1 0 0 34 1 0 0
0000f0 28 01 00 00 20 40 00 00 40 00 00 00 21 40 00 00
       40 1 0 0 32 64 0 0 64 0 0 0 33 64 0 0

main_split_1_flash u1 [144]
000000 00 00 00 00 00 00 00 00 00 00 00 00 00 00 00 00
       0 0 0 0 0 0 0 0 0 0 0 0 0 0 0 0
000010 00 00 00 00 00 00 00 00 00 00 00 00 00 00 00 00
       0 0 0 0 0 0 0 0 0 0 0 0 0 0 0 0
000020 00 00 00 00 00 00 00 00 00 00 00 00 00 00 00 00
       0 0 0 0 0 0 0 0 0 0 0 0 0 0 0 0
000030 00 00 00 00 00 f4 dc bf 62 28 00 00 00 00 00 00
       0 0 0 0 0 244 220 191 98 40 0 0 0 0 0 0
000040 00 00 dc 1f ec 2f 0a 00 07 00 38 ff ff fe ff fc
       0 0 220 31 236 47 10 0 7 0 56 255 255 254 255 252
000050 00 00 00 00 00 d6 01 81 40 25 00 00 00 00 00 d6
       0 0 0 0 0 214 1 129 64 37 0 0 0 0 0 214
000060 01 81 40 25 00 00 00 00 00 00 00 00 00 00 00 00
       1 129 64 37 0 0 0 0 0 0 0 0 0 0 0 0
000070 00 00 dc 1f fc 7f e6 0f 07 00 38 ff ff fe 7f fe
       0 0 220 31 252 127 230 15 7 0 56 255 255 254 127 254
000080 00 00 00 00 00 00 00 00 00 00 00 00 00 00 00 00
       0 0 0 0 0 0 0 0 0 0 0 0 0 0 0 0

main_split_2_command_stream u1 [36]
000000 43 4f 50 31 01 00 10 00 08 30 00 00 00 00 06 10
       67 79 80 49 1 0 16 0 8 48 0 0 0 0 6 16
000010 05 00 00 00 05 00 00 00 05 00 00 00 02 00 01 00
       5 0 0 0 5 0 0 0 5 0 0 0 2 0 1 0
000020 00 00 ff ff
       0 0 255 255
