snn_model/saved_models/tflite_vela/tflite_model_vela.tflite (tflite, 16144 bytes, 6 tensors)

main_split_1_command_stream u1 [300]
67 79 80 49 1 0 16 0
8 48 0 16 0 0 6 16
5 0 0 0 5 0 0 0
5 0 0 0 2 0 67 0
35 1 0 0 15 1 1 0
0 64 0 0 240 0 0 0
1 64 0 0 0 0 0 0
2 64 0 0 0 0 0 0
3 64 0 0 0 0 0 0
11 1 0 0 12 1 0 0
10 1 0 0 4 1 0 0
6 64 0 0 1 0 0 0
5 64 0 0 1 0 0 0
4 64 0 0 1 0 0 0
9 1 128 255 5 1 1 0
7 1 0 0 0 1 0 0
1 1 0 0 3 1 0 0
2 1 0 0 31 1 1 0
16 64 0 0 208 0 0 0
17 64 0 0 0 0 0 0
18 64 0 0 0 0 0 0
19 64 0 0 0 0 0 0
27 1 0 0 28 1 0 0
26 1 0 0 18 1 0 0
17 1 0 0 19 1 0 0
22 64 0 0 1 0 0 0
21 64 0 0 5 0 0 0
20 64 0 0 5 0 0 0
24 1 128 255 20 1 1 129
33 1 0 0 32 1 0 0
34 1 0 0 37 1 0 0
38 1 128 255 39 1 127 0
00000000: 434f 5031 0100 1000 0830 0010 0000 0610
00000010: 0500 0000 0500 0000 0500 0000 0200 4300
00000020: 2301 0000 0f01 0100 0040 0000 f000 0000
00000030: 0140 0000 0000 0000 0240 0000 0000 0000
00000040: 0340 0000 0000 0000 0b01 0000 0c01 0000
00000050: 0a01 0000 0401 0000 0640 0000 0100 0000
00000060: 0540 0000 0100 0000 0440 0000 0100 0000
00000070: 0901 80ff 0501 0100 0701 0000 0001 0000
00000080: 0101 0000 0301 0000 0201 0000 1f01 0100
00000090: 1040 0000 d000 0000 1140 0000 0000 0000
000000a0: 1240 0000 0000 0000 1340 0000 0000 0000
000000b0: 1b01 0000 1c01 0000 1a01 0000 1201 0000
000000c0: 1101 0000 1301 0000 1640 0000 0100 0000
000000d0: 1540 0000 0500 0000 1440 0000 0500 0000
000000e0: 1801 80ff 1401 0181 2101 0000 2001 0000
000000f0: 2201 0000 2501 0000 2601 80ff 2701 7f00

main_split_1_flash u1 [256]
0 0 0 0 0 0 0 0
0 0 0 0 0 0 0 0
0 0 0 0 0 0 0 0
0 0 0 0 0 0 0 0
0 0 0 0 0 0 0 0
0 0 0 0 0 0 0 0
0 0 0 0 0 0 0 0
0 0 0 0 0 0 0 0
0 0 0 0 0 0 0 0
0 0 0 0 0 0 0 0
0 0 0 0 0 0 0 0
0 0 0 0 0 0 0 0
0 0 0 0 0 192 211 226
104 31 0 0 0 0 0 0
24 0 228 74 236 127 250 101
81 177 0 0 64 25 0 32
1 192 255 255 255 191 253 255
255 255 255 255 255 255 255 255
0 0 0 0 0 138 254 72
82 39 0 0 0 0 0 138
254 72 82 39 0 0 0 0
0 138 254 72 82 39 0 0
0 0 0 138 254 72 82 39
0 0 0 0 0 138 254 72
82 39 0 0 0 0 0 0
0 0 0 0 0 0 0 0
104 0 220 231 236 191 223 204
170 122 41 169 69 148 179 146
210 65 241 128 143 143 95 235
124 134 48 209 137 15 42 3
0 156 255 127 250 63 232 255
255 255 255 255 255 255 255 255
00000000: 0000 0000 0000 0000 0000 0000 0000 0000
00000010: 0000 0000 0000 0000 0000 0000 0000 0000
00000020: 0000 0000 0000 0000 0000 0000 0000 0000
00000030: 0000 0000 0000 0000 0000 0000 0000 0000
00000040: 0000 0000 0000 0000 0000 0000 0000 0000
00000050: 0000 0000 0000 0000 0000 0000 0000 0000
00000060: 0000 0000 00c0 d3e2 681f 0000 0000 0000
00000070: 1800 e44a ec7f fa65 51b1 0000 4019 0020
00000080: 01c0 ffff ffbf fdff ffff ffff ffff ffff
00000090: 0000 0000 008a fe48 5227 0000 0000 008a
000000a0: fe48 5227 0000 0000 008a fe48 5227 0000
000000b0: 0000 008a fe48 5227 0000 0000 008a fe48
000000c0: 5227 0000 0000 0000 0000 0000 0000 0000
000000d0: 6800 dce7 ecbf dfcc aa7a 29a9 4594 b392
000000e0: d241 f180 8f8f 5feb 7c86 30d1 890f 2a03
000000f0: 009c ff7f fa3f e8ff ffff ffff ffff ffff

main_split_2_command_stream u1 [300]
67 79 80 49 1 0 16 0
8 48 0 16 0 0 6 16
5 0 0 0 5 0 0 0
5 0 0 0 2 0 67 0
35 1 0 0 15 1 1 0
0 64 0 0 240 0 0 0
1 64 0 0 0 0 0 0
2 64 0 0 0 0 0 0
3 64 0 0 0 0 0 0
11 1 0 0 12 1 0 0
10 1 0 0 4 1 0 0
6 64 0 0 1 0 0 0
5 64 0 0 1 0 0 0
4 64 0 0 1 0 0 0
9 1 128 255 5 1 1 0
7 1 0 0 0 1 0 0
1 1 0 0 3 1 0 0
2 1 0 0 31 1 1 0
16 64 0 0 209 0 0 0
17 64 0 0 0 0 0 0
18 64 0 0 0 0 0 0
19 64 0 0 0 0 0 0
27 1 0 0 28 1 0 0
26 1 0 0 18 1 0 0
17 1 0 0 19 1 0 0
22 64 0 0 1 0 0 0
21 64 0 0 5 0 0 0
20 64 0 0 5 0 0 0
24 1 128 255 20 1 1 129
33 1 0 0 32 1 0 0
34 1 0 0 37 1 0 0
38 1 128 255 39 1 127 0
00000000: 434f 5031 0100 1000 0830 0010 0000 0610
00000010: 0500 0000 0500 0000 0500 0000 0200 4300
00000020: 2301 0000 0f01 0100 0040 0000 f000 0000
00000030: 0140 0000 0000 0000 0240 0000 0000 0000
00000040: 0340 0000 0000 0000 0b01 0000 0c01 0000
00000050: 0a01 0000 0401 0000 0640 0000 0100 0000
00000060: 0540 0000 0100 0000 0440 0000 0100 0000
00000070: 0901 80ff 0501 0100 0701 0000 0001 0000
00000080: 0101 0000 0301 0000 0201 0000 1f01 0100
00000090: 1040 0000 d100 0000 1140 0000 0000 0000
000000a0: 1240 0000 0000 0000 1340 0000 0000 0000
000000b0: 1b01 0000 1c01 0000 1a01 0000 1201 0000
000000c0: 1101 0000 1301 0000 1640 0000 0100 0000
000000d0: 1540 0000 0500 0000 1440 0000 0500 0000
000000e0: 1801 80ff 1401 0181 2101 0000 2001 0000
000000f0: 2201 0000 2501 0000 2601 80ff 2701 7f00

main_split_3_command_stream u1 [300]
67 79 80 49 1 0 16 0
8 48 0 16 0 0 6 16
5 0 0 0 5 0 0 0
5 0 0 0 2 0 67 0
35 1 0 0 15 1 1 0
0 64 0 0 240 0 0 0
1 64 0 0 0 0 0 0
2 64 0 0 0 0 0 0
3 64 0 0 0 0 0 0
11 1 0 0 12 1 0 0
10 1 0 0 4 1 0 0
6 64 0 0 1 0 0 0
5 64 0 0 1 0 0 0
4 64 0 0 1 0 0 0
9 1 128 255 5 1 1 0
7 1 0 0 0 1 0 0
1 1 0 0 3 1 0 0
2 1 0 0 31 1 1 0
16 64 0 0 210 0 0 0
17 64 0 0 0 0 0 0
18 64 0 0 0 0 0 0
19 64 0 0 0 0 0 0
27 1 0 0 28 1 0 0
26 1 0 0 18 1 0 0
17 1 0 0 19 1 0 0
22 64 0 0 1 0 0 0
21 64 0 0 5 0 0 0
20 64 0 0 5 0 0 0
24 1 128 255 20 1 1 129
33 1 0 0 32 1 0 0
34 1 0 0 37 1 0 0
38 1 128 255 39 1 127 0
00000000: 434f 5031 0100 1000 0830 0010 0000 0610
00000010: 0500 0000 0500 0000 0500 0000 0200 4300
00000020: 2301 0000 0f01 0100 0040 0000 f000 0000
00000030: 0140 0000 0000 0000 0240 0000 0000 0000
00000040: 0340 0000 0000 0000 0b01 0000 0c01 0000
00000050: 0a01 0000 0401 0000 0640 0000 0100 0000
00000060: 0540 0000 0100 0000 0440 0000 0100 0000
00000070: 0901 80ff 0501 0100 0701 0000 0001 0000
00000080: 0101 0000 0301 0000 0201 0000 1f01 0100
00000090: 1040 0000 d200 0000 1140 0000 0000 0000
000000a0: 1240 0000 0000 0000 1340 0000 0000 0000
000000b0: 1b01 0000 1c01 0000 1a01 0000 1201 0000
000000c0: 1101 0000 1301 0000 1640 0000 0100 0000
000000d0: 1540 0000 0500 0000 1440 0000 0500 0000
000000e0: 1801 80ff 1401 0181 2101 0000 2001 0000
000000f0: 2201 0000 2501 0000 2601 80ff 2701 7f00

main_split_4_command_stream u1 [300]
67 79 80 49 1 0 16 0
8 48 0 16 0 0 6 16
5 0 0 0 5 0 0 0
5 0 0 0 2 0 67 0
35 1 0 0 15 1 1 0
0 64 0 0 240 0 0 0
1 64 0 0 0 0 0 0
2 64 0 0 0 0 0 0
3 64 0 0 0 0 0 0
11 1 0 0 12 1 0 0
10 1 0 0 4 1 0 0
6 64 0 0 1 0 0 0
5 64 0 0 1 0 0 0
4 64 0 0 1 0 0 0
9 1 128 255 5 1 1 0
7 1 0 0 0 1 0 0
1 1 0 0 3 1 0 0
2 1 0 0 31 1 1 0
16 64 0 0 211 0 0 0
17 64 0 0 0 0 0 0
18 64 0 0 0 0 0 0
19 64 0 0 0 0 0 0
27 1 0 0 28 1 0 0
26 1 0 0 18 1 0 0
17 1 0 0 19 1 0 0
22 64 0 0 1 0 0 0
21 64 0 0 5 0 0 0
20 64 0 0 5 0 0 0
24 1 128 255 20 1 1 129
33 1 0 0 32 1 0 0
34 1 0 0 37 1 0 0
38 1 128 255 39 1 127 0
00000000: 434f 5031 0100 1000 0830 0010 0000 0610
00000010: 0500 0000 0500 0000 0500 0000 0200 4300
00000020: 2301 0000 0f01 0100 0040 0000 f000 0000
00000030: 0140 0000 0000 0000 0240 0000 0000 0000
00000040: 0340 0000 0000 0000 0b01 0000 0c01 0000
00000050: 0a01 0000 0401 0000 0640 0000 0100 0000
00000060: 0540 0000 0100 0000 0440 0000 0100 0000
00000070: 0901 80ff 0501 0100 0701 0000 0001 0000
00000080: 0101 0000 0301 0000 0201 0000 1f01 0100
00000090: 1040 0000 d300 0000 1140 0000 0000 0000
000000a0: 1240 0000 0000 0000 1340 0000 0000 0000
000000b0: 1b01 0000 1c01 0000 1a01 0000 1201 0000
000000c0: 1101 0000 1301 0000 1640 0000 0100 0000
000000d0: 1540 0000 0500 0000 1440 0000 0500 0000
000000e0: 1801 80ff 1401 0181 2101 0000 2001 0000
000000f0: 2201 0000 2501 0000 2601 80ff 2701 7f00

main_split_5_command_stream u1 [680]
67 79 80 49 1 0 16 0
8 48 0 16 0 0 6 16
5 0 0 0 5 0 0 0
5 0 0 0 2 0 162 0
35 1 0 0 15 1 1 0
0 64 0 0 240 0 0 0
1 64 0 0 0 0 0 0
2 64 0 0 0 0 0 0
3 64 0 0 0 0 0 0
11 1 0 0 12 1 0 0
10 1 0 0 4 1 0 0
6 64 0 0 1 0 0 0
5 64 0 0 1 0 0 0
4 64 0 0 1 0 0 0
9 1 128 255 5 1 1 0
7 1 0 0 0 1 0 0
1 1 0 0 3 1 0 0
2 1 0 0 31 1 1 0
16 64 0 0 212 0 0 0
17 64 0 0 0 0 0 0
18 64 0 0 0 0 0 0
19 64 0 0 0 0 0 0
27 1 0 0 28 1 0 0
26 1 0 0 18 1 0 0
17 1 0 0 19 1 0 0
22 64 0 0 1 0 0 0
21 64 0 0 5 0 0 0
20 64 0 0 5 0 0 0
24 1 128 255 20 1 1 129
33 1 0 0 32 1 0 0
34 1 0 0 37 1 0 0
38 1 128 255 39 1 127 0
00000000: 434f 5031 0100 1000 0830 0010 0000 0610
00000010: 0500 0000 0500 0000 0500 0000 0200 a200
00000020: 2301 0000 0f01 0100 0040 0000 f000 0000
00000030: 0140 0000 0000 0000 0240 0000 0000 0000
00000040: 0340 0000 0000 0000 0b01 0000 0c01 0000
00000050: 0a01 0000 0401 0000 0640 0000 0100 0000
00000060: 0540 0000 0100 0000 0440 0000 0100 0000
00000070: 0901 80ff 0501 0100 0701 0000 0001 0000
00000080: 0101 0000 0301 0000 0201 0000 1f01 0100
00000090: 1040 0000 d400 0000 1140 0000 0000 0000
000000a0: 1240 0000 0000 0000 1340 0000 0000 0000
000000b0: 1b01 0000 1c01 0000 1a01 0000 1201 0000
000000c0: 1101 0000 1301 0000 1640 0000 0100 0000
000000d0: 1540 0000 0500 0000 1440 0000 0500 0000
000000e0: 1801 80ff 1401 0181 2101 0000 2001 0000
000000f0: 2201 0000 2501 0000 2601 80ff 2701 7f00
