snn_models/n_mnist_qat_snn/784x64x64x10/model_state_dict.pkl (torch, 230011 bytes, 6 tensors)

linear_layers.0.weight f4 [64, 784]
00000000: e0d5 e2bd 91ed 99bd 3eeb 65be eac6 6ebe
00000010: 0d66 85be 83e4 4abe b82a 8ebe 5eb2 5cbe
00000020: 18f5 c0be 9b6d b4bd 429e 9cbe 765c 5dbe
00000030: 7589 64be 8cfe b7be 5c2b b7be a93e 8ebe
00000040: 2d46 95be c5ec a8bd 5715 27be 7705 80be
00000050: e9f3 18be afa6 1fbe e530 1ebe c731 21be
00000060: 78f0 08be 76f6 1cbe 43d0 03be ba46 edbd
00000070: b77d 28be fa88 32be 6eeb 71be 6179 78be
00000080: a953 5abe 8957 20be 84d6 49be b2f4 1abe
00000090: 4182 a8be a6ff 7bbe 5bda 7fbe e719 4ebe
000000a0: 1b36 29be 9bf8 5fbe 8e66 3abe b837 85be
000000b0: 44fa b4bd 9c58 00be cfc1 eabd b2d4 d6bd
000000c0: 234b fbbd 5755 edbd dcdd b3bd 20ac b4bd
000000d0: 4f7b ecbd eea2 2bbe a7e4 1ebe bede 87bd
000000e0: e479 06be 6544 00be f62a 28be 9720 a5be
000000f0: f4a2 9ebe 6123 75be e251 34be f49b 1cbe
00000100: 983f 4ebe 7c61 3dbe 4685 4dbe fc84 57be
00000110: f8a1 95be dbbd 39be 868f 6cbe 161c 15be
00000120: d473 39be d86b cabd df13 0ebe fa99 21be
00000130: 24ae a1bd cb3a 46be 1144 09be 4ea7 dbbd
00000140: d0ec 8bbd f8a4 d0bd 3018 18be d6d3 5abe
00000150: 6e15 c2bd 9dc9 cfbd e4b4 30be 9cf7 19be
00000160: a9fc f4bd 6d0d c1bd e85c 8bbd cf7b 0dbe
00000170: 16a2 cdbd 3b24 52be 48fe 39be 22e2 39be
00000180: 3ef1 6bbe 8c46 59be 49c2 5fbe dc10 06be
00000190: bd8c e0bd 49b1 15be 5f29 90bd 2ed0 97bd
000001a0: 93e3 69bd c468 b4bd fd84 82bd 925b c0bd
000001b0: b425 d4bc 1fb0 8dbc 1664 d0bd 6633 1cbe
000001c0: 0529 debd cc5b 2ebe c4dc 94bd d4eb acbd
000001d0: 9136 b8bd 7c94 98bd 6c40 a0bd 2248 0cbe
000001e0: eedb c9bd 3959 d6bd 8e78 00be 2aea 45be
000001f0: 6a57 10be de58 53be 7a07 37be 9292 24be
00000200: 16af bbbd 722b bfbd eba8 45bd d6d3 8dbd
00000210: 9c38 babc a806 9bbc 879f 74bd 3e79 d1bd
00000220: 9290 48bd e38e 17bd 7fc5 0fbe 2086 b4bc
00000230: 7d3f ebbd 7045 85bd 351d 0dbe 2d34 03be
00000240: c5d0 f9bd 5a84 c6bd dff3 a5bd 16b8 0abe
00000250: b5e0 f9bd a484 1cbe 3ce8 ecbd 35f4 0fbe
00000260: d3bd dcbd 4920 21be 9105 b8bd e093 e6bd
00000270: 432b f1bd 6e7b 84bd e981 77bd 0bb0 a6bd
00000280: 10dc e4bc a85d 6ebd c6d6 88bc c226 81bd
00000290: 07dd c6bb a419 5ebd 957a f7bc 3741 16be
000002a0: 19c9 20be 1bce e7bd 83ca cbbd 11a5 97bd
000002b0: e9cd 88bd 9cd1 7cbd 9d91 f6bd 4be6 cebd
000002c0: b846 f1bd def3 c0bd 5809 aabd 42fd d8bd
000002d0: e3a3 a5bd 844a c5bd 1645 99bd bab9 cbbd
000002e0: 58fe e8bd a689 4abd a0da 37bd 19f4 80bd
000002f0: c005 1bbd a319 06bd 63f5 76bd 8aa5 81bd
00000300: ea38 35bd 78f6 87bc 8981 a6bd a753 2dbc
00000310: 9035 a7bd 90ef e5bd 2a21 ffbd 7f0d 9dbd
00000320: 0dbb a7bd 10f1 88bd 9fc0 7ebd ea64 c4bd
00000330: f902 42bd 9b85 eebd a823 bcbd 62af e5bd
00000340: cffb 98bd 220e debd e1c4 cfbd b529 edbd
00000350: c97c 4dbd c7d4 a3bd 0076 93bd 8382 8abd
00000360: 7ccd 9ebd 407f 37bd faba 45bd 1831 7cbd
00000370: 2696 43bd e376 f1bc c6a0 32bd 69ec 98bd
00000380: 5f4b 1cbe ccee 88bd fb1a a9bd 0777 e3bd
00000390: 0f94 68bd 81ba cabd dd86 cfbd 718f 91bd
000003a0: 75af 90bd db64 53bd e62d d1bd 63ea 84bd
000003b0: 91cf 83bd c8b8 e4bd 6ec3 6dbd 9177 e7bd
000003c0: d7af 75bd 82a0 7bbd 3891 96bd 8390 9dbd
000003d0: 0444 95bd 681c 70bd 6112 51bc b087 fabc
000003e0: ae85 9dbd dc60 09bd 4c76 4ebd dae9 fcbd
000003f0: 713b bcbd 75c6 acbd 60f1 d8bd d5e2 a8bd
-0.1107595 -0.07516015 -0.22453019 -0.23318067 -0.2605442 -0.19813733 -0.27766967 -0.21552417
-0.37686992 -0.08809968 -0.3058949 -0.21617302 -0.2231806 -0.3593639 -0.35775268 -0.2778218
-0.29155102 -0.08248285 -0.16316734 -0.2500417 -0.14936794 -0.15590928 -0.1544834 -0.15741645
-0.13372982 -0.15328392 -0.12872414 -0.11585756 -0.16454206 -0.17435065 -0.23624966 -0.24265052
-0.21320976 -0.15658392 -0.19710737 -0.15132406 -0.32911876 -0.24609241 -0.2498564 -0.20127068
-0.16524546 -0.21872179 -0.18203184 -0.26019073 -0.08836797 -0.12533802 -0.11462747 -0.10489787
-0.122701906 -0.11588543 -0.08782551 -0.08821893 -0.11546957 -0.16761371 -0.15516911 -0.066342816
-0.13132435 -0.1252609 -0.16422638 -0.32251427 -0.30983698 -0.23939277 -0.17609361 -0.15293866
-0.20141447 -0.18494219 -0.20070371 -0.21046823 -0.29225135 -0.1813883 -0.23101625 -0.14561495
-0.18110591 -0.09883851 -0.13874768 -0.15781394 -0.07894543 -0.19358365 -0.13404872 -0.1072527
-0.06832278 -0.10187715 -0.14852977 -0.21369871 -0.09476744 -0.101458766 -0.17256504 -0.15035862
-0.119622536 -0.09426389 -0.0680483 -0.1381676 -0.10040681 -0.20521633 -0.18163407 -0.18152669
-0.23041245 -0.21218318 -0.21851458 -0.13092369 -0.10964344 -0.1461841 -0.07039141 -0.07412754
-0.057101797 -0.08809045 -0.06373022 -0.09392466 -0.025896885 -0.017295895 -0.1017534 -0.15253982
-0.108476676 -0.17027205 -0.0726867 -0.08443418 -0.08994783 -0.07450196 -0.078247875 -0.13699391
-0.098564014 -0.104662366 -0.12545988 -0.19327608 -0.14095846 -0.20639369 -0.17873946 -0.16071537
-0.09164254 -0.093344584 -0.048256796 -0.0692517 -0.022732072 -0.018924072 -0.05972245 -0.10228203
-0.048965998 -0.0370015 -0.14040183 -0.022036612 -0.11486719 -0.06507385 -0.13780673 -0.12812872
-0.12198023 -0.09693213 -0.08103155 -0.13546786 -0.122010626 -0.15284973 -0.11567733 -0.14058001
-0.107783936 -0.15734972 -0.08985437 -0.11258674 -0.1177583 -0.06468855 -0.060426626 -0.08139046
-0.027936965 -0.058194786 -0.016703974 -0.063062206 -0.006068829 -0.05422367 -0.030209819 -0.14673315
-0.15701713 -0.113186084 -0.099507354 -0.07404531 -0.06679899 -0.061723337 -0.12039492 -0.10102519
-0.11781067 -0.09421514 -0.083025634 -0.1059518 -0.080878995 -0.09633353 -0.0748388 -0.09947534
-0.11376637 -0.049447678 -0.04488623 -0.06296558 -0.03784728 -0.032739293 -0.060292613 -0.06330402
-0.04424373 -0.016597018 -0.081301756 -0.010579026 -0.08164513 -0.112273335 -0.124574974 -0.0766859
-0.08189974 -0.06686604 -0.062195417 -0.0958956 -0.047366116 -0.11646577 -0.091864884 -0.11215092
-0.07469904 -0.10842539 -0.101449735 -0.115802206 -0.050167833 -0.079995684 -0.07200241 -0.067631744
-0.07754037 -0.04479909 -0.048274018 -0.061570257 -0.047750615 -0.029475635 -0.043610357 -0.07466967
-0.15263127 -0.06686172 -0.08257099 -0.11106687 -0.056781825 -0.09898854 -0.10133145 -0.071074374
-0.07064716 -0.051609855 -0.102138326 -0.06490018 -0.064360745 -0.11168057 -0.058047704 -0.11302102
-0.059982147 -0.06143237 -0.07351917 -0.07693579 -0.072883636 -0.05862084 -0.0127607295 -0.030582279
-0.07691513 -0.033539638 -0.050405785 -0.12349291 -0.09191025 -0.0843629 -0.10592914 -0.0824639

linear_layers.0.bias f4 [64]
00000000: 590e 42be a0ae 84be 7aff 383e 1631 83be
00000010: a0c7 84be 24e4 7ebe 5514 fa3c 03b9 b93e
00000020: 1886 a5be 5883 5dbe bd98 d23e 785c 95be
00000030: bedd 53be 1740 3fbe e59e 9a3d 6e6a 3bbe
00000040: 3653 71be 23ec 97be 34a2 a9be 02ca 60be
00000050: c25e 75be 6319 e63c 8ba3 8dbe a41f 65be
00000060: 29aa 22be 1ded cc3d e1b4 e03e c963 aabe
00000070: b222 c0be 969b 9fbe 1cf5 88be acc9 613e
00000080: 398b a8be 8745 1ebe 1367 8abe 95a0 573d
00000090: eaf2 99be e780 61be 052e a0be ffd7 64be
000000a0: 18b2 a63e c64b bfbe 17b3 61be c188 83be
000000b0: 5300 68bd a556 52be 91a6 ebbe be51 223e
000000c0: b896 89be 6a00 b7be 5bc7 debc 6f40 a4be
000000d0: 5f19 86be b421 de3c db3d 93be 36a7 70be
000000e0: 4f84 3cbe aad4 7cbe 0f35 33be f1e7 3d3e
000000f0: 3dab 88be 1ab4 54be f8b2 ba3d cad3 88be
-0.18950786 -0.25914478 0.18066207 -0.25623387 -0.25933552 -0.24891716 0.030527273 0.36273965
-0.32328868 -0.21632135 0.41132155 -0.2917211 -0.20690057 -0.18676792 0.07549838 -0.18302318
-0.23566899 -0.29672346 -0.33131564 -0.2195206 -0.23961928 0.028088277 -0.27663836 -0.22375351
-0.15885223 0.10006163 0.43888 -0.33279255 -0.3752647 -0.3117339 -0.26749504 0.22049588
-0.32918718 -0.1545621 -0.27031764 0.052643377 -0.3006814 -0.22021829 -0.3128511 -0.22348021
0.3255775 -0.37362498 -0.22040974 -0.25690272 -0.056640934 -0.20540865 -0.46025518 0.15851495
-0.26872802 -0.35742503 -0.02719467 -0.3208041 -0.26191232 0.02711568 -0.2875813 -0.23501286
-0.18409847 -0.246905 -0.17500709 0.1854551 -0.26693144 -0.20771828 0.09116167 -0.26724082

linear_layers.1.weight f4 [64, 64]
00000000: 2098 f03d fcda 9abd 8916 c2be f634 d03d
00000010: 9967 a0bd 9645 02bc 872b 2cbf 853e e3bf
00000020: 6404 bcbd 303b 863d 347f b3bf 8e22 893c
00000030: d953 9fbd d233 1ebd 182d ecbe 5d04 fe3d
00000040: 156e 98bd ae86 493d 804a bbbd cb5c 06be
00000050: 709f d9be 923b 03bf fd1f c03a ac3e 883c
00000060: 9708 993c 4edf aebe f7c7 c0be 6815 df3d
00000070: 3a7d d2be 71a2 a23d 295d 62bd 401a f5be
00000080: 4d7d 25bd bb26 5dbe 904d 32bd de26 76bf
00000090: 64a1 883d 1364 183d 9948 a83d 6787 c6be
000000a0: f558 a7bf e4b1 d93d f2c1 033e c1da 873d
000000b0: d425 f3be 44c5 83bd dc8a 98bd 7482 15bf
000000c0: 7599 cdbb 34e1 dbbd 9581 47be ed73 803d
000000d0: e4a9 083d 9ef4 b2be ff75 053e 819b 283d
000000e0: e008 a8bd 10ce 3b3c cc93 853d 4fda f6be
000000f0: 8b34 863d 2d6d 1e3d 9ea9 7cbf 1a6e 2b3c
00000100: 1fbd 5dbd f019 30bd 032b 5e3d d5d1 453d
00000110: 6b69 013e 6d9b b23d 1cc8 b0bd 02c8 8fbf
00000120: 0f80 58bb 965e ebbd 2ed5 86bf e170 a8bc
00000130: 6461 893c bbd3 55bd 8eac 9e3d b9d7 8e3d
00000140: 48ee 133d 882a 23bd 50b1 37bc 05cd c93d
00000150: f1cf bfbe 2f87 e5be f93c ac3d a669 953d
00000160: e2d4 0d3c 6c3e 89be 99a3 fcbe bf5f d0bd
00000170: 2892 cfbd a0a3 ad3c f3c5 79bd 5d34 36bf
00000180: 8147 8bbd efd7 58be 4c1f 80bd 70c0 7dbd
00000190: f5a8 fbbd 4fbb b93c ad67 ed3d 0b78 18bf
000001a0: 3055 06bf 09dd 60bd d955 fa3d b3dc d0bd
000001b0: d74a 11be 5c34 86bd dfa3 6bbd df79 88be
000001c0: 099a 793d 5830 223d 4fb4 253d 0708 c4bd
000001d0: 6012 58bd c6f6 89bb 182f 7f3d c573 5a3d
000001e0: 1df6 9c3c 8795 e53d cbd2 953c 6016 94be
000001f0: df74 6e3d e558 a4bd c945 d3bc 900e dc3d
00000200: 552d 6b3d 21a0 ccbd 8dda cd3e b391 963d
00000210: 2377 e03d d2f4 2b3d b5ae 33be d368 f0bd
00000220: 0839 87bd c2a1 d2bd 1e96 88bf 1989 04be
00000230: d167 9c3d fabb a9bd e0d7 37bb 9f37 f23d
00000240: 2487 23bd 42e0 81bd a073 ec3c 2596 843c
00000250: 9dd5 20bf 49b2 03bf 3626 98bd 21a0 dabc
00000260: 9a9e d43c 2f04 ecbe 4653 6ebd 505d 5f3b
00000270: d9a3 b3be b413 a33d 96ae 84bd fbec d7be
00000280: b256 583c ad49 81be 8ed3 803d 73b8 9bbe
00000290: f8fe d93d f55e 063d 14ba 753c a44e 0fbf
000002a0: 61e8 e33e c00c 323c aec7 f838 c330 5bbd
000002b0: 9edc d0be c970 c13d c75f d53d 55ed ecbe
000002c0: 8123 9f3d b689 b5bd eea4 923e 5082 4bbd
000002d0: dc06 643d e115 f53e 50c2 afbb 0167 1e3d
000002e0: 9e47 48bc 5490 ae3d f0bd c3bd 0fd3 f8be
000002f0: d317 e2bd 2943 d13d ec32 84be 9249 5fbd
00000300: a252 6c3d e9b6 873c 78ed 35bc adae 0a3d
00000310: 2c1a 64bc fad7 233d 4651 2bbf 7edd a2bf
00000320: 7b6d 073d 9d57 763b 81fe 98bf 91c1 d83b
00000330: 9a6f 753d 8280 6c3d 1fb2 96be 1fc6 ecbc
00000340: a509 163d 36dd d33c 7085 003c 0465 c53d
00000350: 2688 11bf 9259 bebe 81d4 583c bd22 b6bd
00000360: 8b76 633d a342 7e3d 641d dabe f99b b4bd
00000370: 0081 3dbf bea6 4cbd a6e6 a0ba 4b1c ffbe
00000380: dcc7 bf3d 2528 f1be c473 b33d 1946 46bf
00000390: d0af cc3c e9e0 e4bd c1f4 763d d4c7 15bf
000003a0: a1bc 43be 5ce4 733c 01fa c9bc ed25 943d
000003b0: ee62 fcbd 1839 1f3c 282e 223d b258 3cbe
000003c0: b1da e93d 2235 afbd 2efa 463e b699 d63d
000003d0: 9420 59bd 68d7 3f3e 2574 96bd 4bdd ecbd
000003e0: 1836 a2bd 0c36 793d c66a 313d c7ef b5be
000003f0: dab0 c0bc 82d0 973d 0cce 873d 6310 5f3d
0.117477655 -0.07561299 -0.37907818 0.101663515 -0.0783226 -0.007951161 -0.6725392 -1.7753454
-0.09180525 0.06554258 -1.4023194 0.01674011 -0.077796645 -0.03862364 -0.46128154 0.12403176
-0.074428715 0.049200706 -0.09145069 -0.13121335 -0.42504454 -0.5126277 0.0014657971 0.016631447
0.018680854 -0.34154743 -0.3765256 0.10892755 -0.41111165 0.079411395 -0.055264626 -0.4787159
-0.0404027 -0.21596806 -0.043531 -0.96153057 0.06671408 0.037204813 0.08216972 -0.3877518
-1.3074023 0.10629633 0.12866953 0.06633521 -0.47489798 -0.0643411 -0.0744836 -0.5840218
-0.006274397 -0.107363135 -0.19483025 0.06272111 0.033365145 -0.34952253 0.13033293 0.041163925
-0.08204818 0.011462703 0.06522331 -0.4821343 0.065529905 0.038678337 -0.98696315 0.010463262
-0.054135438 -0.042993486 0.054240238 0.048295815 0.1263787 0.08721051 -0.08631918 -1.1232913
-0.0033035313 -0.1149265 -1.0533807 -0.020561637 0.016770072 -0.052203875 0.07747756 0.069747396
0.036115915 -0.039835483 -0.011211708 0.098535575 -0.37463334 -0.448297 0.08410067 0.072955415
0.008656712 -0.26805437 -0.49343565 -0.10174512 -0.10135299 0.021196187 -0.060979795 -0.7117365
-0.06800748 -0.21176122 -0.062559694 -0.0619511 -0.12288085 0.022672324 0.1159204 -0.5955817
-0.52473736 -0.054898296 0.122234054 -0.10198345 -0.14188705 -0.065529555 -0.057529327 -0.2665548
0.060937915 0.039596885 0.04045516 -0.095718436 -0.0527519 -0.004210326 0.06230077 0.053333063
0.019160325 0.11210161 0.01828899 -0.2892332 0.058216926 -0.08024768 -0.025790112 0.10744965
0.05741628 -0.0999148 0.40205804 0.07352009 0.109602235 0.041981526 -0.17547114 -0.11738744
-0.06602675 -0.10284759 -1.0670812 -0.12942924 0.07636989 -0.08287807 -0.0028052256 0.11827015
-0.039923802 -0.06341602 0.028863728 0.016184876 -0.6282595 -0.51443917 -0.07429163 -0.026687684
0.025954533 -0.46096942 -0.058184884 0.0034082718 -0.35085943 0.079627424 -0.06478612 -0.4217299
0.0132042635 -0.25251523 0.06290351 -0.3041416 0.106443346 0.0328054 0.014997978 -0.5597937
0.4451323 0.010867298 0.00011862755 -0.0535133 -0.40793318 0.0944534 0.10418659 -0.4627482
0.07770444 -0.08864157 0.28641456 -0.049684823 0.055670604 0.47868255 -0.00536374 0.03867245
-0.012224106 0.08523622 -0.09557712 -0.48598525 -0.110397 0.10217888 -0.258201 -0.05451352
0.057695992 0.01656671 -0.01110398 0.03385799 -0.0139222555 0.040000893 -0.6692089 -1.2723844
0.033063393 0.0037588843 -1.1952668 0.006614872 0.059920885 0.057739742 -0.2943277 -0.028903065
0.03663029 0.025862318 0.007844314 0.09638408 -0.5684837 -0.37177712 0.013234259 -0.088933446
0.055532973 0.06207527 -0.42600548 -0.08818812 -0.74024963 -0.049963705 -0.001227577 -0.49826273
0.09364292 -0.4710094 0.08762315 -0.7745071 0.024986178 -0.11175711 0.06029201 -0.5850804
-0.19114925 0.014885988 -0.024655344 0.07233796 -0.12323557 0.009718202 0.0395948 -0.1839321
0.11418665 -0.08555056 0.19431373 0.10478537 -0.053009585 0.18734515 -0.073463716 -0.11565646
-0.07920474 0.06084256 0.043314718 -0.35534498 -0.02352183 0.074128166 0.06631097 0.054458987

linear_layers.1.bias f4 [64]
00000000: a745 24bf f54f d3be 83bd 12be 92d5 febe
00000010: 906b 48bf 8dc4 47bf 6a8a babe cf19 65be
00000020: 65eb c3be c2b7 34be 5b62 c43d 9d32 1dbf
00000030: 9a98 e4be 049c cbbe ed5a 36bf 7040 0dbf
00000040: 1ffc c8bd dc21 2ebf 99ff 843d cf8c 1fbf
00000050: dfc0 05bf 7814 90be da81 4fbf 896a 19bf
00000060: 5027 5fbf affb c3be 3d80 0ebf db14 24be
00000070: ae85 bebe 64ad 06bf dbf7 1cbf ae60 33bf
00000080: 74c9 eebe 7cbe 3bbf b6ed adbd 7994 01bf
00000090: f38e 11bf c6c1 09bf e84c 3bbf d209 42bf
000000a0: 7f75 98be 81e9 02bf c9d5 bebe 2ebc 18bf
000000b0: 358a 35be 77e6 34bf e95f 04bf 5572 35bf
000000c0: 8253 29bf 28d4 9b3e 13e5 22bf 4676 01bf
000000d0: 301c 19be 7f97 6ebe 0208 0fbf c8e5 0abe
000000e0: 34e8 d43d 15fe eb3b eb26 eabe 3472 08bf
000000f0: ad92 2ebf 5057 96be b95e 07bf 6211 02bf
-0.6416878 -0.4127194 -0.14330105 -0.49772316 -0.7828913 -0.7803429 -0.36433727 -0.22373126
-0.3826553 -0.17648223 0.09589072 -0.61405355 -0.44647676 -0.39767468 -0.7123249 -0.5517645
-0.09813713 -0.68020415 0.06494064 -0.6232423 -0.5224742 -0.28140616 -0.8105751 -0.59928185
-0.8716936 -0.38277957 -0.55664426 -0.1602358 -0.37211365 -0.52608323 -0.613157 -0.70069396
-0.46638072 -0.7333753 -0.084926054 -0.50617176 -0.5685875 -0.538113 -0.73164225 -0.75796235
-0.29777142 -0.5113755 -0.3727248 -0.5966214 -0.17728503 -0.7066416 -0.5170885 -0.7087758
-0.6614305 0.304353 -0.6363079 -0.50571096 -0.14952159 -0.23299979 -0.55871594 -0.13564217
0.10395852 0.00720192 -0.45732817 -0.5329926 -0.6819256 -0.2936349 -0.5287891 -0.50807774

linear_layers.2.weight f4 [10, 64]
00000000: fc11 2e3d c800 d13d 94fd 39bf 40f1 d6be
00000010: c312 04bd b470 333d bbee b6bd a774 82bf
00000020: 836c f2bc 494a 3dbf b92b 6abf a821 3ebc
00000030: c08b 4a3d 3477 4ebe d40e e3bd 1726 4cbc
00000040: 6f88 d3be 0582 86be 66df b93e 58cd 0b3c
00000050: da6e 7fbe cdbe 67bf 260e 0c3d dc51 49be
00000060: 7c5e 29bd b4e3 83bd bf73 553e 5bd4 ec3d
00000070: c26c a2bf fe26 25be 9381 583e 23bb b23c
00000080: c868 94be 89d0 ca3d 1eaa 65bf ea58 5a3e
00000090: 95ef 45be b611 05be 2891 66bd fb67 f3bd
000000a0: 2447 8fbe d2cb 8638 83cd 03bd a7ce 30bc
000000b0: 2be5 0bc0 9f83 3cbe 1f73 85be 340b b2bd
000000c0: 1139 423e 0d74 98bf f1e3 71be 1d50 5e3e
000000d0: 6d8c 133f aa78 49bf 9d1d 6abe 34d2 b1bf
000000e0: 6ec5 32bf a004 01c0 5404 afbd 4d2e ee3d
000000f0: 104f fdbd c357 5bbe d256 60bd 4200 0bbe
00000100: 281f 12bd 8287 0ebe 39ce 833e 99de 8dbe
00000110: 1249 8c3d 9a7e 763d 52f1 0abe 694e c7bf
00000120: 92e6 8dbe 4673 a5bf 34de 84bf 4cf1 fa3c
00000130: 71b4 e2bc 23d6 2e3e 30d5 3a3d 2fce b93c
00000140: a622 dfbe aaa5 2dbe b216 7ebf 3fa3 543b
00000150: cef1 633e b257 8fbf b65d 613d c365 1cbe
00000160: 581e 7dbd 424e d8bd 1e8f 383e 74b6 f3be
00000170: f20b e0bf c3f5 e2bc fa36 93be 085d a23d
00000180: 2502 b1bd 19d3 19be 7d0b ffbd f597 2d3e
00000190: 1bf9 97be db47 453e a0ae 81bd 75a3 763d
000001a0: fbbd 773e 27b5 0fbe e7bc 163d 454e 0b3d
000001b0: 0dba 86bf 4f04 fbbd db47 65be 66a0 ffbd
000001c0: 92ff 84be 7ba1 803e 571c 26be 5d48 173e
000001d0: 652c f9be 5660 83bf 594e 60be a60e 54be
000001e0: 1c89 d4be 5f81 3b3f 2e77 7e3c 47d1 4abd
000001f0: bf7e 94ba 7c4a 383d 68cb 07be d8eb 243e
00000200: e6cb c93d 2f8a 943e 217a 583e 6956 be3d
00000210: 937a fc3d 18bc ecbd 225a bcbd 7230 84bf
00000220: 7e57 7f3e 73cf c43e 881f 75bf dc1c 003c
00000230: 5273 093c 62be 57be f4ea 663d 4f78 f6bc
00000240: b2d2 a6be 3c06 34be 2364 44bf 0391 c33c
00000250: 2405 583d 1e94 dc3e 267d d93c 1c66 823d
00000260: faf0 d6bd 63ce 75bd eb4b 97bd bc7f 6cbe
00000270: 9955 65be e14a 183e 606f 93be 3930 f5bd
00000280: 9d3e 313e 1108 4c3e b89b 9bbf 7562 dc3d
00000290: f6af 223d cb5c 0a3b b8b4 d93c 29b4 a23d
000002a0: 23ca b0bd af8e eb3d 0254 b9bd 957c d6bd
000002b0: 887e 9fbf 4f24 08bd 96f5 82be 2067 03be
000002c0: fe63 f1bd ef22 4ebf 9e2c 863d e554 07be
000002d0: 2885 163e b645 9cbf b9b7 b03e 25ca a5bf
000002e0: 9e1e 413f 099c f8be 88c3 b33d dc86 733d
000002f0: 83de 21ba c6cf d7bc de3d 693d 2fdf 56be
00000300: 5450 2bbd a2bf 6fbe 8046 1fbd d1c6 8bbe
00000310: b9a9 863d a6cd d1bd 7d34 813d a012 bd3e
00000320: f5b7 f73d b044 d1bf a25d 52bd 7fcd 133c
00000330: 6a5d e3bc 2981 0a3e 4c3b ba3d 21b3 f2bd
00000340: f7b8 09bf 7eba 2abe 1dca 64bf a62f 89bc
00000350: 9ea3 d93d 8f2a cb3e 4356 843d cdda 24be
00000360: 0086 2f3b 8c3f 6abd a527 07be 1253 123d
00000370: 4ba2 33bf 739f 7d3d 07a0 48be edfc e03a
00000380: 472d 80be 856a c03d 45af 95bf 9dd5 30be
00000390: 4d60 9e3e ab15 803d c8e3 4d3d f25b e43b
000003a0: bd6c 3dbe e2b8 b8bd cd05 bc3d efe4 17be
000003b0: 72d2 09c0 e750 92bd 7b49 05be 61a5 493d
000003c0: e326 d63d a692 c9bf 5a66 44bd 52e1 33be
000003d0: 14f2 0ebf b851 52bf 91dd e13c 8242 b8bd
000003e0: c4a1 9a3d 6cac 2bbe c711 a6bd f49b aa3d
000003f0: 4f27 05be afa8 5abe 403d e83d 886c 2cbd
0.04249762 0.10205227 -0.72652555 -0.41980934 -0.032244455 0.043808654 -0.08932253 -1.019185
-0.029592758 -0.73941475 -0.91472965 -0.011604704 0.049449682 -0.2016266 -0.110868126 -0.012460253
-0.41315028 -0.26271072 0.36303252 0.0085328445 -0.2494463 -0.90525514 0.03419318 -0.19660133
-0.041349873 -0.06439915 0.20844935 0.11563941 -1.268944 -0.16128156 0.21143179 0.02181775
-0.28986192 0.09903056 -0.89712703 0.2132298 -0.19329675 -0.12995037 -0.056290776 -0.11885067
-0.27983963 6.4275824e-05 -0.032178413 -0.010791457 -2.1858623 -0.18409584 -0.26064393 -0.08693543
0.18967082 -1.1910416 -0.23622109 0.21710248 0.5763615 -0.78699744 -0.22862859 -1.3892274
-0.69832504 -2.0159073 -0.085457474 0.11629925 -0.123685956 -0.21420197 -0.0547703 -0.13574317
-0.035674244 -0.1391888 0.25743273 -0.2770889 0.068498746 0.06017933 -0.13568619 -1.5570804
-0.27714974 -1.2925804 -1.0380311 0.030632637 -0.027673932 0.17073874 0.045613468 0.022681324
-0.43581122 -0.16957727 -0.9925338 0.0032445935 0.2226021 -1.1198637 0.05502101 -0.15273194
-0.061796516 -0.105618015 0.18023345 -0.47600138 -1.7503645 -0.027705079 -0.2875288 0.079279006
-0.08642987 -0.15021934 -0.12453363 0.16952498 -0.2968224 0.19265692 -0.06332135 0.06021448
0.24193566 -0.14033948 0.036801245 0.03401019 -1.0525528 -0.12256681 -0.22390692 -0.124817654
-0.25976235 0.251232 -0.16221748 0.14773698 -0.48666683 -1.0263774 -0.21904887 -0.20708713
-0.41510856 0.7324428 0.015531344 -0.04951599 -0.0011329277 0.04499291 -0.13261187 0.16105592
0.09853344 0.29011676 0.21140338 0.09293825 0.12328067 -0.115593135 -0.09196879 -1.0327284
0.2493572 0.3843952 -0.9575124 0.007819381 0.008389311 -0.21068719 0.056376413 -0.030086664
-0.32582623 -0.17580503 -0.76715297 0.023872858 0.052739277 0.43081754 0.026548933 0.06367132
-0.104951814 -0.06001128 -0.07387527 -0.23095602 -0.22395934 0.14872314 -0.2879591 -0.11972088
0.17309041 0.19924952 -1.2156897 0.10760967 0.03971859 0.0021112438 0.026575431 0.07944519
-0.086323045 0.11501824 -0.09049226 -0.10472981 -1.2460489 -0.03323775 -0.25577992 -0.12832308
-0.1178665 -0.80522054 0.06551479 -0.13215978 0.14699233 -1.2208774 0.3451517 -1.2952315
0.75437343 -0.48556545 0.08777529 0.059454784 -0.00061748194 -0.026344191 0.056943767 -0.20983575
-0.041824654 -0.23412946 -0.038885593 -0.27300122 0.06575341 -0.102443025 0.063088395 0.36928272
0.12095634 -1.6349087 -0.051358826 0.009021162 -0.027754504 0.13525833 0.09093341 -0.118505724
-0.5379786 -0.16672704 -0.893709 -0.016746353 0.106269106 0.39680907 0.064617656 -0.16099091
0.002678275 -0.05718951 -0.13198717 0.035723753 -0.70169514 0.06191964 -0.19592296 0.0017165222
-0.25034544 0.09395317 -1.1694113 -0.17268987 0.30932847 0.06254133 0.050266057 0.0069689685
-0.18498512 -0.090196386 0.09180794 -0.14833425 -2.1534696 -0.07144337 -0.13016312 0.049229983
0.10456636 -1.5747879 -0.047949173 -0.17566422 -0.5583813 -0.8215594 0.027571471 -0.0899706
0.075503856 -0.16764992 -0.081088595 0.08330527 -0.13003276 -0.2135341 0.113398075 -0.04209569

linear_layers.2.bias f4 [10]
00000000: 4fa7 ad3d d0f4 3b3d 3c90 6e3d 19c6 b33d
00000010: 5f44 a43d a62f ad3d 3332 a2bd 164b 2abd
00000020: 7c86 103e a4ec 9c3d
0.08479177 0.04588777 0.05824302 0.087780185 0.08020853 0.08456354 -0.07919731 -0.041575514
0.14113802 0.07662323
