python_models/matmul_test/saved_models/tflite_model/tflite_model.tflite (tflite, 792040 bytes, 1 tensors)

sequential/dense/MatMul1 i1 [1008, 784] scale=0.00045561884 zero_point=0
0.048751216 0.023236562 0.024147797 0.025970273 -0.005923045 -0.010934852 -0.047839977 -0.045561884
-0.0036449507 -0.057407975 -0.005467426 -0.0068342825 0.023236562 -0.042828172 -0.019135991 -0.032804556
-0.015035422 0.03462703 -0.02369218 0.005923045 0.050118074 -0.0063786637 -0.028248368 -0.056041118
0.010479233 0.056041118 0.047839977 0.0031893319 -0.051484928 0.026425892 -0.036905125 0.038271982
-0.049206834 -0.033260174 0.04738436 0.04692874 0.005011807 -0.057407975 -0.030526463 0.041005693
0.03189332 0.044650644 0.049206834 -0.033260174 0.010023614 0.055585496 -0.026425892 -0.048751216
-0.00045561884 -0.012301709 -0.018224753 -0.0314377 -0.047839977 0.020047229 0.056952354 -0.036905125
-0.008656758 0.04237255 0.002733713 -0.030526463 -0.047839977 -0.037816364 0.05102931 -0.024603417
-0.047839977 -0.044650644 0.0031893319 0.03462703 0.052851785 0.05102931 0.029159606 -0.037360743
0.044195026 0.0314377 0.0036449507 0.032804556 0.0022780942 -0.012757327 0.03098208 -0.005467426
-0.02369218 0.012757327 -0.041005693 0.012301709 -0.029159606 0.018224753 0.051940545 -0.017313516
-0.040094458 0.045561884 -0.03234894 -0.049206834 -0.052851785 0.005467426 -0.020047229 -0.054218642
0.04237255 -0.008656758 -0.0031893319 0.055585496 0.03918322 0.0022780942 0.022325322 -0.0022780942
-0.012301709 -0.0022780942 -0.00045561884 0.036905125 0.005011807 0.038271982 -0.045561884 -0.050118074
0.030070843 -0.03462703 0.036449507 -0.04328379 0.0460175 0.053763025 -0.03963884 0.0045561884
0.018224753 -0.03098208 -0.012301709 -0.0063786637 0.051484928 -0.03553827 -0.01594666 -0.041005693
-0.022325322 -0.020958466 0.03963884 -0.005011807 0.0387276 -0.005923045 0.04237255 -0.045106266
0.048295595 0.02733713 -0.04373941 -0.025970273 -0.028703988 0.022325322 0.047839977 -0.051940545
0.041005693 0.056496736 -0.025514655 0.014579803 -0.053307403 -0.008201139 0.03963884 -0.057407975
-0.002733713 0.005467426 0.005011807 0.022780942 0.009112377 0.050118074 -0.048751216 -0.048751216
-0.014579803 0.021869704 -0.022780942 -0.010479233 0.056041118 0.037360743 0.032804556 -0.048295595
-0.012301709 0.052851785 0.019135991 -0.051940545 -0.051940545 -0.0063786637 -0.044195026 -0.033715792
-0.05102931 0.013212946 0.04373941 0.048295595 0.005011807 0.053307403 -0.03189332 0.016857896
0.01959161 -0.04328379 -0.020047229 0.04692874 0.0031893319 -0.0068342825 -0.03918322 -0.0387276
0.033260174 -0.0387276 0.025514655 -0.002733713 0.03963884 -0.045106266 0.025970273 0.0036449507
-0.052396167 0.025970273 -0.045561884 -0.033715792 0.053763025 -0.0022780942 0.03553827 -0.037816364
0.0013668565 0.055585496 -0.054218642 0.013668565 0.041916933 -0.013668565 0.044195026 0.019135991
-0.037360743 -0.017769136 -0.024147797 0.03462703 0.018224753 0.045561884 0.04373941 0.0068342825
0.034171414 0.044650644 0.045106266 0.038271982 -0.0031893319 -0.009567996 -0.040550075 0.0041005695
-0.03918322 0.016857896 0.018680371 0.009567996 0.0041005695 0.00774552 0.049206834 -0.028248368
-0.046473123 -0.010023614 -0.020047229 0.015035422 0.052396167 0.048751216 0.044195026 -0.018224753
-0.020502847 -0.032804556 0.048295595 0.04237255 0.054218642 -0.013668565 -0.04692874 -0.01549104
00000000: 6b33 3539 f3e8 979c f882 f4f1 33a2 d6b8
00000010: df4c cc0d 6ef2 c285 177b 6907 8f3a af54
00000020: 94b7 6867 0b82 bd5a 4662 6cb7 167a c695
00000030: ffe5 d8bb 972c 7daf ed5d 06bd 97ad 70ca
00000040: 979e 074c 7470 40ae 6145 0848 05e4 44f4
00000050: cc1c a61b c028 72da a864 b994 8c0c d489
00000060: 5ded f97a 5605 31fb e5fb ff51 0b54 9c92
00000070: 42b4 50a1 6576 a90a 28bc e5f2 71b2 dda6
00000080: cfd2 57f5 55f3 5d9d 6a3c a0c7 c131 698e
00000090: 5a7c c820 8bee 5782 fa0c 0b32 146e 9595
000000a0: e030 cee9 7b52 4896 e574 2a8e 8ef2 9fb6
000000b0: 901d 606a 0b75 ba25 2ba1 d467 07f1 aaab
000000c0: 49ab 38fa 579d 3908 8d39 9cb6 76fb 4ead
000000d0: 037a 891e 5ce2 612a aed9 cb4c 2864 600f
000000e0: 4b62 6354 f9eb a709 aa25 2915 0911 6cc2
000000f0: 9aea d421 736b 61d8 d3b8 6a5d 77e2 99de
