snn_models/n_mnist_qat_snn/784x16x16x16x16x16x16x16x16x10/model_params/fc_lif_layer_6_weights.npy (npy, 1152 bytes, 1 tensors)

array f4 [16, 16]
0	0x3e3e9ec7	0.18615256
1	0xbde0d589	-0.109782286
2	0xbd4d4888	-0.050118
3	0xbe3c2d27	-0.18376599
4	0x3dea9c09	0.114555426
5	0xbdd70f08	-0.10500914
6	0xbe151326	-0.14558086
7	0xbe4d4888	-0.200472
8	0xbcc38208	-0.023865715
9	0x3e570f08	0.21001828
10	0x3dbe9ec7	0.09307628
11	0x3da14b46	0.078756854
12	0x3cc38208	0.023865715
13	0x3e39bb87	0.18137942
14	0x3d08db05	0.033412
15	0x3e7bb76a	0.24581686
16	0x3d746289	0.059664283
17	0x3cd70f08	0.026252285
18	0xbd8dbe45	-0.06921057
19	0xbe1c6806	-0.15274057
20	0x3d438208	0.04773143
21	0xbe1c6806	-0.15274057
22	0xbe0b4ca5	-0.13603456
23	0xbe28a026	-0.16467342
24	0x3e2b11c7	0.16706
25	0xbe60d589	-0.21956457
26	0xbe3c2d27	-0.18376599
27	0x3e570f08	0.21001828
28	0x3dc38208	0.09546286
29	0x3e746289	0.23865713
30	0xbdab11c7	-0.08353
31	0x3e3c2d27	0.18376599
32	0xbe5980a8	-0.21240485
33	0xbe486548	-0.19569886
34	0xbd12a186	-0.035798572
35	0xbe549d68	-0.2076317
36	0xbdfe290a	-0.12410171
37	0xbdd70f08	-0.10500914
38	0x3de5b8c9	0.112168856
39	0xbc438208	-0.011932857
40	0x3e0dbe45	0.13842113
41	0xbe634729	-0.22195114
42	0x3e3266a7	0.17421971
43	0x3d7e290a	0.062050857
44	0x3e76d429	0.2410437
45	0xbd570f08	-0.05250457
46	0xbcaff507	-0.021479143
47	0xbdcd4888	-0.100236
48	0xbe262e86	-0.16228685
49	0x3e4d4888	0.200472
50	0xbe438208	-0.19092572
51	0xbe4ad6e8	-0.19808543
52	0x3e1ed9a6	0.15512714
53	0xbb1c6806	-0.0023865714
54	0xbc6a9c09	-0.014319428
55	0xbe522bc8	-0.20524514
56	0xbe2d8367	-0.16944657
57	0xbe08db05	-0.133648
58	0xbdcd4888	-0.100236
59	0x3ddbf248	0.10739571
60	0xbe3c2d27	-0.18376599
61	0x3d438208	0.04773143
62	0x3e76d429	0.2410437
63	0xbdf945ca	-0.12171514
64	0xbdcd4888	-0.100236
65	0x3bea9c09	0.007159714
66	0xbe634729	-0.22195114
67	0xbdc86548	-0.09784943
68	0xbdab11c7	-0.08353
69	0x3d92a186	0.071597144
70	0xbe570f08	-0.21001828
71	0xbe214b46	-0.15751371
72	0x3e0dbe45	0.13842113
73	0xbd570f08	-0.05250457
74	0xbd60d589	-0.054891143
75	0xbd9784c6	-0.073983714
76	0xbd2ff507	-0.042958286
77	0xbe549d68	-0.2076317
78	0xbe3e9ec7	-0.18615256
79	0xbe746289	-0.23865713
80	0xbe12a186	-0.14319429
81	0xbdd22bc8	-0.10262257
82	0x3e6a9c09	0.22911085
83	0xbd08db05	-0.033412
84	0x3e3749e7	0.17899285
85	0x3e7945ca	0.24343029
86	0xbd39bb87	-0.045344856
87	0x3e7e290a	0.24820343
88	0xbc1c6806	-0.0095462855
89	0xbdf46289	-0.119328566
90	0xbd1c6806	-0.038185142
91	0xbdaff507	-0.08591657
92	0x3d1c6806	0.038185142
93	0x3dc86548	0.09784943
94	0x3e2ff507	0.17183314
95	0x3dc86548	0.09784943
96	0xbde5b8c9	-0.112168856
97	0xbe2ff507	-0.17183314
98	0xbcc38208	-0.023865715
99	0x3dea9c09	0.114555426
100	0xbdbe9ec7	-0.09307628
101	0xbd12a186	-0.035798572
102	0xbdea9c09	-0.114555426
103	0xbe746289	-0.23865713
104	0x3dab11c7	0.08353
105	0x3cd70f08	0.026252285
106	0xbdea9c09	-0.114555426
107	0xbcea9c09	-0.028638856
108	0x3e34d847	0.17660628
109	0x3e151326	0.14558086
110	0x3cc38208	0.023865715
111	0xbe6d0da9	-0.23149742
112	0xbe682a69	-0.22672428
113	0xbdab11c7	-0.08353
114	0x3bea9c09	0.007159714
115	0xbddbf248	-0.10739571
116	0xbcaff507	-0.021479143
117	0xbe570f08	-0.21001828
118	0xbdfe290a	-0.12410171
119	0x3bea9c09	0.007159714
120	0xbde0d589	-0.109782286
121	0xbdaff507	-0.08591657
122	0x3df945ca	0.12171514
123	0xbd4d4888	-0.050118
124	0xbd1c6806	-0.038185142
125	0xbe0b4ca5	-0.13603456
126	0xbe8b4ca5	-0.27206913
127	0xbb1c6806	-0.0023865714
128	0xbe4ad6e8	-0.19808543
129	0x3d12a186	0.035798572
130	0xbd83f7c5	-0.06443743
131	0x3dd70f08	0.10500914
132	0x3cfe290a	0.031025428
133	0x3d39bb87	0.045344856
134	0xbe1ed9a6	-0.15512714
135	0xbd262e86	-0.040571712
136	0xbd6a9c09	-0.057277713
137	0x3e5e63e9	0.217178
138	0x3dcd4888	0.100236
139	0x3c88db05	0.016706
140	0xbe151326	-0.14558086
141	0x3bea9c09	0.007159714
142	0xbcaff507	-0.021479143
143	0x3dea9c09	0.114555426
144	0xbe5bf248	-0.21479142
145	0xbdb9bb87	-0.09068971
146	0xbe486548	-0.19569886
147	0xbe262e86	-0.16228685
148	0x3d39bb87	0.045344856
149	0x3e23bce6	0.15990028
150	0xbcd70f08	-0.026252285
151	0xbe102fe6	-0.14080772
152	0xbcea9c09	-0.028638856
153	0x3cd70f08	0.026252285
154	0x3cd70f08	0.026252285
155	0x3b9c6806	0.0047731427
156	0x3e3c2d27	0.18376599
157	0x3e6f7f49	0.23388399
158	0xbe214b46	-0.15751371
159	0x3d1c6806	0.038185142
160	0x3e066965	0.13126142
161	0xbe018625	-0.12648828
162	0x3da62e86	0.081143424
163	0x3caff507	0.021479143
164	0xbe71f0e9	-0.23627056
165	0x3d08db05	0.033412
166	0x3e2ff507	0.17183314
167	0x3e28a026	0.16467342
168	0xbe3266a7	-0.17421971
169	0xbd438208	-0.04773143
170	0x3e76d429	0.2410437
171	0xbe39bb87	-0.18137942
172	0xbe03f7c5	-0.12887485
173	0x3e549d68	0.2076317
174	0xbe214b46	-0.15751371
175	0x3d746289	0.059664283
176	0x3d12a186	0.035798572
177	0xbea9d8f7	-0.33173344
178	0x3dab11c7	0.08353
179	0xbcfe290a	-0.031025428
180	0xbe066965	-0.13126142
181	0x3e2b11c7	0.16706
182	0xbdb9bb87	-0.09068971
183	0x3d4d4888	0.050118
184	0x3e0dbe45	0.13842113
185	0xbd438208	-0.04773143
186	0xbe5bf248	-0.21479142
187	0xbe3266a7	-0.17421971
188	0x3d438208	0.04773143
189	0xbe6d0da9	-0.23149742
190	0x3dd22bc8	0.10262257
191	0xbe71f0e9	-0.23627056
192	0x3d9784c6	0.073983714
193	0x3b1c6806	0.0023865714
194	0x3e2b11c7	0.16706
195	0xbe7945ca	-0.24343029
196	0x3b9c6806	0.0047731427
197	0x3e5bf248	0.21479142
198	0xbd83f7c5	-0.06443743
199	0xbea3bce6	-0.31980056
200	0xbc9c6806	-0.019092571
201	0x3e60d589	0.21956457
202	0xbe5bf248	-0.21479142
203	0xbe5980a8	-0.21240485
204	0xbe3749e7	-0.17899285
205	0x3e19f666	0.150354
206	0xbd438208	-0.04773143
207	0x3daff507	0.08591657
208	0xbe4d4888	-0.200472
209	0xbd92a186	-0.071597144
210	0xbd9c6806	-0.076370284
211	0x3dd22bc8	0.10262257
212	0x3c9c6806	0.019092571
213	0xbe746289	-0.23865713
214	0xbe214b46	-0.15751371
215	0x3d12a186	0.035798572
216	0xbe5980a8	-0.21240485
217	0x3e08db05	0.133648
218	0xbd746289	-0.059664283
219	0x3d7e290a	0.062050857
220	0x3e19f666	0.150354
221	0xbde5b8c9	-0.112168856
222	0x3dea9c09	0.114555426
223	0x3e2b11c7	0.16706
224	0x3e7bb76a	0.24581686
225	0xbe6a9c09	-0.22911085
226	0xbc1c6806	-0.0095462855
227	0xbd7e290a	-0.062050857
228	0xbe7945ca	-0.24343029
229	0xbd60d589	-0.054891143
230	0xbdb9bb87	-0.09068971
231	0xbe03f7c5	-0.12887485
232	0x3e5e63e9	0.217178
233	0xbe28a026	-0.16467342
234	0x3e76d429	0.2410437
235	0xbe34d847	-0.17660628
236	0xbd08db05	-0.033412
237	0xbda14b46	-0.078756854
238	0xbe2d8367	-0.16944657
239	0xbe19f666	-0.150354
240	0x3e39bb87	0.18137942
241	0xbe7945ca	-0.24343029
242	0xbe5e63e9	-0.217178
243	0xbd8dbe45	-0.06921057
244	0x3daff507	0.08591657
245	0x3b9c6806	0.0047731427
246	0x3d9784c6	0.073983714
247	0xbdef7f49	-0.116941996
248	0x3e3c2d27	0.18376599
249	0xbe102fe6	-0.14080772
250	0x3d2ff507	0.042958286
251	0xbb9c6806	-0.0047731427
252	0xbd08db05	-0.033412
253	0x3e4ad6e8	0.19808543
254	0xbde5b8c9	-0.112168856
255	0x3db4d847	0.08830314
