snn_models/n_mnist_qat_snn/784x16x16x16x16x16x16x16x16x10/model_params/fc_lif_layer_3_weights.npy (npy, 1152 bytes, 1 tensors)

array f4 [16, 16]
00000000: c120 42bc 381d 533e c120 c2bd 674d 1bbd
00000010: fc72 163e 9198 11bd a3f7 57be de49 2cbe
00000020: 1af4 e8bc 3d02 25bd 9198 11bd d227 a0bd
00000030: d964 5a3e 8b87 8bbe 1af4 683d c605 14be
00000040: bae3 873d 02b0 503e 443f 5fbd d227 a03d
00000050: 1af4 e83b 7aac 61be c120 c2bd 1af4 e8bb
00000060: f050 0abe ea6b b8bd 8bb3 3fbe fc72 16be
00000070: 8576 05be af19 e43d 25be 0cbe ea6b b8bd
00000080: b5fe 353e 92f0 793e 6e8a d5bd 674d 1bbe
00000090: 02b0 503e fc72 163e 7f91 b3bd bae3 873d
000000a0: 1af4 e83b bae3 073e 97d5 4b3e 736f 273e
000000b0: 381d 53be c0f4 8dbe 674d 9bbd 86ce edbd
000000c0: 6e8a d53c 2cfb c63d c75d 7cbd f68d 44be
000000d0: fdca 7ebe 97d5 4b3d 674d 1bbb 02b0 d0bd
000000e0: 736f 27be 02b0 503e 6e8a d53c 674d 9bbb
000000f0: 674d 9bbd 4924 31be fdca 7e3e c75d fc3c
00000100: de49 2c3e 674d 9bbd 443f dfbd 674d 9b3d
00000110: 8576 05be c75d fc3d d964 dabd 25be 0c3e
00000120: b5fe b5be 6e8a d53d 5061 6b3e d227 203e
00000130: 14b7 2e3d 6e8a 55be 1af4 68bd 4924 31be
00000140: 1af4 e83d 443f 5f3e 199c 003e f1a8 72be
00000150: 3d02 253d de49 2cbe 14b7 ae3c cd42 4e3e
00000160: d227 20be fc72 163e 2716 753e 6e8a d5bc
00000170: f1a8 723e c75d fcbc 0895 22be 5646 3d3e
00000180: 5c83 f73d 674d 9b3c bb3b 70be cd42 4e3e
00000190: c120 423e 674d 1b3b 674d 1bbc 1af4 68be
000001a0: 6e8a d5bc 1af4 683e 5c83 f7bd f1a8 f23d
000001b0: c120 c23d de49 2c3e 9198 11be 7f91 333e
000001c0: 674d 1b3e 4f09 83bd 97d5 4b3e cd42 4e3e
000001d0: f68d 44be d227 a03d 674d 1bbb 8bb3 3fbe
000001e0: 4f09 03be a3f7 57be 674d 9b3b c120 42be
000001f0: 0000 0000 7f91 b3bd 4f09 833d de49 2c3e
00000200: 3d02 a53d a9dc a93d 97d5 4b3e 674d 9bbb
00000210: 443f dfbd ea6b 38be 6e8a 553d ea6b b8bd
00000220: fc72 96be 6e8a 55bd 14b7 ae3c 0895 22be
00000230: 5c83 773e 14b7 ae3c cd42 4ebe d227 20be
00000240: fc72 963d d964 dabd 25be 0c3e af19 e4bd
00000250: 02b0 50be c75d fcbc 0895 a2be 31e0 183e
00000260: fdca 7ebe de49 2c3e f050 0abe af19 e43d
00000270: 6268 493e 02b0 503e a9dc a9bd 9198 113e
00000280: e586 66be 9198 11bd c120 423e c120 423c
00000290: fc72 963d 14b7 2ebd 5c83 f7bd d964 5a3e
000002a0: a3f7 57be fc72 16be 381d 53be f1a8 723d
000002b0: a9dc 293e af19 64be bae3 073d 9198 913d
000002c0: ea6b b8bd c120 42bd f1a8 723e 674d 1bbc
000002d0: 0895 22be fdca 7ebe 02b0 d0bd 4f09 83bd
000002e0: 5646 3dbe 674d 1bbb 14b7 2ebe 6e8a 55bd
000002f0: 9198 913d fc72 163e 9198 11bd 7aac 61be
00000300: 381d 533e d964 dabd c120 c2bc 6e8a d5bd
00000310: af19 e4bd 443f 5fbe 6e8a d5bc 3d02 25bd
00000320: 97a9 97be c120 c23d 97d5 4b3d 3d02 25be
00000330: 7f91 33be 1af4 683c f68d 443e 9198 11bd
00000340: fc72 16be 0895 223e 443f 5fbe d964 5abe
00000350: 20d9 3abe a9dc a9bd c75d 7cbd 1af4 683e
00000360: 4313 abbe 97d5 4b3d a3f7 573e bb3b 703e
00000370: 1af4 683e c605 143e bae3 073d c75d 7cbe
00000380: d227 203e af19 643e 20d9 3abe bae3 87bd
00000390: 381d 53be 674d 1bbe 8b87 8bbe c75d 7c3e
000003a0: fc72 963d bae3 873c 5c83 f7bd c120 c2bd
000003b0: c120 42bd bae3 87bd 25be 8cbd 14b7 2e3d
000003c0: a9dc 29be c120 423e 674d 1b3d 97d5 4b3e
000003d0: 1af4 e83b 7f91 b33d 551a 89be 674d 1bbd
000003e0: 199c 003e 25be 8c3d a3f7 57be 20d9 3abe
000003f0: 25be 8cbd 97d5 4b3d 02b0 503e 1af4 e8bd
-0.011848629 0.20616615 -0.094789036 -0.037915614 0.146923 -0.03554589 -0.2109056 -0.16825053
-0.02843671 -0.040285338 -0.03554589 -0.07820095 0.21327533 -0.2725185 0.05687342 -0.14455327
0.06635232 0.20379642 -0.054503694 0.07820095 0.0071091773 -0.22038451 -0.094789036 -0.0071091773
-0.13507438 -0.09004958 -0.18720834 -0.146923 -0.13033493 0.11137711 -0.1374441 -0.09004958
0.17772944 0.24408177 -0.10426794 -0.15166245 0.20379642 0.146923 -0.087679856 0.06635232
0.0071091773 0.13270465 0.19905697 0.16351108 -0.20616615 -0.27725792 -0.07583123 -0.11611657
0.026066985 0.09715876 -0.06161287 -0.19194779 -0.24882121 0.049764242 -0.0023697258 -0.10189821
-0.16351108 0.20379642 0.026066985 -0.0047394517 -0.07583123 -0.17298998 0.24882121 0.030806435
0.16825053 -0.07583123 -0.10900739 0.07583123 -0.13033493 0.12322574 -0.106637664 0.1374441
-0.3554589 0.10426794 0.2298634 0.1564019 0.042655066 -0.20853588 -0.05687342 -0.17298998
0.11374684 0.21801478 0.12559547 -0.23697259 0.040285338 -0.16825053 0.021327533 0.2014267
-0.1564019 0.146923 0.23934232 -0.026066985 0.23697259 -0.030806435 -0.15877163 0.18483862
0.12085602 0.018957807 -0.23460285 0.2014267 0.18957807 0.0023697258 -0.009478903 -0.22749367
-0.026066985 0.22749367 -0.12085602 0.11848629 0.094789036 0.16825053 -0.14218356 0.17535971
0.15166245 -0.0639826 0.19905697 0.2014267 -0.19194779 0.07820095 -0.0023697258 -0.18720834
-0.1279652 -0.2109056 0.0047394517 -0.18957807 0.0 -0.087679856 0.0639826 0.16825053
0.080570675 0.08294041 0.19905697 -0.0047394517 -0.10900739 -0.18009916 0.05213397 -0.09004958
-0.293846 -0.05213397 0.021327533 -0.15877163 0.24171203 0.021327533 -0.2014267 -0.1564019
0.0734615 -0.106637664 0.1374441 -0.11137711 -0.20379642 -0.030806435 -0.31754327 0.14929272
-0.24882121 0.16825053 -0.13507438 0.11137711 0.19668725 0.20379642 -0.08294041 0.14218356
-0.22512396 -0.03554589 0.18957807 0.011848629 0.0734615 -0.042655066 -0.12085602 0.21327533
-0.2109056 -0.146923 -0.20616615 0.059243146 0.16588081 -0.22275423 0.03317616 0.07109178
-0.09004958 -0.047394518 0.23697259 -0.009478903 -0.15877163 -0.24882121 -0.10189821 -0.0639826
-0.18483862 -0.0023697258 -0.17062026 -0.05213397 0.07109178 0.146923 -0.03554589 -0.22038451
0.20616615 -0.106637664 -0.023697259 -0.10426794 -0.11137711 -0.21801478 -0.026066985 -0.040285338
-0.29621574 0.094789036 0.049764242 -0.16114135 -0.17535971 0.014218355 0.19194779 -0.03554589
-0.146923 0.15877163 -0.21801478 -0.21327533 -0.18246889 -0.08294041 -0.06161287 0.22749367
-0.33413133 0.049764242 0.2109056 0.23460285 0.22749367 0.14455327 0.03317616 -0.24645148
0.1564019 0.22275423 -0.18246889 -0.06635232 -0.20616615 -0.15166245 -0.2725185 0.24645148
0.0734615 0.01658808 -0.12085602 -0.094789036 -0.047394518 -0.06635232 -0.06872205 0.042655066
-0.16588081 0.18957807 0.037915614 0.19905697 0.0071091773 0.087679856 -0.26777902 -0.037915614
0.12559547 0.06872205 -0.2109056 -0.18246889 -0.06872205 0.049764242 0.20379642 -0.11374684
