snn_models/n_mnist_qat_snn/784x16x16x16x16x16x16x16x16x10/model_params/fc_lif_layer_7_weights.npy (npy, 1152 bytes, 1 tensors)

array f4 [16, 16]
00000000: 242c 043e ec4e 6cbe 3844 4cbe 883d 383e
00000010: ce2a 803e 7b2d 88be 3540 403e db3a 303e
00000020: db3a 303e 4250 703e 7e31 14be e242 c83d
00000030: e84a 603e 8b41 44be 8b41 443e df3e 3c3e
00000040: 8539 2c3e ce2a 80be 9249 dcbe d634 9ebe
00000050: 8f45 d0bd 9a53 fabe 2830 90bd 954d e8bd
00000060: 8f45 d0bd e242 48be db3a b0be e242 c83d
00000070: db3a b03d ce2a 803e 8f45 503d 8235 203e
00000080: 7b2d 88bd 8f45 d03d d02c 86be 323c 343e
00000090: 7b2d 88bd e84a e03c 7e31 14be e84a e0bc
000000a0: db3a 30bd 4250 703d 262e 8abe e546 543e
000000b0: db3a 30bd db3a b03d e242 c8bd 4250 f03d
000000c0: 954d 68be 8f45 d03d 8235 a03c 8235 a03d
000000d0: 8235 a03c ce2a 003e e84a 60bd e546 54be
000000e0: 9951 743e ec4e 6cbe 323c 343e ce2a 803d
000000f0: e242 c8bd ef52 f8bd 3540 40bc ce2a 003c
00000100: 2830 90bd 7e31 143e 2b34 1cbe d532 183e
00000110: 3f4c 64be d330 92be db3a b03d 3540 c03c
00000120: df3e 3c3e e546 54be 2830 103d 883d b83d
00000130: 3540 403c d836 243e ce2a 803b 3540 40bc
00000140: 7e31 143e 954d e83d 9951 74be 3540 40bd
00000150: 4250 70bd df3e 3cbe 883d 383e 7b2d 08be
00000160: 2830 103e 954d e83d 883d b8bd 954d 68be
00000170: e242 c8bd 2830 903d 2e38 28be e242 483e
00000180: 883d 383e 3540 c0bc 242c 043e ce2a 003e
00000190: 8f45 50be ce2a 803b 8235 20bd ce2a 00bc
000001a0: ce2a 80bc 8235 203d 954d 68be 2b34 1cbe
000001b0: 883d 383e 2e38 a8bd 8b41 443e 3540 40bc
000001c0: 8f45 503d e84a e0bd 4250 70bd e546 54be
000001d0: ce2a 00bd 7d2f 8ebe e242 483e e84a 60be
000001e0: 8235 a0bd e84a 603d 7b2d 883d 3c48 583e
000001f0: 7b2d 88bd ce2a 80bb 4250 f0bd d532 98be
00000200: ce2a 803d 4250 f03d d12e 0cbe 4250 f03d
00000210: 954d 683e 3a46 d2be 3540 c0bc ce2a 80bc
00000220: 2b34 1cbe 0000 0000 954d e8bd 883d 383e
00000230: 4250 703d 3540 40be e242 48be 3540 40be
00000240: 3540 c0bc 3540 403c d12e 8cbe 7b2d 88be
00000250: 954d e8bd 3a46 d2be d02c 86be 883d b8bd
00000260: 9951 74be ce2a 80bb 8235 203e 3540 40be
00000270: ef52 f83d 4250 703d 8f45 50be ce2a 803d
00000280: 8b41 44be e84a 60bd d532 183e 8f45 d03d
00000290: e84a 603e 863b b2be 8b41 44be 242c 043e
000002a0: 9249 5c3e 4654 7cbe e84a e0bd 9249 5cbe
000002b0: 8f45 503e e84a e0bd 883d 383e e84a e03d
000002c0: 323c 343e df3e 3cbe ef52 78be d532 98be
000002d0: 2e38 28be da38 aabe 242c 043e df3e 3c3e
000002e0: e242 c8bd 7e31 14be 323c 34be 3c48 d83d
000002f0: ec4e 6c3e 954d e83d 8235 a0bd 3f4c 64be
00000300: 954d 68be d532 183e 4250 f0be 303a aebe
00000310: 3844 4c3e 8438 29bf 9951 74be df3e 3cbe
00000320: ef52 78be e242 483e ce2a 00bd 3540 c03d
00000330: 8539 2cbe e242 c83d 4654 7c3e 3540 c0bd
00000340: d12e 0cbe 2830 10bd df3e 3c3e db3a 30bd
00000350: 8539 2c3e 3540 c0bc 3540 c0bd 3f4c 643e
00000360: 3540 403e 954d e83d 2b34 1c3e db3a 30bd
00000370: 3c48 d83d 8235 a03c 9249 5c3e 8235 a0bd
00000380: 323c 34be 7b2d 08be 8539 2cbe 2b34 9c3e
00000390: 3540 c03d 8539 acbe 8f45 503e 2e38 a8bd
000003a0: d836 24be d532 983d 9249 5c3e 7b2d 08be
000003b0: ef52 783e 9951 743e 9249 5c3e 7b2d 08be
000003c0: 4250 703e d532 98bd 954d 68be 3c48 d8bd
000003d0: 4250 703e e040 c2be db3a b0bd 3f4c 643e
000003e0: e546 54be 3f4c 643e 2830 10bd 0000 0000
000003f0: 4654 7c3e 8235 a03d ec4e 6c3e 9951 74be
0.12907463 -0.23076981 -0.19947898 0.17992222 0.25032657 -0.265972 0.18774493 0.17209952
0.17209952 0.23468116 -0.14472005 0.09778382 0.21903574 -0.19165628 0.19165628 0.18383358
0.16818817 -0.25032657 -0.4302488 -0.30899686 -0.10169517 -0.48891908 -0.07040435 -0.113429226
-0.10169517 -0.19556764 -0.34419903 0.09778382 0.08604976 0.25032657 0.050847586 0.15645412
-0.066493 0.10169517 -0.26206064 0.17601088 -0.066493 0.027379468 -0.14472005 -0.027379468
-0.04302488 0.05867029 -0.26988333 0.20730169 -0.04302488 0.08604976 -0.09778382 0.11734058
-0.22685845 0.10169517 0.019556765 0.07822706 0.019556765 0.12516329 -0.054758936 -0.20730169
0.23859252 -0.23076981 0.17601088 0.06258164 -0.09778382 -0.12125193 -0.011734058 0.007822705
-0.07040435 0.14472005 -0.15254276 0.14863141 -0.2229471 -0.28552875 0.08604976 0.023468116
0.18383358 -0.20730169 0.035202175 0.08996111 0.011734058 0.16036546 0.0039113527 -0.011734058
0.14472005 0.113429226 -0.23859252 -0.046936233 -0.05867029 -0.18383358 0.17992222 -0.132986
0.1408087 0.113429226 -0.08996111 -0.22685845 -0.09778382 0.07040435 -0.16427681 0.19556764
0.17992222 -0.023468116 0.12907463 0.12516329 -0.20339034 0.0039113527 -0.03911353 -0.007822705
-0.01564541 0.03911353 -0.22685845 -0.15254276 0.17992222 -0.082138404 0.19165628 -0.011734058
0.050847586 -0.10951787 -0.05867029 -0.20730169 -0.03129082 -0.27770606 0.19556764 -0.21903574
-0.07822706 0.054758936 0.066493 0.21121305 -0.066493 -0.0039113527 -0.11734058 -0.29726282
0.06258164 0.11734058 -0.13689734 0.11734058 0.22685845 -0.41069204 -0.023468116 -0.01564541
-0.15254276 0.0 -0.113429226 0.17992222 0.05867029 -0.18774493 -0.19556764 -0.18774493
-0.023468116 0.011734058 -0.27379468 -0.265972 -0.113429226 -0.41069204 -0.26206064 -0.08996111
-0.23859252 -0.0039113527 0.15645412 -0.18774493 0.12125193 0.05867029 -0.20339034 0.06258164
-0.19165628 -0.054758936 0.14863141 0.10169517 0.21903574 -0.34811038 -0.19165628 0.12907463
0.2151244 -0.24641523 -0.10951787 -0.2151244 0.20339034 -0.10951787 0.17992222 0.10951787
0.17601088 -0.18383358 -0.24250387 -0.29726282 -0.16427681 -0.332465 0.12907463 0.18383358
-0.09778382 -0.14472005 -0.17601088 0.105606526 0.23076981 0.113429226 -0.07822706 -0.2229471
-0.22685845 0.14863141 -0.46936232 -0.3402877 0.19947898 -0.6610186 -0.23859252 -0.18383358
-0.24250387 0.19556764 -0.03129082 0.093872465 -0.16818817 0.09778382 0.24641523 -0.093872465
-0.13689734 -0.035202175 0.18383358 -0.04302488 0.16818817 -0.023468116 -0.093872465 0.2229471
0.18774493 0.113429226 0.15254276 -0.04302488 0.105606526 0.019556765 0.2151244 -0.07822706
-0.17601088 -0.132986 -0.16818817 0.3050855 0.093872465 -0.33637634 0.20339034 -0.082138404
-0.16036546 0.074315704 0.2151244 -0.132986 0.24250387 0.23859252 0.2151244 -0.132986
0.23468116 -0.074315704 -0.22685845 -0.105606526 0.23468116 -0.3794012 -0.08604976 0.2229471
-0.20730169 0.2229471 -0.035202175 0.0 0.24641523 0.07822706 0.23076981 -0.23859252
