snn_models/n_mnist_qat_snn/784x16x16x16x16x16x16x16x16x10/model_params/fc_lif_layer_8_weights.npy (npy, 768 bytes, 1 tensors)

array f4 [10, 16]
0	0xbe84281d	-0.25811854
1	0x3c170946	0.00921852
2	0xbd170946	-0.03687408
3	0xbd3ccb98	-0.0460926
4	0xbe335b03	-0.17515187
5	0xbc170946	-0.00921852
6	0xbcbccb98	-0.0230463
7	0x00000000	0.0
8	0x3d84281d	0.064529635
9	0xbe7edfa6	-0.24890003
10	0x3e6bfe7d	0.23046298
11	0x3e04281d	0.12905927
12	0x3d8d98b2	0.0691389
13	0xbf266037	-0.6499056
14	0xbe1250fc	-0.14288706
15	0xbdebfe7d	-0.11523149
16	0x3d970946	0.07374816
17	0xbe29ea6f	-0.16593336
18	0x3d04281d	0.032264818
19	0x3e81cbf8	0.25350928
20	0x3e628de9	0.22124447
21	0x3d3ccb98	0.0460926
22	0x3e7edfa6	0.24890003
23	0xbe08e067	-0.13366853
24	0x3da9ea6f	0.08296668
25	0x3e6bfe7d	0.23046298
26	0x3e08e067	0.13366853
27	0x3e54650a	0.20741668
28	0x3e04281d	0.12905927
29	0xbd84281d	-0.064529635
30	0x3d4facc0	0.050701857
31	0x3cbccb98	0.0230463
32	0xbd756f12	-0.059920378
33	0xbe84281d	-0.25811854
34	0xbe253225	-0.1613241
35	0xbdd91d55	-0.10601298
36	0x3d04281d	0.032264818
37	0xbd04281d	-0.032264818
38	0xbec3e007	-0.38256857
39	0x3b970946	0.00460926
40	0x3dc63c2c	0.096794456
41	0xbe08e067	-0.13366853
42	0xbe2079da	-0.15671483
43	0xbdbccb98	-0.0921852
44	0x3dc63c2c	0.096794456
45	0xbf253225	-0.6452964
46	0x3b970946	0.00460926
47	0x3e7edfa6	0.24890003
48	0x3e3ccb98	0.1843704
49	0x3e2ea2b9	0.17054261
50	0xbdbccb98	-0.0921852
51	0xbe94ad21	-0.29038337
52	0xbe38134d	-0.17976113
53	0xbe335b03	-0.17515187
54	0x3db35b03	0.087575935
55	0xbe5dd59f	-0.21663521
56	0x3e628de9	0.22124447
57	0x3d3ccb98	0.0460926
58	0xbd84281d	-0.064529635
59	0xbe463c2c	-0.19358891
60	0xbe08e067	-0.13366853
61	0xbee28de9	-0.44248894
62	0xbce28de9	-0.027655559
63	0x3d970946	0.07374816
64	0x3d170946	0.03687408
65	0xbd970946	-0.07374816
66	0xbd04281d	-0.032264818
67	0xbd4facc0	-0.050701857
68	0x3e1bc190	0.15210557
69	0x3d04281d	0.032264818
70	0xbe5dd59f	-0.21663521
71	0xbe70b6c8	-0.23507226
72	0x3d29ea6f	0.04148334
73	0x3e4183e2	0.18897966
74	0xbe4facc0	-0.20280743
75	0xbd628de9	-0.055311117
76	0xbdebfe7d	-0.11523149
77	0xbe8ff4d7	-0.28116485
78	0xbe170946	-0.14749631
79	0xbe04281d	-0.12905927
80	0x3e88e067	0.26733705
81	0x3e94ad21	0.29038337
82	0xbd29ea6f	-0.04148334
83	0x3c628de9	0.013827779
84	0xbc970946	-0.01843704
85	0x3cbccb98	0.0230463
86	0xbd4facc0	-0.050701857
87	0xbe0d98b2	-0.1382778
88	0xbd04281d	-0.032264818
89	0xbdbccb98	-0.0921852
90	0x3e591d55	0.21202596
91	0xbd8d98b2	-0.0691389
92	0x3e04281d	0.12905927
93	0xbf38134d	-0.7190445
94	0x3e4facc0	0.20280743
95	0xbde28de9	-0.110622235
96	0x3e7edfa6	0.24890003
97	0xbe1250fc	-0.14288706
98	0x3e6bfe7d	0.23046298
99	0x3d4facc0	0.050701857
100	0xbe335b03	-0.17515187
101	0xbd29ea6f	-0.04148334
102	0xbde28de9	-0.110622235
103	0x3e674633	0.22585373
104	0x3e7a275c	0.24429077
105	0x3e253225	0.1613241
106	0xbdb35b03	-0.087575935
107	0x3e591d55	0.21202596
108	0x3dfedfa6	0.12445001
109	0xbf183759	-0.59459454
110	0x3e1bc190	0.15210557
111	0x3e4facc0	0.20280743
112	0xbe1250fc	-0.14288706
113	0xbe2079da	-0.15671483
114	0x3ea079da	0.31342965
115	0x3e335b03	0.17515187
116	0xbd04281d	-0.032264818
117	0x3dc63c2c	0.096794456
118	0xbda9ea6f	-0.08296668
119	0xbe463c2c	-0.19358891
120	0x3e0d98b2	0.1382778
121	0x3e970946	0.29499263
122	0x3d04281d	0.032264818
123	0x3c170946	0.00921852
124	0xbe70b6c8	-0.23507226
125	0xbd84281d	-0.064529635
126	0x3e756f12	0.23968151
127	0xbe1bc190	-0.15210557
128	0xbdebfe7d	-0.11523149
129	0xbe1250fc	-0.14288706
130	0x3d3ccb98	0.0460926
131	0xbe5dd59f	-0.21663521
132	0xbde28de9	-0.110622235
133	0x3e591d55	0.21202596
134	0xbc628de9	-0.013827779
135	0x3d84281d	0.064529635
136	0xbdc63c2c	-0.096794456
137	0x3eaea2b9	0.34108523
138	0x3d4facc0	0.050701857
139	0xbe04281d	-0.12905927
140	0x3d29ea6f	0.04148334
141	0xbed6c130	-0.41944265
142	0x3de28de9	0.110622235
143	0xbe756f12	-0.23968151
144	0xbd970946	-0.07374816
145	0x3e08e067	0.13366853
146	0x3e2ea2b9	0.17054261
147	0xbeb5b728	-0.354913
148	0xbe253225	-0.1613241
149	0xbe29ea6f	-0.16593336
150	0xbe81cbf8	-0.25350928
151	0x3e3ccb98	0.1843704
152	0xbe253225	-0.1613241
153	0x3e170946	0.14749631
154	0xbdf56f12	-0.119840756
155	0x3d84281d	0.064529635
156	0x3ce28de9	0.027655559
157	0xbf4c2289	-0.79740196
158	0xbe674633	-0.22585373
159	0xbdf56f12	-0.119840756
