snn_models/n_mnist_qat_snn/784x32x32x32x32x32x32x10/model_state_dict.pkl (torch, 143419 bytes, 14 tensors)

linear_layers.0.weight f4 [32, 784]
000000 ff 88 ef 3c ed f7 f3 bd fc d9 bf bd b8 46 bd be
       0.02924013 -0.119125225 -0.09367749 -0.36968017
000010 f8 49 00 be fa 0b 29 be f3 db d8 bd c0 89 b3 bd
       -0.12528217 -0.16508475 -0.10588827 -0.08766508
000020 2f 0a f2 3c 19 5e f2 bd 70 b2 06 be 2d 02 27 3c
       0.029545872 -0.11834354 -0.13154006 0.01019339
000030 db df a9 bd b5 29 a1 bd 16 24 8e 3d ab 40 17 3d
       -0.0829465 -0.07869283 0.069404766 0.036926907
000040 ca 94 ce 3d 33 e5 a1 3d e9 9f 88 3d 77 92 6f bd
       0.10086973 0.079050444 0.066711254 -0.05848929
000050 ce 78 32 be 35 4a 06 be b3 62 ac bd 6f 07 26 be
       -0.17428896 -0.13114245 -0.08417263 -0.16213773
000060 c7 80 38 be df d6 43 be 17 7b 28 be d8 51 31 be
       -0.18017875 -0.19124936 -0.16453205 -0.17316377
000070 34 e6 2a be 1d 08 a1 bd a8 62 bd bb 01 72 ad bd
       -0.16689378 -0.078628756 -0.005779583 -0.0846901
000080 c9 7b 88 be af bd 21 3d 2c d0 22 be 93 db e5 bd
       -0.2665694 0.039487537 -0.15899724 -0.11223521
000090 e5 0f 0c be 6e c2 21 be 73 77 0e be 63 ad 14 3e
       -0.13677938 -0.15796825 -0.13912754 0.14519267
0000a0 83 67 93 3d 4d 76 e3 3d b3 83 2b 3d fa 00 d2 3d
       0.07197478 0.111065485 0.041873645 0.102540925
0000b0 27 57 cc 3d 87 16 b2 bd b8 5e 58 bd 6f fb 08 bc
       0.099775605 -0.08695703 -0.052824706 -0.008360728
0000c0 45 e2 0f be 42 0e 17 bc c7 84 37 3c ec 7a f9 bd
       -0.14051159 -0.009219708 0.01120109 -0.121816486
0000d0 1f c9 0c be 39 6e 82 be 2d d7 c2 3b 3a b0 2d bd
       -0.13748597 -0.25474718 0.005946061 -0.04240439
0000e0 4c 54 24 be 93 85 85 be fa b1 50 be d5 95 87 be
       -0.16047782 -0.26078472 -0.20380393 -0.264815
0000f0 53 4f 5f be d5 ce 46 be 61 d3 43 be 29 ea 7d be
       -0.21807604 -0.19414838 -0.19123603 -0.24796356
000100 d4 f6 8b be 7f 68 b2 be 72 60 97 be cc 82 aa be
       -0.27336752 -0.3484535 -0.2956577 -0.33302915
000110 3c b9 ba bd 46 2a 89 bd 35 95 ce bd b5 ca a3 be
       -0.09117362 -0.06697516 -0.10087053 -0.3199059
000120 27 85 a0 be 65 a8 74 be bd ed 55 be 2a 64 55 be
       -0.31351587 -0.23892362 -0.20891471 -0.20838991
000130 95 c5 06 be 77 3e 01 be 4e 69 08 be 24 89 03 be
       -0.13161309 -0.12621485 -0.1332142 -0.12845284
000140 73 b3 0b be 01 6b 94 bd 24 62 ad bd 28 2f a3 bd
       -0.13642673 -0.07246972 -0.084659845 -0.07967979
000150 23 7a ed 3b 06 e3 f5 bd 14 81 67 be ec 48 5d be
       0.007247226 -0.12006192 -0.22607833 -0.21609849
000160 1b 7c 5f be 8e 83 e5 be e6 04 e2 be ff ed 9a be
       -0.21824686 -0.4482693 -0.44144362 -0.30259702
000170 f8 8e 06 bf 44 fa ce be 9c 6b df be a4 83 cb be
       -0.52561903 -0.40425313 -0.43636787 -0.3974887
000180 35 b4 a1 be df 0e 64 be 1d c2 93 be 3a 9e 9c be
       -0.315828 -0.22271298 -0.28859034 -0.30589467
000190 a2 fb b5 be 49 8a 99 be 69 93 8f be 46 45 40 be
       -0.35543543 -0.29988316 -0.28042153 -0.18776426
0001a0 fa 25 fd bd 7f 57 02 be 06 e2 c5 bd b3 87 0f be
       -0.12360759 -0.1272869 -0.09662251 -0.14016609
0001b0 02 94 e9 bd a6 6d 83 bd d9 8a 1e be 6d 5f 87 be
       -0.114051834 -0.06417398 -0.15482654 -0.26439992
0001c0 4d 9e 58 be c9 55 e1 be 74 41 37 be 88 b5 60 be
       -0.21154137 -0.4401076 -0.17896062 -0.21944249
0001d0 36 90 7f be a1 e0 dc be 43 77 c3 be fe ef f3 be
       -0.24957356 -0.43140128 -0.38176927 -0.47644037
0001e0 66 74 c2 be 46 4a d5 be b0 58 f5 be eb 09 e5 be
       -0.3797943 -0.4165823 -0.47919226 -0.4473413
0001f0 aa 92 be be 92 25 b7 be a7 a8 c6 be 3b 6d af be
       -0.3722127 -0.3577085 -0.38800547 -0.34263024
000200 6d 55 80 be ab 09 b3 be ff c8 3a be 72 28 1e be
       -0.25065175 -0.34968314 -0.18240736 -0.15445116
000210 90 f6 c0 bd 05 d7 15 be e2 5b cf bd 3b d1 1d 3c
       -0.09422028 -0.14632805 -0.10124947 0.009632404
000220 9f 36 c8 bd 12 df c7 bd 27 f9 68 3d 22 9f 73 bd
       -0.09776043 -0.09759344 0.056878235 -0.059477933
000230 2c f3 b1 be b3 46 30 be d4 8c 5f be e4 37 9a be
       -0.34755838 -0.1721447 -0.21831065 -0.30120766
000240 a6 96 9a be a6 00 06 bf 17 25 ba be b4 1f f3 be
       -0.3019306 -0.5234474 -0.36356422 -0.47485125
000250 a4 73 da be 19 1a d0 be 55 3e c7 be 8e c4 b8 be
       -0.42666352 -0.4064491 -0.38914743 -0.3608746
000260 01 5c d2 be 75 c6 b1 be 5d be a8 be 75 51 a2 be
       -0.41085818 -0.34721723 -0.32957736 -0.31702772
000270 73 0b 91 be b7 12 96 be c1 e9 8a be 91 9f 51 be
       -0.28329048 -0.29311153 -0.27131465 -0.20471026
000280 70 e2 11 be 61 b7 e5 bd 6f 33 dc bd 9a 99 d2 bd
       -0.14246535 -0.112166174 -0.10751998 -0.102832034
000290 53 8b d6 bd 82 22 14 bd 62 99 78 bd 2f 5a 0b be
       -0.10475793 -0.03616572 -0.060693152 -0.13608621
0002a0 07 16 81 be a8 92 8d be f6 b6 fb be c6 c0 ad be
       -0.25212118 -0.27650952 -0.49163026 -0.33936137
0002b0 aa 6f c8 be 3e 9d dd be c1 fb f6 be 60 ab cb be
       -0.39147693 -0.4328403 -0.48238948 -0.39779186
0002c0 16 f5 b1 be 0e 1b a1 be db 57 b5 be 0f 3e a6 be
       -0.34757298 -0.31465954 -0.3541859 -0.32469222
0002d0 49 63 b0 be f7 3a b1 be 49 8e aa be 80 12 98 be
       -0.3445075 -0.346153 -0.3331168 -0.29701614
0002e0 46 b9 90 be 12 a2 75 be ff 6f 86 be e3 66 15 be
       -0.28266352 -0.23987606 -0.2625732 -0.1459003
0002f0 33 c0 1c be fd 38 2f be 63 10 0b be 95 78 88 bd
       -0.15307693 -0.17111583 -0.1358047 -0.06663624
000300 e2 7f dd bd 07 2b bc bd a6 72 a6 bd 69 4f 43 3d
       -0.10815407 -0.09187894 -0.08127336 0.047683153
000310 5f 3a 7c be 64 58 88 be fd 24 f7 be 9b f1 ad be
       -0.24631642 -0.26629937 -0.48270407 -0.33973393
000320 b9 3c d6 be 3e 49 f6 be bc 1b b2 be 14 97 b9 be
       -0.41843203 -0.48102754 -0.34786785 -0.36248076
000330 e4 f3 99 be dc 7d 94 be 39 be 85 be 5e a5 9a be
       -0.30068886 -0.29002273 -0.2612169 -0.3020429
000340 f3 bb 9a be 2c 14 a2 be ba 0d 78 be 1c 29 63 be
       -0.3022152 -0.31656015 -0.24223986 -0.2218365
000350 0b fa 82 be b1 11 52 be d8 b9 46 be 86 62 43 be
       -0.25581393 -0.20514561 -0.19406831 -0.19080552
000360 07 95 e6 bd e3 a5 09 be 20 3b d4 bd f1 50 97 bd
       -0.112588935 -0.13442187 -0.1036284 -0.07388485
000370 d5 5a 8e bd 09 18 a5 bd 0b 0a ed bd fb f9 90 bc
       -0.069509186 -0.08061225 -0.11574181 -0.017697325
000380 89 8b 8a be 09 fd 6d be dd f5 a9 be 41 87 cd be
       -0.27059582 -0.23241057 -0.3319539 -0.40142253
000390 ec 1d ad be b7 a6 81 be 01 d0 98 be 6c a4 9f be
       -0.3381189 -0.25322506 -0.29846194 -0.3118013
0003a0 90 f3 99 be 6c 64 84 be d1 1b 60 be 7c 77 7e be
       -0.30068636 -0.25857866 -0.21885611 -0.24850267
0003b0 6e ad 73 be 68 9a 8d be 00 63 68 be 76 7b 8a be
       -0.23796627 -0.27656865 -0.22694016 -0.27047318
0003c0 ed 3f 3b be 4a 0f 56 be fa dd 14 be da ae 36 be
       -0.18286105 -0.2090427 -0.14537802 -0.17840138
0003d0 94 33 41 be 25 ad 13 be 78 b0 ec bd af c3 d6 bd
       -0.18867332 -0.14421518 -0.11557096 -0.104865424
0003e0 a7 9e 9e bd 5f 30 03 be f1 cc ec bd 00 2e 70 be
       -0.07745104 -0.12811421 -0.11562527 -0.23455048
0003f0 05 f5 7c be b2 2b ac be dc 06 ca be 44 85 bc be
       -0.24702843 -0.33627087 -0.39458358 -0.36820424

linear_layers.0.bias f4 [32]
000000 f7 79 3c be f9 07 d7 3d bf 28 b1 be 70 c0 63 be
       -0.18405901 0.104995675 -0.346014 -0.22241378
000010 bf 64 af be 4f 28 76 be 25 bf 99 be c6 42 b5 bd
       -0.3425655 -0.24038814 -0.30028644 -0.08850627
000020 b4 0a a3 be df 0b 4f be 0d 91 71 be 98 df 77 3d
       -0.31844103 -0.20219372 -0.23590489 0.06051597
000030 11 22 00 3f 82 84 88 be 54 3e 8f be d2 6d be be
       0.5005198 -0.26663595 -0.2797724 -0.3719316
000040 80 f0 bd be c0 89 2f 3e 80 94 4c bd 43 10 94 be
       -0.3709755 0.17142391 -0.049946308 -0.28918657
000050 83 1f cf be 8b 66 9a be 2b f7 a7 3e c9 29 48 be
       -0.4045373 -0.3015636 0.32805762 -0.1954719
000060 a0 62 95 be 41 22 a0 be 12 f0 00 be 42 7e 0b 3f
       -0.29176807 -0.31276134 -0.1259158 0.5448953
000070 f6 d0 ab be 3d 08 91 be 71 17 6e be 6c 06 01 3f
       -0.33557862 -0.28326598 -0.2325113 0.50400424

linear_layers.1.weight f4 [32, 32]
000000 2d f6 ff bd e1 f0 2b be b3 54 86 bd 0d 89 9e 3c
       -0.12498126 -0.16791107 -0.06559124 0.01935246
000010 49 07 b1 bd 03 e5 f5 3d c0 7c b0 bb 13 c8 29 3d
       -0.08643968 0.12006571 -0.005385965 0.04145057
000020 13 84 df bd 2d f2 25 bc 1c d3 cc bb e2 c2 99 3d
       -0.10913863 -0.01012854 -0.006250752 0.07507874
000030 be 22 64 bf 4d 17 b2 bc f1 4c 29 be f4 57 09 be
       -0.8911551 -0.021739626 -0.16533257 -0.13412458
000040 0f e0 ff 3d 0f 1a 54 3e 8f e1 7d bf 79 55 71 bd
       0.12493908 0.20713066 -0.991723 -0.058919404
000050 8b 3f f1 3c 3b 4b 1b 3e 44 10 c2 bf 5b b0 65 bc
       0.029449245 0.15165417 -1.5161214 -0.014019097
000060 b2 eb 98 bc a4 39 54 3c 5d 6f 01 bb ec 1b 2f bf
       -0.018667076 0.012953196 -0.0019750216 -0.6840198
000070 41 90 32 be 55 19 1a be b1 87 5e 3c ee 3d a4 bf
       -0.17437841 -0.15048726 0.013582156 -1.28314
000080 ff 3d 24 bc 7e 0d c6 3d c3 f7 57 3c 56 dc 1a be
       -0.010024547 0.09670542 0.01318163 -0.15123114
000090 c1 c7 c9 ba ea 09 00 3e 78 e9 97 3d ff 3f d5 be
       -0.0015394614 0.12503782 0.074175775 -0.41650388
0000a0 33 a2 ad bd 47 86 c3 3d 33 af fb 3d 80 36 08 bc
       -0.08478203 0.09547096 0.12289276 -0.008313775
0000b0 63 26 cc bf 80 c3 29 be cc ff 80 bd 00 96 8d 3d
       -1.5949215 -0.16578484 -0.062987894 0.06913376
0000c0 16 a6 9d 3d f6 60 9c be e0 ae 9a bf fe b4 86 bd
       0.07697694 -0.30542725 -1.2084618 -0.0657749
0000d0 92 92 4b 3d 0c 29 05 3e b6 b5 e2 bf 95 64 f8 bc
       0.049700327 0.1300394 -1.7711704 -0.030321399
0000e0 e1 e6 93 3d c6 ba 73 bc 09 1b 99 3c 44 d4 f2 bf
       0.07221771 -0.014876073 0.01868965 -1.8971028
0000f0 33 27 9d 3c c4 a3 a9 bd c9 e7 12 3d 2b e2 c9 bf
       0.01918373 -0.08283189 0.03586558 -1.5772146
000100 72 2c f2 bc cb 84 23 3e f3 87 ff 3d 67 4f 1d be
       -0.029562209 0.15968625 0.12477102 -0.15362321
000110 ab 30 80 bd 4a 81 73 3c 79 5e 33 be 51 6f 5a be
       -0.06259283 0.014862368 -0.17516507 -0.21331526
000120 8f ce f3 bc d0 57 e0 bd 8a 13 9a bd ce 8c 29 be
       -0.02976158 -0.10954249 -0.07523258 -0.16557619
000130 a1 01 ec bf e6 95 fa bd e9 2b 66 3d 3e 95 8c 3d
       -1.8437997 -0.12235622 0.05619422 0.06864403
000140 30 1a 1b 3d 6a ab 95 be e7 06 71 bf 2c fc dd 3d
       0.03786677 -0.2923234 -0.9415116 0.108391136
000150 fd b9 2b be a3 74 04 be a2 e7 db bf 58 a2 46 3d
       -0.16770168 -0.12935118 -1.7180064 0.048494667
000160 78 bd aa 3d 30 04 2e 3e 8b ff 34 ba 6a ec b1 bf
       0.083369195 0.16993785 -0.0006904534 -1.3900273
000170 15 5e 7e bd af f7 d1 3d 40 5a e6 3b 32 51 cd bf
       -0.062101442 0.1025232 0.0070298016 -1.6040404
000180 70 78 0a be 2e 70 15 be 8e 3d bc 3d b6 a6 3d bd
       -0.13522506 -0.14593574 0.09191428 -0.046301566
000190 ed 3a d3 3d 7f 30 68 bd a7 5a 08 be ad 61 0e bf
       0.103139736 -0.056686874 -0.13315831 -0.5561779
0001a0 9c df 33 be 10 5d bf bd 93 87 d7 3c e8 1d 1a 3d
       -0.17565769 -0.09343922 0.026309764 0.037626177
0001b0 b9 7c e2 bf 14 2f 95 3d af 06 f8 3d d1 16 21 be
       -1.7694312 0.0728437 0.1211065 -0.1573136
0001c0 90 00 19 bd 3d bc 86 be 06 cb 9b bf 9c b9 df bd
       -0.037354052 -0.2631549 -1.2171333 -0.10924074
0001d0 81 0a c3 bd 23 ad df bc 2c c2 ba bf f5 a8 73 bd
       -0.09523488 -0.027304238 -1.4590507 -0.0594873
0001e0 f1 42 e1 3d c9 69 22 3e 95 ea ba 3d 60 11 ba bf
       0.10999096 0.15860666 0.09126774 -1.4536552
0001f0 0b 65 03 3e 7d e4 24 3e bf ce 30 be 9c d9 96 bf
       0.12831514 0.16102786 -0.17266367 -1.1785159
000200 0a ae 9e 3d 69 0c db bd be b3 1f bb b2 9e 23 be
       0.07748039 -0.106957264 -0.002436861 -0.15978506
000210 45 e7 54 bd 01 dc f9 bd 7f 7e a7 3d d6 58 92 be
       -0.05197837 -0.122001655 0.08178424 -0.285834
000220 39 1c 9e bd c7 50 ca bc b7 a2 cc bd 2c a7 c2 bd
       -0.07720227 -0.02469672 -0.09991973 -0.09504542
000230 b8 4d 26 bf d7 b3 07 3e ff 47 04 3e e6 c1 28 be
       -0.6496234 0.13252197 0.1291809 -0.16480216
000240 45 b7 0c 3e 29 da ac be b4 8f 8d bf 74 33 31 be
       0.13741787 -0.33760193 -1.105948 -0.17304784
000250 2a 11 2a 3e 7f 0d f6 bd c8 05 c7 bf 4a f3 35 be
       0.1660811 -0.12014293 -1.5548639 -0.17768589
000260 33 ad 17 be f6 22 f9 bd f9 fc 37 be 48 7d 64 be
       -0.14812164 -0.121648714 -0.17967595 -0.22313416
000270 cf 92 32 be ad d7 05 bc e7 d2 e7 3d c4 ff a0 bf
       -0.17438816 -0.008169097 0.11319523 -1.2578053
000280 d2 f1 9f 3d 82 d1 89 3b bd 0a 14 3e e3 64 bd 3d
       0.078097954 0.0042058835 0.14457221 0.09247758
000290 33 a7 c2 3d 38 6d 8b 3d b1 56 05 bc 66 5a a3 3e
       0.09504547 0.06807941 -0.008138345 0.31904906
0002a0 35 28 ec 3d f0 ff 04 3e e5 4e 86 3d 94 30 48 be
       0.115311064 0.12988257 0.06558017 -0.19549781
0002b0 9a 5b 52 3f 26 5d 04 3e ae b8 a3 3d 78 09 2e be
       0.8217102 0.12926158 0.07994209 -0.169958
0002c0 61 e9 2a 3d 4f a0 83 3e 63 a6 3d 3f 27 a6 03 3d
       0.041726474 0.25708243 0.7408201 0.032140877
0002d0 3e f3 16 be 5d e6 1d 3e 92 a1 9a 3e ef 9a 1f 3e
       -0.14741227 0.15419908 0.30201393 0.15586446
0002e0 11 2b 0e be 2b ba af bc c7 47 82 3c 64 4c 19 3f
       -0.13883616 -0.021451076 0.015903367 0.5988219
0002f0 e2 2b c7 3d ab 2a 1f 3e 57 f7 66 3d c7 6f dd be
       0.09725167 0.1554362 0.056388225 -0.43249342
000300 56 c7 1d 3e 0b cc 35 bd 47 c6 bb bd d8 77 8e 3d
       0.15408072 -0.044384044 -0.09168678 0.06956452
000310 2f 1a 34 be a3 c9 8d bd 31 96 84 bd 81 d0 34 bc
       -0.17588113 -0.06923225 -0.06473959 -0.011036039
000320 f5 85 90 3c bc a3 09 be ae 0c da bc 64 c4 09 bd
       0.017642 -0.13441366 -0.026617374 -0.03363456
000330 8c c7 d6 bf 3a ff b6 3d bb 1b 22 be c3 cf 13 be
       -1.6779647 0.08935399 -0.15830891 -0.14434724
000340 fa 65 df bd b2 3d ee bc cb 6e 4a bf b1 1d 7d 3c
       -0.10908122 -0.029082153 -0.79075307 0.0154489735
000350 49 61 23 3e fa 86 21 3d 53 03 b9 bf 2a 12 e2 3c
       0.1595508 0.039435364 -1.445414 0.027596552
000360 7a 00 db bd 57 6f fb bc 96 d4 8f bd fc 72 df bf
       -0.1069345 -0.03069274 -0.070229694 -1.7456965
000370 ab 7d c5 bd 3c ba 0e 3e 14 dc 2d 3e 17 e8 b6 bf
       -0.0964311 0.1393823 0.16978484 -1.4289578
000380 f1 0c 28 3c be a7 29 bc e7 6d af 3d dd 99 8e 3c
       0.010256992 -0.010354934 0.08565884 0.017407352
000390 39 77 fe 3d 26 86 b0 bd 77 7c ef 3d f8 0f ac 3d
       0.12425084 -0.08619337 0.11693662 0.08401483
0003a0 80 07 b3 3d df 4a 0c 3e d0 97 0f 3e 78 ac b6 bc
       0.08741665 0.13700436 0.14022756 -0.022299036
0003b0 49 86 29 3e 8a be 38 bd 6d 37 1f bd b9 c1 e4 bd
       0.16555132 -0.045103587 -0.038871218 -0.11169762
0003c0 44 99 f5 bd 18 2a 32 3e 8a b0 84 bf a8 29 aa 3d
       -0.11992124 0.1739887 -1.0366375 0.083087265
0003d0 db 82 dd bd 5e 77 e3 3d 0c 5e d8 bf cd af 1f be
       -0.10815974 0.11106752 -1.6903701 -0.15594406
0003e0 3b 17 a3 bd 45 74 ab 3d 09 db eb 3c a4 4e 94 be
       -0.07963415 0.08371786 0.028790968 -0.28966248
0003f0 c0 15 39 be cc 0f 43 bc a3 44 fd bd 2b af 8c bf
       -0.18074703 -0.011905622 -0.12366607 -1.0990957

linear_layers.1.bias f4 [32]
000000 9c 52 38 bf 13 31 9f bf 02 9e 87 bf 87 c1 8a bf
       -0.7200105 -1.2436851 -1.0595095 -1.084031
000010 6d 6b 49 bf c7 1f c0 be 8d 8c 57 bf 46 19 95 bf
       -0.78679544 -0.37524244 -0.8419884 -1.1648338
000020 4c 6d e8 be 20 4c 55 bf 36 f4 8a bf 5e 90 78 bf
       -0.45395887 -0.8331928 -1.0855777 -0.97095287
000030 31 20 62 bf d7 b1 85 bf ce c9 47 bf 3b f0 53 bf
       -0.8833037 -1.0444897 -0.78042305 -0.8278844
000040 14 37 85 bf 3f 69 7f bf 6d 07 53 bf 8c f1 29 bf
       -1.0407434 -0.9976997 -0.82433206 -0.66384196
000050 1e 0a 5b bf 23 a8 7b bf 40 c2 5d bf d7 83 81 bf
       -0.8556231 -0.9830343 -0.86624527 -1.0118359
000060 88 c8 81 be b9 f7 99 bf 3f f9 42 bf c3 bb 90 bf
       -0.25348306 -1.2028724 -0.7616157 -1.13073
000070 67 ea 41 bf 3d 92 51 bf 32 0a 35 bf ff 82 87 be
       -0.75748295 -0.81863767 -0.7071868 -0.2646713

linear_layers.2.weight f4 [32, 32]
000000 7f 31 c0 bd 63 15 2e 3e 88 5d 94 3a f0 44 4b bd
       -0.09384441 0.17000346 0.0011319378 -0.04962629
000010 c4 65 4b be 76 dc 9a bf dd 9e cd bd eb 1d 46 bd
       -0.1986304 -1.2098529 -0.100400664 -0.048368376
000020 28 32 9c bf d3 a7 c3 3d 89 63 c8 3c 2d ef 31 3d
       -1.2202806 0.09553494 0.024461525 0.043440986
000030 8c 57 c8 3d 1c 99 6c 3d 57 9f ad 3d 29 b4 e7 3c
       0.09782323 0.057763204 0.08477657 0.02828415
000040 e1 a2 29 be bf 48 90 3d 8c e2 0b be a8 5d 5a 3d
       -0.1656604 0.07045125 -0.1366064 0.053311974
000050 63 39 1b 3d 8d 66 a8 3d 51 17 17 3d 8c 3b 2c bc
       0.037896525 0.08222685 0.03688747 -0.010512244
000060 66 a2 5e bf 4f ff 0d 3e 85 d3 bf bc 42 bc 61 bd
       -0.8696655 0.13866924 -0.02341629 -0.055111177
000070 9c 76 e3 bd 99 7e 09 be ca 50 f3 3d 60 23 7b bf
       -0.11106607 -0.134272 0.11880644 -0.9810085
000080 5e 03 f0 3d 20 71 f6 3c b9 f6 28 3e 8d 18 28 bd
       0.11719392 0.03008324 0.16500367 -0.04103904
000090 f1 3a e3 3d 8f 46 27 3e 1d 8c 06 bd 63 90 73 3d
       0.110952266 0.1633551 -0.032848466 0.05946387
0000a0 c3 01 05 3f 42 20 13 be 2c c0 f3 bd 1f 00 30 3e
       0.51955813 -0.14367774 -0.11901888 0.17187546
0000b0 c0 ee a8 3d ab 4d d7 bd ff ca ae 3d 25 97 3c 3d
       0.08248663 -0.10512861 0.08534812 0.04604258
0000c0 91 c8 3f bd 1c ec 24 be 8b 0d 56 3d 77 ff 2b 3e
       -0.046822134 -0.16105694 0.05225901 0.16796671
0000d0 db bd b7 3d ee d8 e9 bd 11 8f ad bc 4e db d3 bd
       0.08971759 -0.11418329 -0.021186383 -0.103445634
0000e0 fe ea c7 3e 9a a9 9f bb 02 f6 e0 3d 45 d2 c7 3d
       0.39046472 -0.004872513 0.10984422 0.097569026
0000f0 c3 d8 bd 3d 73 cd 2a 3d 21 b1 0e be 75 3f 1c 3f
       0.0926986 0.041699838 -0.13934757 0.6103433
000100 95 29 a4 bd 72 d9 0b be 21 a9 35 bd e8 70 e3 3d
       -0.08015744 -0.13657168 -0.044350747 0.111055195
000110 37 d4 f1 bd b2 a2 8f bf 25 de 7e bd fe e8 97 bd
       -0.11808055 -1.1221526 -0.062223572 -0.074174866
000120 aa 49 7b bf 5c 83 0d be f1 8c 12 3e 21 1b 9d 3d
       -0.9815928 -0.13819641 0.14311577 0.0767119
000130 5f 80 cf 3d 46 0a 87 3c c1 ac 74 3d 7c 94 b4 3c
       0.10131907 0.016484391 0.059735063 0.02204346
000140 fe 3f cc 3d dd 6f 97 3c 89 02 8f 3d cd 9d 35 be
       0.09973143 0.018485958 0.069829054 -0.17735977
000150 4c 4b 38 be 09 a2 1a 3e 9a b4 04 3e 21 8f cb bd
       -0.17997473 0.15100874 0.12959519 -0.09939409
000160 32 02 3f bf b8 fa 3c bd b5 75 36 be 5e 9c f9 3d
       -0.74612725 -0.04613754 -0.17818339 0.12188028
000170 30 dc 98 3c 73 eb da 3d 33 6a c8 3d 29 40 61 bf
       0.018659681 0.106894396 0.09785881 -0.87988526
000180 92 d0 02 bc 44 c0 24 bd ae 6f b5 3d c5 f9 0b 3e
       -0.007984297 -0.04022242 0.08859192 0.13669498
000190 85 31 c6 3d d3 95 d4 bf 59 1e 04 be ab 96 ee bd
       0.09677414 -1.6608223 -0.12902202 -0.116498314
0001a0 c4 d0 9b bf 8d d6 13 3e 8f e5 d8 bd b8 25 17 3d
       -1.2173085 0.14437313 -0.1059066 0.036901206
0001b0 71 25 0f 3d 61 b1 49 3c 62 27 94 bd 1d 14 bc bd
       0.034947816 0.012310357 -0.07234074 -0.09183524
0001c0 9b 93 cf 3b 5a 61 1d be 21 05 e3 bd 75 dd 83 3d
       0.0063347346 -0.15369168 -0.11084963 0.06438724
0001d0 5a f1 1b bc 66 28 d9 bd 12 18 88 bd f4 85 0f 3d
       -0.009517992 -0.106034085 -0.06645216 0.035039857
0001e0 70 1b 91 bf d4 57 6d 3d c8 0e e5 3d d8 58 91 3c
       -1.1336498 0.057945088 0.1118446 0.01774256
0001f0 9e 78 ff bd 6f eb 7a bc 5f 17 ef bd 4e 52 aa bf
       -0.12474178 -0.015314921 -0.116743796 -1.3306367
000200 76 59 84 bd c8 39 7d 3c 89 86 2b bc d3 e4 08 3e
       -0.06462376 0.015455671 -0.010469087 0.1336854
000210 c2 ee a5 3d b4 97 96 bf 64 44 5c 3d 2f ca a7 bd
       0.0810218 -1.1765046 0.05377616 -0.0819286
000220 82 e1 90 bf cb 2e 90 3c 7f d5 33 be 78 00 9e 3d
       -1.131882 0.017600438 -0.17561911 0.07714933
000230 26 97 95 bd d3 e1 d2 3d 0c c3 dd 3d da e4 f2 bd
       -0.0730422 0.10296979 0.10828218 -0.11860056
000240 0a ed 33 be 9a 4a 31 be 56 22 ab bd 1b f1 4c 3d
       -0.17570892 -0.17313614 -0.083561584 0.050034624
000250 be c9 f4 3d ce cd 50 3d 67 d3 28 3e bb 65 9f bb
       0.11952542 0.05097752 0.16486894 -0.004864422
000260 20 c7 8e bf 39 5e 80 3d 07 c2 c1 bd f2 cb f8 3d
       -1.1154518 0.062679715 -0.09460836 0.121482745
000270 7f 8e ed 3d e5 b9 aa 3d 0c 86 26 3b 47 48 a0 bf
       0.115994446 0.08336238 0.0025409488 -1.2522057
000280 f4 7e e2 3d 9b b0 23 bd df 06 2d 3e a2 82 00 be
       0.11059371 -0.039963346 0.16897152 -0.12549832
000290 95 6b 25 be 8e f2 91 bf 51 34 28 3e 47 84 ef bd
       -0.1615432 -1.1402147 0.16426207 -0.11695152
0002a0 50 60 89 bf e0 a0 21 3e b0 b9 1d be 15 c7 43 bc
       -1.0732517 0.15784025 -0.15402865 -0.01194932
0002b0 c1 64 f1 3d 5c e3 82 bc 65 a2 2c be bd 41 36 be
       0.117867954 -0.015977554 -0.16858824 -0.17798515
0002c0 67 63 6a bd 19 a5 bd bd d0 60 c2 3d 73 0e 3e be
       -0.057223704 -0.092600055 0.09491122 -0.185602
0002d0 e2 f1 2f 3c 51 d6 a3 bd e7 60 d4 bd 32 16 95 bd
       0.010738822 -0.07999862 -0.10370045 -0.07279624
0002e0 7c a9 78 bf b7 7b 2c be e8 b4 00 3e 20 b2 2b be
       -0.9713361 -0.16844068 0.1256901 -0.16767168
0002f0 18 72 63 bd c8 fd 81 3d 71 3f 12 be 87 4b 9d bf
       -0.05552873 0.06347233 -0.14282013 -1.2288674
000300 86 a2 39 3d c6 1c 34 3e 8c 2c ff bd da 36 5e 3d
       0.04532101 0.17589101 -0.124596685 0.05425153
000310 ee 5d af bd b1 b4 cc bf d9 b5 eb ba 32 67 a8 bd
       -0.085628375 -1.5992643 -0.0017983272 -0.08222808
000320 67 86 85 bf d0 49 29 3e cb e1 05 3e 55 1f 19 bd
       -1.0431641 0.16532063 0.13074414 -0.037383396
000330 b7 a6 21 3e 61 05 22 bd da 41 10 bc cb 31 2f be
       0.15786253 -0.03955591 -0.008804763 -0.17108838
000340 3d 60 15 3e df 4b c9 3d e7 ac 1f be 82 1f 53 bd
       0.14587493 0.098289244 -0.15593301 -0.05154372
000350 ab 4b 43 bd 44 04 af bc 20 e6 1e be 11 94 78 bd
       -0.047679584 -0.021364339 -0.15517473 -0.060688082
000360 cc 38 69 bf 35 1a 32 3e 6c 0a f7 bd be d1 a7 3d
       -0.9110229 0.1739281 -0.12062535 0.08194302
000370 b3 56 19 3c b0 cd 12 bd 14 4e 29 be 0f a4 90 bf
       0.00935905 -0.03584069 -0.1653369 -1.1300067
000380 ef b6 73 3d 3e e1 a9 bd e2 f8 80 bd 2d 8b 96 bc
       0.05950063 -0.08294915 -0.06297471 -0.018376911
000390 74 75 b4 3c fe 5f 5d be 90 09 c9 bd c6 f6 0e 3e
       0.022028662 -0.2161865 -0.09816277 0.13961324
0003a0 6e bf 50 bc d1 33 c7 bd ab 01 a8 3d f3 d6 cc 3d
       -0.012740953 -0.0972668 0.08203443 0.10001936
0003b0 3f 23 1c be 11 2f 1d be 3f 13 0c 3e 5d f8 a5 bd
       -0.1524782 -0.15349986 0.13679217 -0.08104012
0003c0 bd af c6 bc a0 88 ee 3d b5 29 f4 3d 8e d1 cd 3d
       -0.02425372 0.11647153 0.119220175 0.10049735
0003d0 64 7f 7b 3d 55 62 e5 3d 65 5e 8c bd 53 24 79 3d
       0.061400786 0.11200396 -0.06853942 0.060825657
0003e0 dc 28 11 be 46 a6 de bd 33 36 2a be 7d 8a 0a be
       -0.14175743 -0.10871558 -0.16622238 -0.13529392
0003f0 e2 43 17 3e c8 e8 d0 bc d0 a6 d8 bd 0d 29 dc bd
       0.14771989 -0.025501624 -0.10578692 -0.10750017

linear_layers.2.bias f4 [32]
000000 1d 17 79 bf c4 89 66 be 49 5b a1 bf c8 2f 95 bf
       -0.97300893 -0.22513491 -1.2605983 -1.1655207
000010 75 41 a8 bf 28 37 95 bf d6 c8 4d bf 88 74 0d bf
       -1.3144976 -1.1657457 -0.80384576 -0.5525594
000020 ee d2 43 bf 20 55 d2 be 7f ee f7 bd 80 80 7f bf
       -0.7649373 -0.4108057 -0.121060364 -0.9980545
000030 61 0c 24 bf 3b 5c 38 bf 32 47 36 bf 9f 5d 4e bf
       -0.6408139 -0.7201573 -0.71202385 -0.80611604
000040 d1 79 aa bf 82 f0 81 bf aa 5c 75 bf 87 b4 00 bf
       -1.3318425 -1.0151522 -0.9584452 -0.5027546
000050 d0 77 60 bf 5e 76 62 bf 5f 29 9f bf 3d 8b 69 bf
       -0.8768282 -0.88461864 -1.24345 -0.91228086
000060 72 eb 2c bf 6c 0f 35 bf 31 7e 65 bf 10 1e 27 bf
       -0.6754676 -0.70726657 -0.8964568 -0.65280247
000070 88 bd 67 bf 80 a0 51 bf fa 70 22 bf 9a b8 7e bf
       -0.90523577 -0.8188553 -0.6345364 -0.9950043

linear_layers.3.weight f4 [32, 32]
000000 9a 2f ef bc f1 55 a7 bf 6e 3f 33 be e7 7d 58 bd
       -0.029197503 -1.3073102 -0.17504665 -0.052854445
000010 a0 d9 f6 bd aa a3 3b bd bf ba d6 bc da 4b 13 bf
       -0.120532274 -0.04581038 -0.026212094 -0.57537615
000020 e9 b0 ba 3d 97 1f 36 bf ce 9f d3 bf 8b b2 4a bd
       0.09115774 -0.7114195 -1.6533144 -0.049486678
000030 65 7c 25 3e 66 8b a7 3d 61 c7 a7 bd 38 db ae bb
       0.16160734 0.08180885 -0.081923254 -0.0053361915
000040 d5 33 dc 3c 82 76 a4 3d 40 0b fe bd 4c 7e e7 3d
       0.026880184 0.08030416 -0.124044895 0.11303386
000050 01 ab 62 be c5 b3 b3 bc 3f bc ce 3d ce 01 04 be
       -0.22135545 -0.021936307 0.10094499 -0.12891313
000060 5f 98 03 3e f4 c7 7d bd 18 9e 15 3e 50 3e 84 3c
       0.12851094 -0.06195827 0.14611089 0.016142994
000070 33 de a4 bd ab c2 e7 bd 38 78 d2 bd ef e4 cd bc
       -0.08050194 -0.11316427 -0.10276836 -0.025133578
000080 63 49 b9 bc 13 58 98 bf a1 4e 3e 3c 86 10 14 be
       -0.022618001 -1.1901878 0.011615426 -0.14459428
000090 1a cf 76 3c e9 39 21 3d 7d ee 36 bd 94 35 9a be
       0.015064025 0.039361868 -0.044661034 -0.30119002
0000a0 e6 a6 13 be f9 fc 1a bf 1f 1e ab bf cc e9 7f bb
       -0.14419135 -0.60542256 -1.3368567 -0.0039049266
0000b0 1a e6 49 bd 81 1b 35 3d 01 1c 51 bd 54 39 29 3e
       -0.049291708 0.044215683 -0.051052097 0.16525775
0000c0 df a1 d7 3d 3c 57 e4 3c f8 a8 27 bd 70 66 20 be
       0.10528921 0.027873628 -0.040932626 -0.15664077
0000d0 f3 07 0d be 12 82 c2 3d 3b 80 78 bd f8 9a 30 3e
       -0.13772564 0.09497465 -0.060669165 0.17246616
0000e0 8c c9 07 3e 79 e5 bc 3d 53 18 89 bd 21 82 b5 bc
       0.13260478 0.09223456 -0.066940926 -0.022156777
0000f0 93 97 90 3c 9e cd a3 bd 7c 9f 33 be 22 f0 2a 3c
       0.017650401 -0.07998203 -0.17541307 0.010433229
000100 b1 94 fa bd 31 f6 a5 bf d9 18 84 bd 35 7f 26 3e
       -0.12235392 -1.2965757 -0.06450052 0.16259463
000110 b0 f2 19 be 65 0b 18 be d1 b2 7f 3d 89 63 fb be
       -0.15033984 -0.14848097 0.062426392 -0.49099377
000120 05 e0 7f bd 2a 7f 5f bf 89 48 c2 bf 45 a4 9e 3d
       -0.0624695 -0.8730341 -1.5178386 0.07746176
000130 b2 1a 8f 3d 37 75 25 be ba aa 23 be 02 c1 e3 bd
       0.069875136 -0.16157995 -0.15983096 -0.11120798
000140 cc 8f 1f be 3b 9a 19 bd 48 a1 05 3e 57 cc ed bd
       -0.15582198 -0.0375006 0.13049805 -0.1161124
000150 d8 15 32 be a2 df e3 3d 04 28 32 be 24 27 77 3d
       -0.17391145 0.11126639 -0.17398077 0.06034006
000160 e4 4c c7 bc 5b e0 97 3c 22 84 fe 3d cd 0d 20 bd
       -0.024328656 0.018539598 0.12427546 -0.03907566
000170 5e 7f 8d bd 1c ab bf 3c 51 4c ff bd 3f ca b8 bd
       -0.06909059 0.023397021 -0.12465728 -0.090229504
000180 b1 50 97 3d 8f 18 97 bf 49 a3 15 bd fd ae 2c 3d
       0.073884375 -1.180437 -0.036532674 0.04215907
000190 2e 6b b9 bd 91 64 e3 bb 26 ca 34 be 4d 1a 08 bf
       -0.09053646 -0.0069394787 -0.17655239 -0.5316513
0001a0 94 22 08 be c1 52 33 bf 9e 27 b2 bf 0b 56 06 be
       -0.1329444 -0.7004815 -1.391834 -0.1311876
0001b0 84 6f 14 3e dc cb 21 3e e7 78 91 3d cb de db 3d
       0.14495665 0.15800422 0.071031384 0.10735854
0001c0 fa 52 17 3e 41 64 9a bd 89 a1 3d bd 81 68 8c 3d
       0.14777747 -0.07538653 -0.04629663 0.0685587
0001d0 90 27 1f bd 72 18 fd bd 46 f0 0b 3e 6a 61 dd 3c
       -0.03885609 -0.12358178 0.13665876 0.02702399
0001e0 b3 d1 06 3e b4 bd 0f 3e 5b e6 98 bd 53 34 72 3c
       0.13165931 0.1403721 -0.07465812 0.014782983
0001f0 45 36 9a 3c bc ef ea bb 01 9c a9 3c f4 d9 7a bb
       0.018824706 -0.007169692 0.020704271 -0.0038276883
000200 8b a2 02 be 24 97 9b bf 0e 00 b9 3d 66 4c 6e 3c
       -0.12757318 -1.21555 0.090332136 0.014544582
000210 74 a6 68 bc 13 39 94 3c 9b f3 0e bd d9 83 4e be
       -0.014199842 0.018093621 -0.03490029 -0.20167483
000220 8f f6 1b 3e bc 9e 06 bf aa 62 c3 bf 13 55 a4 3d
       0.15230773 -0.5258596 -1.5264485 0.08024039
000230 9f ec de bd 6d cb ec 3c 9d 06 7a bd 84 5f 04 bd
       -0.10884976 0.028905595 -0.061041463 -0.032317653
000240 78 8b 07 3e ce bf 08 3e 80 2a 2b be da 58 e7 3d
       0.13236797 0.13354418 -0.16715431 0.11296244
000250 0c f2 cd 3c fe f6 cd 3d 99 8b e1 3c 5a 00 c2 39
       0.025139831 0.10056876 0.027532386 0.00037002825
000260 ed d5 dc bd 6f 7a a1 3c 6e 30 eb bd 56 3a d0 3c
       -0.107829906 0.019711701 -0.114838466 0.025418442
000270 b7 b0 81 3d 7a 52 32 bd b4 24 2e be 95 85 2e 3e
       0.06332534 -0.043535687 -0.17006189 0.17043145
000280 fa 7a dc 3d 9d 29 8f bf f4 ca 01 be e7 72 7d bd
       0.107656434 -1.1184574 -0.12675077 -0.061877158
000290 d7 60 81 bd 02 dd ac bd 23 ca 2d be 1b 36 10 bf
       -0.06317299 -0.084405914 -0.1697164 -0.5633256
0002a0 ce a4 86 bd 38 94 0f bf 7c eb b7 bf c4 12 94 3d
       -0.06574403 -0.5608554 -1.4368739 0.07230142
0002b0 27 01 86 bd b4 ed 58 3d c7 15 52 bd 34 b4 63 3d
       -0.065431885 0.052961066 -0.0512903 0.055591777
0002c0 c8 3a f8 bd f5 b0 9b bc 06 c8 65 3d 5a 6f ab bc
       -0.12120587 -0.019005278 0.05609896 -0.02092712
0002d0 18 95 99 bd b2 c8 f5 bd d8 d8 8a 3c cf 6a e9 bc
       -0.074991405 -0.1200117 0.016949102 -0.028493313
0002e0 7b 11 67 3d 37 70 8a 3d e7 da e1 3c 34 36 ab 3d
       0.056413155 0.067596845 0.027570201 0.08359948
0002f0 bb d4 3f be e8 3c af 3d 78 27 ef 3d 58 c8 0f be
       -0.18733494 0.08556539 0.1167745 -0.14041269
000300 f1 89 a6 bd 67 e5 96 bf 30 41 83 3d 5e bf a9 bd
       -0.08131779 -1.1788758 0.06408918 -0.082884535
000310 ca b7 c7 3b a4 9f 10 be dd dc 06 3e 8a 98 08 bf
       0.0060949074 -0.14123398 0.1317019 -0.53357756
000320 a8 23 5c 3d 5e b0 1f bf ee d3 aa bf de 1f 13 3e
       0.053744942 -0.6237849 -1.3345926 0.14367625
000330 b4 f9 f1 3d c1 83 47 3d f9 a2 af bd 08 b3 70 bd
       0.11815205 0.048709635 -0.085760064 -0.058764488
000340 50 2d 1c be 59 3a 1e 3c 1e 55 85 3d 3f 05 31 bd
       -0.1525166 0.009657466 0.065103754 -0.043217894
000350 3d 10 d2 bd 3e 09 23 bd 9e ab bb 3d e6 81 37 bd
       -0.102570035 -0.039803736 0.09163593 -0.044801615
000360 9b 04 21 3e 91 5c 41 bd 6e 4b c7 bb 11 7e e5 3d
       0.15724413 -0.04720742 -0.00608199 0.11205686
000370 72 50 34 bd 85 7f 1b bd 62 7b fb bd 60 2b cd bd
       -0.04402203 -0.03796341 -0.12279393 -0.10018039
000380 0b cd f1 bd fd 86 7b bf 9a b3 75 3d 33 70 e7 bd
       -0.11806687 -0.9825285 0.059985735 -0.11300697
000390 fa 5f 90 bd 5a 04 5b 3d 5e f8 ad bd 6f 02 0c bf
       -0.07049556 0.053470947 -0.08494638 -0.54691213
0003a0 36 e8 fa 3d 21 7e 2f bf 3a b5 bb bf 7e 52 2c 3e
       0.12251322 -0.6855183 -1.4664681 0.16828343
0003b0 d5 42 11 be 24 bf 11 be 69 58 34 be d5 45 62 bb
       -0.1418565 -0.1423307 -0.17611851 -0.0034526486
0003c0 00 f7 89 bd aa b9 c7 bd 2f 29 35 bd c2 f4 2c be
       -0.06736565 -0.097522095 -0.04422873 -0.16890243
0003d0 1a 87 5c be b1 a9 15 be 66 69 a5 3d fa e0 cb 3d
       -0.21535912 -0.14615513 0.08076744 0.0995502
0003e0 99 55 f1 bd a5 8a 17 3e 28 bd a8 bd 76 94 f5 3d
       -0.117839046 0.14798982 -0.08239204 0.11991207
0003f0 67 70 9c bd 50 d7 0c bc 4f 89 48 3d b1 21 30 be
       -0.076386265 -0.008596256 0.048959073 -0.17200352

linear_layers.3.bias f4 [32]
000000 87 c0 8c bf 37 5c 2b bf b2 95 48 bf 19 40 24 bf
       -1.0996255 -0.66937584 -0.78353417 -0.64160305
000010 4b 38 55 bf bc 4e 53 bf e1 ce 59 bf c0 f3 35 bf
       -0.8328902 -0.82542014 -0.850813 -0.7107506
000020 6c a9 70 bf f9 93 40 bf 0d f4 88 bf b5 2f 8a bf
       -0.9400852 -0.7522579 -1.0699478 -1.0795809
000030 e9 75 35 bf 1f b1 9b bf b0 c5 d7 be 0b 60 61 bf
       -0.7088304 -1.2163428 -0.4214301 -0.88037175
000040 02 f5 4c bf c8 3a 65 bf 07 90 8a bf d4 b0 5b bf
       -0.8006135 -0.8954282 -1.0825204 -0.85816693
000050 86 60 29 bf 8c df 85 bf b5 67 87 bd 29 cc 9e bf
       -0.6616291 -1.0458846 -0.066115774 -1.2406055
000060 5b 27 42 bf a6 c1 45 bf b6 12 7a bf 46 e3 56 bf
       -0.758413 -0.7724861 -0.976848 -0.8394054
000070 85 3f 82 bf 38 07 7b bf cb 92 21 bf 33 3d 4c 3f
       -1.0175635 -0.9805789 -0.63114613 0.7978088

linear_layers.4.weight f4 [32, 32]
000000 89 ae 25 be 04 15 f8 3d 05 c7 84 3c 47 6a 26 3d
       -0.16179861 0.121133834 0.016208181 0.040628698
000010 69 06 09 bd 3f db 0b 3d b9 ec 51 3d fc 05 0b be
       -0.03345338 0.034144636 0.051251147 -0.13576502
000020 ba 03 d0 bd dd 17 62 bd c6 c4 21 be 85 6b 8e 3d
       -0.10156961 -0.05519854 -0.1579772 0.069541015
000030 18 e0 52 3d 9d 20 dd 3d 37 15 9d bf b1 6a 8c 3d
       0.051483244 0.10797236 -1.2272099 0.06856287
000040 08 9b af 3d 06 c7 08 be 87 12 0c 3e 8b 2b b0 3c
       0.08574492 -0.13357171 0.13678943 0.021505138
000050 fc 04 26 be f5 77 b2 bd 0b 4b 7a bf f8 65 c3 bb
       -0.16212839 -0.08714286 -0.97770756 -0.0059630834
000060 36 e0 7c 3d ba 2e 11 3e 6d 97 f8 bd 8d 0e 7a bd
       0.06173726 0.14177981 -0.12138257 -0.061049033
000070 59 63 0c 3e a0 55 35 bd ca ec 98 3d 41 a0 28 c0
       0.13709773 -0.04427111 0.07467039 -2.6347811
000080 03 36 e2 bd 12 b2 9d bd e8 96 9d bd a9 97 1d be
       -0.11045458 -0.0769998 -0.07694799 -0.15389885
000090 50 89 8e 3d 61 73 b3 3d 53 c3 53 be e1 8f 29 be
       0.06959784 0.08762241 -0.20679979 -0.16558792
0000a0 c8 eb 14 3e 50 8f 03 3d d9 55 78 3c a8 f9 de bd
       0.14543068 0.032119095 0.015157186 -0.10887462
0000b0 ab 07 90 3d be e7 7f 3d 21 e4 87 bf fb 6b ae bd
       0.070327125 0.062476866 -1.0616494 -0.085166894
0000c0 01 1c 7b 3d e8 09 93 bc d4 fe 38 bb f7 4f 95 3d
       0.061306003 -0.01794906 -0.0028228061 0.07290643
0000d0 54 1f a9 3d dd 22 8a 3d 3a b2 82 bf aa 19 b5 bd
       0.082579285 0.06744931 -1.021064 -0.08842786
0000e0 d7 d1 0d 3e 31 15 54 bb f9 52 39 bd 42 d7 8b 3d
       0.13849579 -0.0032361264 -0.045245145 0.068281665
0000f0 6a 52 1a 3e ad 3e 12 bd 04 9a c1 bd f6 c9 cb bf
       0.15070501 -0.035704304 -0.09453204 -1.5921009
000100 6f e7 b1 3d 54 11 2c bc 49 45 a2 bd ff a0 30 3e
       0.086867206 -0.010502178 -0.07923371 0.17248915
000110 96 cb a0 bd 4c 14 54 bd 36 59 35 be 16 15 b8 3d
       -0.07851331 -0.05177717 -0.17709813 0.08988397
000120 f0 c6 30 3e 9a d1 e6 bd 00 5b 6b bd 78 2f 33 be
       0.17263389 -0.11270447 -0.05745983 -0.17498577
000130 75 ef 3f bd 2f de f0 3c f1 5a 88 bf d5 eb a6 bd
       -0.046859223 0.02940282 -1.0652753 -0.0815045
000140 a2 32 e6 bc 86 0c 05 be 4d f2 0a 3e af ae 9a 3d
       -0.028100315 -0.12993059 0.13568993 0.075528495
000150 e8 14 14 3d d0 ca 0f be 63 b0 8f bf 8c d0 a5 bd
       0.03615275 -0.1404221 -1.1225704 -0.08096418
000160 ea e6 ba 3d 5b 78 22 3d d1 47 84 bd 83 ce e5 bd
       0.091260746 0.03966556 -0.064590104 -0.112210296
000170 d9 ea bd bc 64 b3 cb 3d 46 a9 17 3d b8 64 cb bf
       -0.023183273 0.099463254 0.037026666 -1.5890112
000180 c6 28 6f 3d 41 62 3e bd f6 51 45 bd 24 e7 e4 bd
       0.058388494 -0.04648042 -0.048173867 -0.11176899
000190 88 fa ca bb 57 ca a7 3d 54 26 93 bd 2a ad bb 3d
       -0.0061944164 0.0819289 -0.07185045 0.09163888
0001a0 ae 53 53 bb 84 7c 9d 3d 99 8f 34 3e 57 05 71 bc
       -0.0032245922 0.07689765 0.17632903 -0.014710746
0001b0 b6 19 54 3d 48 1e ad bd 7c 91 ac bf c7 9e b7 3d
       0.051782332 -0.08453041 -1.3481898 0.08965831
0001c0 e4 02 e0 3b 07 82 11 bd 0c 29 37 bc b7 a2 21 be
       0.006836282 -0.035524394 -0.01117922 -0.15784727
0001d0 a7 2d ac bd 23 44 27 be 4b 1e 40 bf 97 37 04 bd
       -0.08407145 -0.16334586 -0.75046223 -0.032279577
0001e0 08 93 c1 bd 64 47 6d 3d 50 d2 4c 3d 6f 8d 91 3d
       -0.09451872 0.05792941 0.050005257 0.071070544
0001f0 f1 9f c3 bd a8 27 07 be 5e 94 0a be 90 a9 12 c0
       -0.09551991 -0.13198721 -0.1353316 -2.2915993
000200 ce a4 8a bd d7 b8 d1 3d 61 6d 0f 3d c5 78 ee 3d
       -0.06769715 0.102403335 0.03501642 0.11644129
000210 a0 c7 cd bd 74 7f 18 bd 08 40 2d be 36 b3 64 3d
       -0.10047841 -0.037230924 -0.16918957 0.05583497
000220 f5 e1 2a 3c c6 d0 11 be 42 f0 e4 bd 74 c2 ee 3d
       0.010429849 -0.14239797 -0.11178638 0.11658183
000230 85 91 50 bd ab d4 f7 3c 93 b3 8a bf 6a 41 c0 3c
       -0.05092003 0.030252775 -1.0836052 0.023468692
000240 59 d2 34 bd 6f 55 15 be 5e b6 a6 bd 53 10 2a 3d
       -0.044145916 -0.14583372 -0.081402525 0.041519474
000250 d2 52 8e 3c 84 1e f2 3d 53 3f a7 bf 79 64 29 3c
       0.017373476 0.11822227 -1.30662 0.010338896
000260 8c 3f c0 3d aa 93 bd 3b 40 14 f0 bd 83 33 fc 3d
       0.093871206 0.005785425 -0.117226124 0.123145126
000270 ab 44 e1 bd 5f 7f 1b 3c be a9 e8 bd be 06 19 c0
       -0.109994255 0.009490817 -0.11360501 -2.3910365
000280 b9 ba e7 3b 1e 35 d4 3d c0 45 3b bd 69 c6 09 3e
       0.0070718196 0.10361694 -0.045720816 0.13454594
000290 4b 32 99 bd 2e 86 b8 3d 93 18 0e be 27 75 37 be
       -0.07480296 0.09009968 -0.13876562 -0.17915784
0002a0 0d f7 34 3e 67 37 d6 bd 3e ba 16 3d 8c 0e 7f bd
       0.17672367 -0.10459786 0.03679871 -0.062269732
0002b0 fb 59 33 be c5 e9 9b 3d 68 ee 8f bf 91 0d ad 3d
       -0.17514794 0.076129474 -1.1244631 0.08449853
0002c0 be 7b 1b be 10 e8 e8 bd 3c 70 eb 3d be 7c 11 be
       -0.15183923 -0.113723874 0.114960164 -0.14207742
0002d0 7c 4f 03 3e 0f 0a 1f bc 87 e2 93 bf e1 70 83 bd
       0.1282329 -0.009706988 -1.1553506 -0.06418014
0002e0 17 98 a5 3d c1 59 ed 3d 60 40 e4 bd 26 6c 0e 3d
       0.080856495 0.11589385 -0.11145091 0.034771107
0002f0 39 f2 0d be d5 91 24 be 99 1f 27 be 9c f2 9b bf
       -0.13861932 -0.16071256 -0.16320647 -1.2183414
000300 ff 72 9f bd ff da 1c bd 93 ce a8 3d 08 1d 10 bd
       -0.07785606 -0.03829479 0.08242526 -0.035183936
000310 d1 08 14 3e f9 ab 2c be 9a ac d8 3d 86 19 d7 3d
       0.14456488 -0.16862477 0.10579796 0.10502915
000320 6a 80 ff 3d da e7 ad 3d 83 47 14 be fe c6 bc 3c
       0.12475665 0.08491488 -0.14480405 0.023044106
000330 e9 7c e1 3c f3 a4 32 bd fa 5d 99 bf 29 05 54 bd
       0.027525382 -0.04361434 -1.1981804 -0.051762734
000340 0c 98 26 3e 24 fc 99 bc fa 2a fd 3c 78 6d fd 3d
       0.16268939 -0.018796988 0.030904282 0.12374395
000350 57 4e bb 3d 5a c7 2a bc e4 e0 9d bf 3f 2a bc 3d
       0.091458015 -0.010423506 -1.2334256 0.09187745
000360 b6 4c 8a bd 80 2b ca bd 31 4c 9e bc 88 25 dd bd
       -0.06752913 -0.09871578 -0.01932344 -0.10798174
000370 50 bf 2c 3e 1e 14 87 3d ef 70 82 bd 3e aa 78 bf
       0.16869855 0.06595634 -0.063691966 -0.9713477
000380 bf 0d 13 bd 28 b0 9f 3d e3 cd 16 3e 0b f4 28 3c
       -0.03590178 0.07797271 0.14726977 0.010312091
000390 00 05 d8 bc 0f d2 ed 3d f1 56 38 be 97 d2 19 3e
       -0.026369572 0.11612331 -0.18001916 0.1502174
0003a0 8e 19 6e bd a1 29 2c be a3 3d 07 3e 51 25 15 be
       -0.05812984 -0.16812755 0.13207106 -0.14565016
0003b0 12 ef 26 3b af 3a 26 be 06 e7 8f bf 0b db 1e be
       0.0025472087 -0.16233324 -1.1242378 -0.15513246
0003c0 88 31 b3 3d 27 4e 99 bb ef d5 69 bd d8 47 47 bc
       0.08749682 -0.004678506 -0.05708879 -0.012163125
0003d0 44 db 25 be 44 70 13 3e 49 a5 8b bf aa 87 b5 bd
       -0.16196924 0.14398295 -1.0909816 -0.088637665
0003e0 9f d9 eb bc 74 7a a3 3c 7c 1f 94 bd e9 9b ae bd
       -0.028790293 0.019955851 -0.07232568 -0.08525831
0003f0 93 95 ce 3b dd d8 16 3e ab 30 c4 bd 51 f5 0e c0
       0.0063044517 0.14731164 -0.09579595 -2.233723

linear_layers.4.bias f4 [32]
000000 39 e0 31 bf b2 0c 1a bf 88 35 56 bf 68 b4 2d bf
       -0.6948276 -0.6017562 -0.8367543 -0.67853403
000010 6d e2 7d bf 28 c6 63 bf 7a 67 77 bf 86 1f 71 bf
       -0.99173623 -0.8897424 -0.9664227 -0.94188726
000020 14 b2 3f 3f c0 c2 3f bf bf d2 2f bf 0a c1 eb be
       0.748811 -0.7490654 -0.6868095 -0.46045715
000030 8b eb 32 bf 44 5e 91 bf 25 41 17 bf 3b 5a 4b bf
       -0.6989066 -1.1356893 -0.5908378 -0.79434556
000040 3b ad 4d bf 45 f9 64 bf fd 12 8c bf a3 a8 51 bf
       -0.80342454 -0.89442855 -1.0943295 -0.81897944
000050 6f 64 48 bf 8b ba 57 bf 19 3b fa bc 98 e0 34 bf
       -0.7827825 -0.84269017 -0.030545758 -0.706552
000060 80 0c 3a be 16 1b 80 bf 35 45 88 bf 41 71 28 bf
       -0.18168831 -1.0008266 -1.064612 -0.6579781
000070 49 6d 6d bf 0d a7 7d bf 48 62 2c bf d8 3d 8e bf
       -0.9274488 -0.99083024 -0.67337465 -1.1112623

linear_layers.5.weight f4 [32, 32]
000000 a7 1f 96 3d b9 bf a0 3d b5 32 1e 3e 14 44 79 3d
       0.07330256 0.07849068 0.1544903 0.06085594
000010 ad 52 1c be 84 df 67 3d 73 bb 21 be 27 73 88 bd
       -0.15265913 0.056609645 -0.15794162 -0.066625886
000020 71 ed c2 bf ad 8d 25 be 62 af a8 3d a8 e7 a0 3d
       -1.5228711 -0.16167326 0.082365766 0.07856685
000030 84 05 fa 3d 23 34 9a 3d be 80 bf bd 24 5e ba 3d
       0.12208083 0.075294755 -0.093507275 0.09099987
000040 7d 2a 35 bd a6 3a 86 3d 6c 17 07 be f2 bf c6 3d
       -0.044229973 0.06554155 -0.13192528 0.097045794
000050 ac ba 0e 3e b3 88 19 3e 31 59 77 bf 62 a0 fb bb
       0.13938397 0.14993553 -0.9662047 -0.007679031
000060 55 c9 be bf 76 50 f9 3d 5b 8c d1 bd 52 24 80 3c
       -1.4905192 0.1217355 -0.10231849 0.015642319
000070 b9 5f c8 bd 67 5f d9 3d 01 d1 85 bd 65 2d 96 bb
       -0.09783883 0.106139 -0.06534005 -0.004583048
000080 c0 59 99 3d 88 6c 20 bd b8 5e f2 bd 4d 36 2d be
       0.074878216 -0.039166003 -0.118344724 -0.16915245
000090 51 b8 38 bd ad b6 2f 3e 27 7f 49 bd 52 58 5b bd
       -0.045097653 0.17159529 -0.049193528 -0.053551026
0000a0 1a e9 80 3f 6f 63 c2 bc bf 20 e6 3d 32 0e 60 3a
       1.0071137 -0.023729054 0.112367146 0.0008547037
0000b0 d7 ce a0 bd f7 c5 fd bc 52 a8 1e 3e b8 96 3e bc
       -0.078519516 -0.030978186 0.15493897 -0.011632614
0000c0 4a 83 c7 3c 1f 5c f2 bd 94 7f fa bd da c2 07 be
       0.024354596 -0.11833977 -0.12231365 -0.13257924
0000d0 1f 6e cd 3d 92 6d 26 bc de 89 9b bf 8b e8 02 be
       0.100307696 -0.01015796 -1.2151449 -0.1278402
0000e0 b9 cf 9e bf f5 ad 8b bd c6 c4 07 bc a7 e9 04 be
       -1.2407142 -0.06820289 -0.008286661 -0.12979756
0000f0 5e 33 69 3d 98 5f 23 3e 6c 04 6f 3d 97 85 88 3c
       0.056933753 0.15954435 0.058353826 0.016665263
000100 7e 44 50 bd 08 3d 71 3d 2c a0 82 3d a5 30 15 be
       -0.05084657 0.058896095 0.063782066 -0.14569338
000110 e6 ef f6 bd 08 6b 20 3e 28 19 40 bd e7 3d db bd
       -0.12057476 0.15665829 -0.04689899 -0.10705166
000120 3b 59 99 bf ee 8d db bd c4 9d a3 3d 51 53 dc 3d
       -1.1980356 -0.1072043 0.07989076 0.10758079
000130 8c 03 f2 3d 6c bd 0a 3d 40 d4 9c 3d ab 37 3c bb
       0.11817083 0.033872053 0.07657671 -0.0028719704
000140 dd 95 28 bc 2e 8a 01 3d da 2b a2 bd cd fa d7 ba
       -0.010289636 0.03162592 -0.0791852 -0.0016477943
000150 d8 ad 89 3d 86 69 0e 3e 72 d0 71 bf 81 7b 0b bd
       0.06722611 0.13907441 -0.9445869 -0.03405333
000160 50 84 2f bf 08 16 12 3e 5a d0 a9 bd 37 a3 2d 3e
       -0.6856127 0.14266217 -0.08291693 0.16956793
000170 e2 cc 6c 3c 3a 2a 0a be d3 ff f5 bd 4f f7 1a 3e
       0.014453145 -0.1349267 -0.12011685 0.15133403
000180 82 24 c5 bb 8b 25 0f 3e fd 26 a2 3d 66 aa ee bc
       -0.006016315 0.13979165 0.07917593 -0.029133987
000190 0c da fe bc 5d 40 81 3d 0f 52 82 3d 13 17 8e bc
       -0.031109832 0.063111044 0.06363308 -0.017344987
0001a0 77 a2 9c 3e 17 87 24 be 2b b1 00 3e 6f f3 8d 3d
       0.305927 -0.16067158 0.12567584 0.06931197
0001b0 47 c3 51 3c a2 82 32 bd 94 8a c6 bd 19 61 30 3c
       0.012802905 -0.043581612 -0.096944004 0.010765337
0001c0 c9 69 ab 3d 22 9d 0e be 27 ce f2 3d 11 b1 e3 3c
       0.08369786 -0.13927129 0.11855727 0.027794393
0001d0 12 b1 1c be 72 d6 33 3e 81 bf ae bf db 96 8b 3d
       -0.15301922 0.17562273 -1.3652192 0.06815883
0001e0 62 55 fa bd 67 eb 19 be 50 c2 12 3e 75 c3 03 be
       -0.12223317 -0.15031205 0.14331937 -0.1286753
0001f0 17 db f7 3d db 6a c3 3d a1 1b d7 bd b9 82 64 bd
       0.12102335 0.095418654 -0.10503317 -0.05578873
000200 27 57 17 be 28 7d b0 3c 32 26 65 3c 9d e1 9b 3d
       -0.1477934 0.021544054 0.013986157 0.07611392
000210 dc cd 03 be 0a 9b ef 3d 82 05 88 3d 11 53 d4 3d
       -0.12871498 0.11699493 0.066416755 0.10367406
000220 fb c4 83 bf 02 b2 c7 3c a5 3e 4b be b6 89 37 be
       -1.0294489 0.024376873 -0.19848116 -0.17923626
000230 5c 10 77 bd a6 05 15 bc 44 c6 bb bd eb 77 9c bc
       -0.060318336 -0.009095585 -0.091686755 -0.01910015
000240 e9 63 f5 3d c1 a2 1a 3e 15 76 a3 bd 46 9e 2a 3e
       0.11981947 0.15101148 -0.07981507 0.16661939
000250 f6 95 38 be 4a a6 44 3d c6 74 60 bf 9a c6 f7 3d
       -0.18025956 0.048010148 -0.8767818 0.12098427
000260 e8 4d 94 bf 83 c6 b2 bc 01 4f 2a 3e 8b 02 a6 bd
       -1.1586275 -0.021823173 0.166317 -0.08105954
000270 1d 80 10 bc 22 cd 6f bd f8 3d c8 bd 96 09 cf bc
       -0.008819607 -0.05854524 -0.097774446 -0.025273126
000280 c8 86 a2 3d 19 27 05 be f4 87 e1 3d 79 8e 02 be
       0.07935864 -0.13003196 0.11012259 -0.12749662
000290 58 98 24 3e b6 53 27 be 75 ab 49 3d 4e 3f e8 3c
       0.1607374 -0.16340527 0.04923578 0.028350499
0002a0 38 e4 a1 bf 2c 60 ba bd 8e 80 99 bd a2 c2 b3 bd
       -1.2647772 -0.091003746 -0.07495223 -0.08777358
0002b0 79 56 f3 bc 70 c0 21 be b3 84 0a 3e e5 7a 86 bd
       -0.02970432 -0.15796065 0.13527183 -0.06566409
0002c0 72 d8 d8 bd f7 35 e9 3d 4a 27 a0 3b 29 41 03 3d
       -0.10588159 0.11387246 0.004887496 0.032044563
0002d0 60 34 8d bd be b4 af bc 7d f6 8f bf bc d3 03 be
       -0.06894755 -0.02144849 -1.1247097 -0.12873739
0002e0 fd 81 77 bf ee 59 b2 3d ca 34 a2 bd 0f 01 ae 3b
       -0.9668272 0.08708559 -0.07920225 0.005310185
0002f0 31 52 e9 bb 03 3d 0f 3d be a6 bc 3d a0 58 10 3e
       -0.0071203937 0.034970295 0.09211491 0.14096308
000300 c9 eb fb bd 28 2a be 3c 4f 78 21 be ef 48 14 be
       -0.12300832 0.023213461 -0.1576855 -0.14480947
000310 b8 d9 e8 3d 7e 25 08 bd c4 64 84 bd cb bf bb 3d
       0.113696516 -0.03323888 -0.06464532 0.09167441
000320 ff c4 a3 bf 74 a6 05 3e 96 af 12 be ba fb b8 3d
       -1.2794493 0.13051778 -0.14324793 0.09032388
000330 5c c8 de bc e5 ff 89 bd ad a8 0d 3e 29 0c f5 3d
       -0.027195148 -0.06738261 0.13833876 0.1196521
000340 a0 e6 31 be e7 dc ea 3d d8 d1 17 3e d6 5d 13 3e
       -0.17373133 0.11467915 0.14826143 0.14391264
000350 45 f7 eb 3c 87 75 c3 3d 67 f5 8e bf d0 1a a0 3c
       0.02880443 0.09543901 -1.1168641 0.019544035
000360 94 4e b6 be 74 4c 27 be 86 71 ee 3c ac a9 47 3c
       -0.35606825 -0.16337758 0.029106867 0.012186449
000370 25 b1 2f be 37 5d 04 be 49 9e 0d 3e f0 12 00 be
       -0.17157419 -0.12926184 0.13829912 -0.12507224
000380 98 f6 16 3e 3c 58 18 3e ab c7 df 3b 16 fe 95 bd
       0.14742506 0.14877409 0.006829222 -0.07323854
000390 94 1b b5 b9 fc 01 f3 3d 68 e3 51 3d 2b 63 2b be
       -0.00034543558 0.11865613 0.051242262 -0.16737048
0003a0 ab 2e 8c bf e8 66 9c bc 1f f8 2e be 5d 48 c0 bd
       -1.0951742 -0.019092038 -0.17086838 -0.09388802
0003b0 6d 42 91 3d ee f2 90 3d 71 27 4d bd 73 40 93 3d
       0.07092748 0.07077585 -0.050086442 0.07190027
0003c0 7c 46 13 be 9e bb 7e 3d 5d 28 d8 bc 17 a2 00 3e
       -0.14382356 0.062190644 -0.026386434 0.12561832
0003d0 13 14 c0 3d 3c aa c4 bd ad f0 ad bf e4 69 6d 3d
       0.09378829 -0.09602782 -1.3589073 0.057962313
0003e0 4d 27 51 bf 9d b7 a0 3d 32 c0 b2 bc 06 0e f6 3d
       -0.81700593 0.078475215 -0.021820161 0.120143935
0003f0 d7 ea 27 be 08 21 28 be ca 0b 00 3e 64 54 39 bd
       -0.16398178 -0.1641885 0.12504497 -0.045246497

linear_layers.5.bias f4 [32]
000000 49 26 5e bf 8d d0 da 3e d0 ee 1f bf c7 85 c5 bb
       -0.8677717 0.42737237 -0.62473774 -0.0060279104
000010 db ab 23 bf 02 4b f1 be 75 0a 11 bf 9a cc 27 bf
       -0.63934106 -0.4712754 -0.5665658 -0.6554657
000020 cc f4 5b bf 7b 61 7f bf 13 ad 1e bf e1 91 33 bf
       -0.85920405 -0.9975812 -0.6198284 -0.7014447
000030 18 fd 2e bf 40 d9 4c bf 76 09 08 bf e3 29 1d bf
       -0.6835494 -0.80019 -0.53139436 -0.6139204
000040 71 cf 37 bf 75 17 4a bf 49 31 21 bf 2a aa 56 bf
       -0.71800905 -0.7894204 -0.6296583 -0.838534
000050 49 78 1e bf 9d c5 ea be e6 36 0d bf 79 77 41 bf
       -0.6190229 -0.45853892 -0.55161893 -0.75572926
000060 4b 29 d5 be 3b ae 3c bf a5 2e 6f bf a3 84 4c bf
       -0.41633067 -0.73703355 -0.9343055 -0.7988989
000070 9c 36 48 bf 39 a0 ba bd 74 ae 17 bf 2b 3e 1e bf
       -0.7820833 -0.09112591 -0.5925057 -0.6181361
