snn_models/n_mnist_qat_snn/model_state_dict.pkl (torch, 242403 bytes, 15 tensors)

linear_layers.0.weight f4 [64, 784]
00000000: 9b0a d0bd 6c6a abbd a4e2 87bd 6de2 27be
00000010: 7309 4fbe 3ab3 35be 3c9b 36be 5cca 4fbe
00000020: 3af3 26be b82c b5bd 5a67 3dbe cfd8 bebd
00000030: 35da 9ebd 170d a1bd 2ade c2bd 344d d3bd
00000040: 1832 5dbd 8d2c a3bd a842 81bd 6659 82bd
00000050: 8ba7 90bd 564c 9bbd 9a53 b4bd b0c6 23be
00000060: 5606 60be 4a99 0ebe 527f f3bd 88e7 a3bd
00000070: b934 bdbd d247 f1bd eee8 2ebe 9752 0abe
00000080: 6f1f 2bbe 5090 04be ff98 1bbe a3fe f8bd
00000090: 253a cabd cc91 b9bd 9123 e5bd 17b8 87bd
000000a0: fa18 54bd fa96 06be 358a c9bd ac5f e8bd
000000b0: d82a 5abd 102e a2bd 5ef5 acbd 489c fcbc
000000c0: e373 96bd fbe5 9fbc 6cd4 7bbd 6122 5ebd
000000d0: ad16 a4bd bee1 32bd 0f0e 1fbe 601f b7bd
000000e0: 2916 bdbd 8fb1 f4bd 9a74 1ebe d5af e7bd
000000f0: d236 22be c384 53be 56ef 30be f4a4 03be
00000100: 3006 0abe 2d83 f0bd a219 33be 3eb5 01be
00000110: 2a67 37be e644 18be 24fe 4bbe 77ad f8bd
00000120: c444 a5bd d88e 8abd 8f02 d4bd 3c39 f9bd
00000130: 5a45 94bd 0fd4 9cbd a9fd 54bd 0714 e4bd
00000140: 10d6 ffbd 0d20 febd 274e afbd 602b b0bd
00000150: 6b0e a3bd 95c2 01be 2660 f9bd b25b a9bd
00000160: e118 84bd f0da 98bd 5d87 21be c2ed d3bd
00000170: e12e e2bd f73e 2cbe 26cf fcbd eab1 2cbe
00000180: dcb9 34be 0723 40be 75cb 36be 1b4f a9bd
00000190: f85e e9bd 4538 eebd 99f4 84bd 88c8 bfbd
000001a0: ef1f 5cbd efe9 e1bd 8d7b 97bd e1b1 07be
000001b0: 4da1 8abd 464d 87bd c571 80bd 586c 9fbd
000001c0: 9083 eebd f8d1 24bc f259 13bd 95b3 49bd
000001d0: ea55 b4bd e815 09be a7c7 09be 4856 04be
000001e0: 3739 0fbe 7c24 1fbe 5fb1 13be b96d 28be
000001f0: e155 28be 8632 0fbe 2657 1ebe 1783 dbbd
00000200: 96f4 febd 3c73 0abe e637 b3bd 9bee 52bd
00000210: 6e99 24bd f412 7bbd 23f6 a5bd 565f d3bd
00000220: 4808 64bd 0a54 e1bd 1bfb 0abe e4ca b8bd
00000230: 1cef 50bd 2c4a 7ebd 5ea2 90bd 7172 0ebe
00000240: 1a06 1fbe d1f9 09be f271 d8bd 5470 e2bd
00000250: a117 11be e892 bdbd a5fa cfbd 54ea e1bd
00000260: a45d 09be 1fd4 30be 61d7 b9bd 1c65 e7bd
00000270: d4e0 dbbd 40f6 9bbd e68f 7dbd 988c dbbd
00000280: 12ae 80bd cd1f 20bd be5f 14bd bfb9 a1bd
00000290: f322 8abd c701 15bd f405 87bd c8e2 64be
000002a0: eb0b 72bd b2fd 35bd a3ad 97bd b090 93bd
000002b0: 3d05 70bd c8f0 f5bd e110 f2bd 451b cebd
000002c0: 4b61 a4bd 3e7a e6bd 7eb7 bfbd 6d9b abbd
000002d0: 13cb 04be 70f2 f1bd 0cc7 9ebd 3022 02be
000002e0: f63c e7bd 910e efbd b193 d8bd 5cfd b2bd
000002f0: 6169 05bd 0759 99bd a7a3 e4bc b28e 45bd
00000300: 32d1 2cbd 4dba 28bd 4ef9 abbc 3a35 02bd
00000310: c6a5 5abd 4bb4 7abd acd8 e0bd 26e0 98bd
00000320: e558 88bd 25b1 85bd 223e a5bd 3e21 d8bd
00000330: 8744 b3bd dd1f 79bd 5e65 acbd a1b3 c1bd
00000340: 1b3a 06be ab25 aabd fe81 00be 45b7 cfbd
00000350: cc76 a7bd 34ee f4bd 5047 a4bd 02e9 42bd
00000360: ad19 8ebd db5a 7fbd f086 99bd d282 6fbd
00000370: 5bb0 c5bb 097b 5abd 6876 cfbc 115a 8abd
00000380: cf0b ccbd 5fd1 bfbd 12a0 a7bd 5d4a a8bd
00000390: fb5c 7dbd 7d8d abbd 3c23 2fbd 6d02 79bd
000003a0: c564 e4bd 31d1 cfbd 7b46 0abe 9aa7 98bd
000003b0: 96a8 7cbd 825a f7bd 1d3d b5bd b20a e8bd
000003c0: a7be a6bd 5db8 a8bd dd78 c9bd b36e 94bd
000003d0: c400 39bd c84c 41bd 2b1a dfbc fe38 52bd
000003e0: 23d6 13bd 46d9 94bd b68e aebc 606c 52bd
000003f0: 7030 9ebd 18a1 c6bd ae98 d9bd 9f1c cbbd
-0.10158273 -0.08369908 -0.06635025 -0.16394968 -0.20218448 -0.17744151 -0.17832655 -0.20292038
-0.16303721 -0.0884642 -0.18496457 -0.09318697 -0.077564634 -0.07863825 -0.09515031 -0.1031746
-0.05400285 -0.07967482 -0.06311542 -0.06364708 -0.07063206 -0.07582919 -0.08805008 -0.15993762
-0.21877417 -0.13925663 -0.11889519 -0.080031455 -0.09238572 -0.11781277 -0.17081043 -0.13508068
-0.1671121 -0.12945676 -0.15195082 -0.12157943 -0.098743714 -0.09061012 -0.111884244 -0.06626909
-0.051781632 -0.1314353 -0.09840814 -0.11346373 -0.053263515 -0.07918942 -0.084452376 -0.03083624
-0.073463224 -0.019518843 -0.06148188 -0.054232005 -0.080121376 -0.043672316 -0.15532707 -0.08941531
-0.09232742 -0.11947929 -0.15474167 -0.11312834 -0.15841225 -0.20656113 -0.172788 -0.12855893
-0.13478923 -0.1174377 -0.17490247 -0.12666795 -0.17910448 -0.14870033 -0.19921166 -0.12142461
-0.080697566 -0.067655265 -0.103520505 -0.1216912 -0.0723979 -0.076576345 -0.05199972 -0.111366324
-0.12492001 -0.12408457 -0.08559828 -0.08602023 -0.079617344 -0.12671883 -0.12176542 -0.082694426
-0.06450058 -0.07463634 -0.15774293 -0.10348083 -0.11044098 -0.16820894 -0.12344198 -0.16864744
-0.17649025 -0.18763362 -0.1785105 -0.08267041 -0.11395067 -0.11631826 -0.06491966 -0.0936442
-0.05374139 -0.110309474 -0.07396612 -0.13251449 -0.06769047 -0.066065356 -0.062717 -0.07784337
-0.11646187 -0.010059826 -0.03597445 -0.04924353 -0.08805449 -0.13387263 -0.13455068 -0.12923539
-0.1398667 -0.15541261 -0.1442313 -0.16448106 -0.1643901 -0.13984117 -0.15462932 -0.10718363
-0.12448995 -0.13520521 -0.08750896 -0.051497083 -0.040185384 -0.061297372 -0.081035875 -0.10320918
-0.05567196 -0.11002357 -0.13572352 -0.09023073 -0.051009282 -0.062082455 -0.07062219 -0.13910843
-0.15529671 -0.13474204 -0.10568608 -0.11056581 -0.1416917 -0.09256536 -0.101552285 -0.11031023
-0.13414627 -0.17268418 -0.090742834 -0.11298582 -0.10736242 -0.07615328 -0.06190481 -0.107201755
-0.06283201 -0.039092828 -0.03622412 -0.078967564 -0.06744947 -0.036378648 -0.06592932 -0.22352135
-0.059093397 -0.044431396 -0.074061655 -0.07205331 -0.058598746 -0.12008816 -0.11819626 -0.10063795
-0.0802637 -0.112537846 -0.0936117 -0.083792545 -0.12968092 -0.118138194 -0.07752809 -0.12708354
-0.11290924 -0.116727 -0.10575045 -0.08739731 -0.0325712 -0.07487684 -0.027910067 -0.048231788
-0.04219169 -0.041193295 -0.020992901 -0.031789042 -0.05338075 -0.061207097 -0.10978827 -0.07464628
-0.0665758 -0.06527928 -0.080684915 -0.105532154 -0.08753305 -0.060821403 -0.08417772 -0.094580896
-0.13108103 -0.08307966 -0.12549588 -0.10142378 -0.081769556 -0.11959496 -0.08021414 -0.047585495
-0.06938491 -0.062342506 -0.074964404 -0.05847437 -0.006032986 -0.05333999 -0.025325015 -0.0675546
-0.0996319 -0.09366106 -0.08184828 -0.08217309 -0.06185625 -0.08376596 -0.04275821 -0.06079333
-0.11152033 -0.10147322 -0.13503449 -0.074538425 -0.061684214 -0.1207781 -0.08849547 -0.11330165
-0.08141833 -0.082382895 -0.09837506 -0.07247677 -0.045166746 -0.047192365 -0.027234158 -0.051323883
-0.03609289 -0.07268004 -0.021308284 -0.051372886 -0.077240825 -0.09698695 -0.106248245 -0.099175684

linear_layers.0.bias f4 [64]
00000000: e669 68be 0f6b 04be a505 d5bd 14b3 43be
00000010: 0886 2fbe 46f1 eabd 63fd 02be 6073 f3bd
00000020: 8a25 c9bd 4a80 843e 7ebd 21bd 189c eb3c
00000030: 2127 dcbd e739 f93d 2065 fdbd ccce 3abe
00000040: 62eb 8c3c 4e36 0abe 06fb d4bd 22a5 9fbd
00000050: d554 63be b1d3 debd 116b a13d a032 70bd
00000060: 629f febd e4e6 15be b5b9 0cbe 3924 df3d
00000070: ce1f 06bd 1c45 2bbe 643e c1bd 1c8d eabd
00000080: b6ff fa3c 874d cdbd 3aac 1dbe f6ff 34be
00000090: 47cf 04be bb60 bbbd 26cc d63d adfd d3bd
000000a0: 8a38 25be 933c 8ebd 59ab e5bd d6c9 30bd
000000b0: 47fb d63d 49f7 31be 6f55 e4bd 9ac4 c8bd
000000c0: 2071 9cbd 65e1 b7bd 128d 85bd de45 02bc
000000d0: 4298 0bbe 2c52 59bd b9a0 d7bd 456b 95bd
000000e0: 3452 c13d cba4 bd3d c2e2 ecbd bad6 6bbd
000000f0: f89f 5d3d cbce 25be 0186 bdbd db49 883e
-0.22696647 -0.12931465 -0.10401467 -0.19111282 -0.17140973 -0.114718005 -0.12791972 -0.118872404
-0.09821613 0.25879127 -0.039487354 0.028760955 -0.10749651 0.12169247 -0.12372804 -0.18242949
0.017202083 -0.13497278 -0.103994414 -0.077951685 -0.2220033 -0.10880221 0.078817494 -0.05864203
-0.124327436 -0.14638859 -0.13742717 0.10895581 -0.032745175 -0.16725582 -0.09435728 -0.11452696
0.03063951 -0.10024553 -0.1539773 -0.17675766 -0.12969695 -0.09149309 0.10488157 -0.10351119
-0.16134849 -0.06945147 -0.112143226 -0.043161236 0.10497146 -0.17379488 -0.11149108 -0.09803124
-0.076387644 -0.089785375 -0.06521048 -0.007951228 -0.136323 -0.05305688 -0.10528702 -0.07295851
0.09439507 0.092599474 -0.11566688 -0.057577826 0.054107636 -0.16192167 -0.09254075 0.26618847

linear_layers.0.weight_fake_quant.scale f4 [64]
00000000: 78b3 6b3a 5b87 4f3a 60ec 0e3b 00bd 343a
00000010: 9cfd b33a a0d0 913a 2bb9 cc3a 549a 713a
00000020: 8fa2 9e3a a90d 123b 83fa 973a 20ca 143b
00000030: bf66 c63a 4341 183b 8bec 9a3a 43e5 613a
00000040: bfbb 0f3b ce04 0b3b 0eb0 b23a 2059 8f3a
00000050: cbf4 cc3a ecde d53a 2b21 1a3b f5bf 9e3a
00000060: ccdb cd3a 49e5 313a 47c2 1e3a 5e73 133b
00000070: 12c1 063b de7c cd3a 28cb c43a d613 e73a
00000080: 38f2 1f3b a464 c63a 7da3 d93a 126f 323a
00000090: e75a ab3a 04cb 8d3a e457 0a3b 1570 003b
000000a0: 9f5e 2f3a cb10 163a ad76 9e3a da5d 0b3b
000000b0: 0174 fd3a 5223 fd3a f20f 1d3a 1819 b83a
000000c0: 722a 9b3a dde2 b73a cad9 ad3a 8f88 2e3b
000000d0: 61d7 c53a 0814 083b b7b0 a13a cee0 8b3a
000000e0: 67e8 1e3b b398 0b3b 28b9 b43a 043c 913a
000000f0: 1c08 ff3a 5cb9 5d3a 4bcc c63a f2ca 073b
0.00089912815 0.0007916593 0.002180837 0.0006894618 0.0013732198 0.0011124797 0.0015619149 0.0009216417
0.001210289 0.0022285974 0.0011595044 0.0022703484 0.0015136822 0.0023232258 0.0011819763 0.00086172315
0.0021931974 0.002121258 0.0013632791 0.0010936595 0.0015636919 0.0016317046 0.0023518305 0.0012111651
0.0015705763 0.00067861803 0.0006056171 0.0022499184 0.0020561856 0.0015677472 0.0015014159 0.0017629813
0.0024405848 0.0015136194 0.001660451 0.0006806712 0.0013073356 0.001081795 0.0021109516 0.0019598056
0.000668982 0.0005724548 0.0012089811 0.0021265657 0.001933694 0.0019312894 0.0005991451 0.0014045564
0.0011838211 0.0014029403 0.0013263759 0.0026631688 0.0015094095 0.0020763893 0.001233599 0.0010671855
0.002424741 0.0021300733 0.0013788091 0.0011080508 0.0019457373 0.00084581017 0.0015167085 0.002072033

linear_layers.0.weight_fake_quant.activation_post_process.min_val f4 [64]
00000000: c5c7 6abe d4b7 4ebe 60ec 8ebe 4308 34be
00000010: 9cfd 33be a0d0 11be 2bb9 4cbe baa8 70be
00000020: 8fa2 1ebe a90d 92be 83fa 17be 20ca 94be
00000030: bf66 46be 4341 98be 8bec 1abe 5e03 61be
00000040: bfbb 8fbe ce04 8bbe 0eb0 32be 2059 0fbe
00000050: cbf4 4cbe ecde 55be 2b21 9abe f5bf 1ebe
00000060: ccdb 4dbe 6433 31be 8523 1ebe 5e73 93be
00000070: 12c1 86be de7c 4dbe 28cb 44be d613 67be
00000080: 38f2 9fbe a464 46be 7da3 59be a3bc 31be
00000090: e75a 2bbe 04cb 0dbe e457 8abe 1570 80be
000000a0: 40af 2ebe ba7a 15be ad76 1ebe da5d 8bbe
000000b0: 0174 7dbe 5223 7dbe e272 1cbe 1819 38be
000000c0: 722a 1bbe dde2 37be cad9 2dbe 8f88 aebe
000000d0: 61d7 45be 0814 88be b7b0 21be cee0 0bbe
000000e0: 67e8 9ebe 4a9c 7cbe 28b9 34be 043c 11be
000000f0: 1c08 7fbe a3db 5cbe 4bcc 46be 20d4 80be
-0.22927769 -0.20187312 -0.27914715 -0.17581277 -0.17577213 -0.1423974 -0.19992511 -0.23501864
-0.15491699 -0.28526047 -0.14841656 -0.2906046 -0.19375132 -0.2973729 -0.15129296 -0.2197394
-0.28072926 -0.27152103 -0.17449972 -0.13998842 -0.20015256 -0.20885819 -0.3010343 -0.15502913
-0.20103377 -0.1730476 -0.15443237 -0.28798956 -0.26319176 -0.20067164 -0.19218123 -0.2256616
-0.31239486 -0.19374329 -0.21253772 -0.17357115 -0.16733895 -0.13846976 -0.2702018 -0.25085512
-0.1705904 -0.14597598 -0.15474959 -0.2722004 -0.24751283 -0.24720505 -0.152782 -0.17978323
-0.1515291 -0.17957635 -0.16977611 -0.3408856 -0.19320442 -0.26577783 -0.15790068 -0.13659975
-0.31036684 -0.24668995 -0.17648757 -0.1418305 -0.24905437 -0.2156816 -0.19413869 -0.2516184

linear_layers.0.weight_fake_quant.activation_post_process.max_val f4 [64]
00000000: 6480 2ebb eefe 7bbb 502f 883e 19a6 6bbc
00000010: 640c 6f3c 8f30 113c 5713 8a3c 8ef7 31bc
00000020: 1e2f ce3b 2353 8c3e ca07 9f3d a82e 323e
00000030: eb2a 403c 0ecc 7a3e e713 7e3c ec3d 98ba
00000040: 504f 583e cde1 6a3e 6f30 263c 19ec 093d
00000050: bc2b 2c3c 4dd4 293b 8f3b 943e 0644 c33c
00000060: 81c4 2e3c 7d26 13bc c844 81bb 2c0e 3a3e
00000070: 22df 783e 2d03 453a 8927 0f3c 15ad c83b
00000080: 1e0e 8e3e e04e 443c c453 8e3d 5718 93bb
00000090: ceaa c23c 4e8a 0e3c a842 7a3e 9e36 513e
000000a0: 0375 74bb 4d04 6bba 4b78 413c 1e77 7f3e
000000b0: d821 4e3e 1825 603e cd4a debb 22c1 0d3d
000000c0: 94ea 263c 0d5f ad3b a710 c53b bc54 a73e
000000d0: af7a 653c 4e1c 733e 3f95 c23b 6f5c 423c
000000e0: ac69 873e 8281 8a3e bd25 2e3b 029f 7d3b
000000f0: 9ab1 773e feb8 90bb c622 203e 5cbb 863e
-0.002662682 -0.003845151 0.26598597 -0.0143828625 0.0145903565 0.008861675 0.016854925 -0.010862244
0.006292238 0.27407178 0.077651575 0.1740061 0.011728982 0.24491903 0.015507675 -0.0011615134
0.21124005 0.22937699 0.010143383 0.033672426 0.010508474 0.0025913895 0.2895169 0.023836147
0.010666967 -0.008981344 -0.003944967 0.18169469 0.24303868 0.0007515427 0.008737453 0.0061241486
0.27745146 0.011981696 0.06949571 -0.0044889855 0.023763087 0.008699967 0.2443949 0.20430991
-0.003730119 -0.00089651794 0.011808465 0.24947783 0.20130098 0.2188915 -0.0067838193 0.034608014
0.010187764 0.005290872 0.006013948 0.32681835 0.014006301 0.23741266 0.0059382017 0.011862858
0.2644781 0.27051932 0.0026572787 0.0038699512 0.24188843 -0.004416584 0.15638265 0.2631482

linear_layers.1.weight f4 [64, 64]
00000000: 41a1 98bc ecdd d7bc 9f34 403e 4264 9f3d
00000010: 2f10 113d 397b 9a3d e87c 8d3d 4dab 58bd
00000020: 0cf6 94bd d9b1 c3be b2a7 8abd b4b2 80bc
00000030: 7060 83bd 89da 00bd ff40 fdbd 0c2e 62bd
00000040: 44e5 9fbe 1862 6a3e de54 65bd 3915 a63d
00000050: de2d 2fbd 7dff f13b 42a6 163d 7d76 74bd
00000060: c670 df3d 541d 17bd 72e5 923c 22c3 76be
00000070: d36f 983e 201c 3f3d 6b25 913d d6df 903d
00000080: a52a 663e c3fa e63d cbbb f7bd c989 a33d
00000090: 8e48 443d f968 a8bb b51b edbd 19c9 e7be
000000a0: b59c 7b3d b265 ff3c 1224 32bd 0917 203e
000000b0: dcb6 ebbe 00f0 dcbc 852d 583d b0b9 cabd
000000c0: 8e4c 96bd 07ff c13c f440 793d f297 9cbc
000000d0: 8938 a03d 2c95 95be 62d0 b13b 8e52 923d
000000e0: 608e 9d3e 863d d43e 2578 cf3d 5439 69bd
000000f0: bf9e c5be 74f0 33bd 949c 073e 6eb5 bebe
00000100: 053f 323a b0b3 45bc e317 86be 0023 733b
00000110: 0c67 613d 9600 3d3d cbc2 dabc 0b68 b23d
00000120: 8d2b bb3c 6a8e 81be d981 373d 31ed 65be
00000130: a512 d63d 955b adbd b431 90bc e04b a1bd
00000140: c3de 97be 1d2c b6be 1ea8 68bd 9c89 df3d
00000150: f7e7 f1bc fc95 bebd d40a c1be 4f25 d63d
00000160: dc76 cd3d 25ca d1bd 4bb3 473d 6453 d5be
00000170: f753 a7be 8e01 0cbd 8c30 07bc c9c7 633d
00000180: 7bcf b9be 3479 a3bd 4101 9c3d b52e c93d
00000190: ea1d f9bc f197 cc3b 9a17 a3be 63b2 0fbe
000001a0: 7da5 36bd e430 dbbd 2cd9 113d c542 9ebe
000001b0: bcfa b9be 33e3 a6be 761e edbd 9ba1 e9bd
000001c0: afc1 853d e364 063d c516 dc3d 72f5 d4be
000001d0: 17a9 4dbd 9b57 4dbe 159b 163d 855e 943d
000001e0: 5037 d5be b330 3bbe a21e 963b f6ff a63d
000001f0: dbad 14be 40f2 dbbb 46ef 373b bb83 98be
00000200: e5c3 9bbc f01b e33d c61b f9be 96ca b73d
00000210: f96f 013d 0423 bb3c ee74 d9bd cef1 db3c
00000220: 84ab e5bb 5595 b53e 1d9a ecbc 3d1f 4bbe
00000230: 2ea9 aabd 8150 bbbe b287 cabd 5cf5 123d
00000240: b5a0 c9be 84a2 403d 7a52 d13d a576 b93a
00000250: d8cf 3fbd 2a15 d23d bbf9 713d 6969 8fbd
00000260: 1f50 3e3c 3f69 063a ae51 debc 289c b2be
00000270: 8ea4 e0be 425b db3d e3f2 e2bc 7ac7 973d
00000280: 9694 dcbe 87e7 583d 31db 0f3d fab1 e93d
00000290: f152 d5bd 2882 af3d a86f 30be 7167 b83e
000002a0: d01b 88bc 11c9 cf3d c771 903d 86df c73e
000002b0: 0f14 8abe a44f 843e fc2d b03d 22fe 3a3d
000002c0: 3748 cf3c 667a ddbd 2671 16bd 8878 4bbe
000002d0: 916f c43d 343e 04be ef45 193d 6fc6 9c3d
000002e0: cd23 68be 62ff 16be dd48 25bd 18a2 573d
000002f0: 3dd3 67be 00fd 6a3a 053c afbe 05fb ee3e
00000300: 2bd7 dabc 0789 cb3d 6d10 5ebe 6c35 193d
00000310: 9dad 78bb 3e21 6bbd 9958 41bd 6fa9 af3d
00000320: 3306 bebd 9626 b4be f39a 3a3c bcee 77bd
00000330: 600b 933d 00c9 91be 4cfd d43d 20d2 603d
00000340: 9d78 c4bd cc86 60bd 6028 b7bd cfec af3d
00000350: 5839 63bd ab97 053e 55f8 f5bd 2e30 69bd
00000360: 2929 6c3d 6ca6 8ebd dd08 483d aaf9 76be
00000370: 6cf8 eebc c6c3 ba3d 2714 c7bd bdea 91bd
00000380: 5665 8dbe 502d 3c3d c4d2 edbd 87ae 00be
00000390: f9b0 c8bd f694 9ebd c111 76be 8501 fa3d
000003a0: 00e8 35bc 4689 6cbd 35da da3c 0b0d f6bd
000003b0: 671d a3be f370 b2bd 786c d03d d871 ec3d
000003c0: a876 1e3d d092 c23a 63bc adbc 4e58 b4bc
000003d0: 205c b1bd 0f5e 593e faf6 42bd f702 4dbd
000003e0: 4516 e1be 9584 dfbe 47ac e93c 05d1 bfbd
000003f0: 1f2c 56be 8032 0d3c 4ff1 adbd af32 b2be
-0.01863158 -0.026350938 0.18770073 0.077827945 0.035415825 0.07543034 0.069085896 -0.05289774
-0.07273492 -0.38221624 -0.067702666 -0.015710212 -0.06414878 -0.03145841 -0.12365913 -0.055219695
-0.31229603 0.22888982 -0.05598914 0.08109517 -0.04276835 0.007385193 0.03677965 -0.05968331
0.10910182 -0.036893204 0.017931674 -0.24097875 0.29772815 0.04665768 0.07087215 0.07073943
0.22477205 0.11278298 -0.120963655 0.07985265 0.047920756 -0.005139467 -0.1157755 -0.45270613
0.061428744 0.031176422 -0.04349143 0.15633787 -0.46037948 -0.02696991 0.052777786 -0.09898698
-0.073388204 0.023681177 0.06085296 -0.019115422 0.07823283 -0.29215372 0.0054264525 0.07144652
0.30772686 0.4145319 0.101303376 -0.056939438 -0.38597676 -0.043930486 0.13243324 -0.37247795
0.0006799552 -0.012066767 -0.261901 0.003709972 0.055029914 0.046143137 -0.026704213 0.08711251
0.022847915 -0.25303966 0.044801567 -0.22453763 0.10452775 -0.084647335 -0.017601825 -0.078758
-0.2966214 -0.3558053 -0.056800954 0.10914919 -0.029529555 -0.09305951 -0.37703574 0.10456335
0.10032436 -0.10243634 0.04875497 -0.41665184 -0.32681248 -0.03418117 -0.008251321 0.05561045
-0.36291108 -0.07982102 0.07617427 0.09823362 -0.030409772 0.0062436988 -0.31853944 -0.14032893
-0.044591416 -0.107026845 0.035607502 -0.30910316 -0.36324108 -0.32595214 -0.115780756 -0.11407777
0.06531083 0.032811057 0.107465304 -0.4159351 -0.050210085 -0.2005295 0.03676899 0.07244591
-0.41643763 -0.18280296 0.0045812884 0.081542894 -0.14519446 -0.006712228 0.0028066202 -0.29788002
-0.019014308 0.11089313 -0.48654002 0.08974187 0.031600926 0.022843845 -0.10618006 0.0268487
-0.0070089716 0.35465494 -0.02888208 -0.19836135 -0.0833305 -0.36584857 -0.09889163 0.035878524
-0.39380422 0.047029987 0.10220809 0.0014149739 -0.046829075 0.10257943 0.059076052 -0.07002527
0.011615782 0.0005127377 -0.027138557 -0.34884763 -0.43875545 0.107107654 -0.027703708 0.07411094
-0.43082112 0.052955177 0.035121147 0.114108995 -0.104162104 0.08569747 -0.17230093 0.3601642
-0.016614825 0.10145772 0.07052951 0.39037722 -0.26968428 0.2584201 0.08602521 0.045652516
0.02530299 -0.10814361 -0.036729 -0.19870198 0.09591592 -0.12914354 0.03742021 0.07655036
-0.22669907 -0.14745858 -0.04035269 0.05264482 -0.22639175 0.00089640915 -0.3422548 0.46675888
-0.026713928 0.09938245 -0.21685953 0.037404463 -0.0037945278 -0.05740475 -0.047203634 0.08577239
-0.09278526 -0.3518569 0.011389482 -0.06053041 0.07179904 -0.28473663 0.10399875 0.05488789
-0.09593318 -0.054816052 -0.08943248 0.085900895 -0.05547461 0.13046138 -0.12010256 -0.056930713
0.05765644 -0.06965336 0.048836578 -0.24118677 -0.029171191 0.09119372 -0.09720641 -0.07124851
-0.27616376 0.04594165 -0.11612466 -0.12566577 -0.0979938 -0.07743256 -0.2403021 0.12207321
-0.011102676 -0.0577481 0.026715377 -0.120142065 -0.3185837 -0.087129496 0.10176939 0.115451515
0.03868738 0.0014844779 -0.021207994 -0.022014763 -0.086601496 0.21227287 -0.047598816 -0.050051656
-0.43962303 -0.4365584 0.028524531 -0.09366039 -0.20915268 0.008617997 -0.084932916 -0.34804294

linear_layers.1.bias f4 [64]
00000000: 0204 71be 64fa c6be 91ee 1bbd 7610 6abe
00000010: 9c18 95be 2ac4 21be ec16 c83d a756 d6bd
00000020: 0fce 87be 928b e3bc 87cc 9dbe 5c44 54be
00000030: 77fa 23be 1885 9cbe 2dbf a6bd 5f39 55be
00000040: 54e1 50be b4a4 b3bc b0df 41be e51d babd
00000050: 13c3 63be 84ac e0bd 9000 34be 9494 a7bd
00000060: 5ce8 9dbe 44c1 69be 4ee3 bbbe 8bd4 963c
00000070: 5e1d 8dbe e42e 96be a994 80be 6eb8 83be
00000080: db3a 33be 5e5e 1cbe 17ab 10be a34b 843d
00000090: 530a 8bbe ac12 d5bd 0ba2 cfbe 54df ebbe
000000a0: e2a4 39be c52c f8be e6ac 1fbe acf8 54be
000000b0: e009 7ebe b671 36be a092 bdbd d750 883c
000000c0: ed52 10be 129f d3bd e0ba 3abe c613 a1be
000000d0: 400d e6be 7563 5fbe 7e87 68be 38b4 8bbe
000000e0: d7f3 dbbe 3d18 abbe caf7 03be 0c26 8bbd
000000f0: 5c56 09bf e3a2 d0be 4f71 8abe 35ab 4abe
-0.23536685 -0.38862908 -0.03806931 -0.22857842 -0.29120338 -0.15797487 0.09769997 -0.104657464
-0.26524398 -0.027776513 -0.30820104 -0.20729202 -0.16013514 -0.30570292 -0.08141933 -0.20822667
-0.20398456 -0.021929123 -0.18932986 -0.09087733 -0.22242384 -0.10970405 -0.1757834 -0.08182636
-0.3084134 -0.22827631 -0.36696857 0.018411895 -0.27561468 -0.2933265 -0.2511342 -0.25726646
-0.1750292 -0.15270373 -0.14127766 0.06459739 -0.27156314 -0.10403952 -0.40553316 -0.46068823
-0.18129304 -0.48471656 -0.155933 -0.20797986 -0.24808455 -0.17816815 -0.09256482 0.01664011
-0.14094134 -0.10333075 -0.1823535 -0.31460398 -0.44931984 -0.21815284 -0.22707936 -0.27285933
-0.42959473 -0.3341693 -0.12887493 -0.06794366 -0.536474 -0.40749273 -0.27039573 -0.19791873

linear_layers.1.weight_fake_quant.scale f4 [64]
00000000: 93b5 6b3b da51 553b ca19 793b da14 613b
00000010: 106f 5d3b 1cf6 513b 14ba 833b 012b 423b
00000020: 7312 483b 8537 853b 3935 473b a7ed 473b
00000030: 35a0 753b deed 6d3b 897b 3c3b e36c 5e3b
00000040: 9053 4d3b 9a60 5e3b 8a47 6f3b e9a1 643b
00000050: 6ae9 693b 0a4c 3f3b dcb9 653b 4cc7 703b
00000060: ecfa 573b f89f 5b3b efc6 4a3b 916d 8b3b
00000070: 2051 4c3b 1040 553b 6fc8 383b 8673 543b
00000080: a384 483b b641 393b 627c 5b3b 63db 633b
00000090: 1eda 403b 7f64 773b 1c7c 593b e4ba 623b
000000a0: 4ed0 563b 0487 683b fc14 603b 0060 563b
000000b0: 2c23 613b 7d02 5f3b cd58 853b a27e 663b
000000c0: 89de 763b 2ae7 513b 6cef 5e3b cf35 5e3b
000000d0: 5341 4b3b f21b 633b 62f9 523b 881b 5a3b
000000e0: 0c34 4d3b 64ef 573b 5816 463b 0048 633b
000000f0: fe81 563b 0e82 3c3b e067 5c3b ec13 6f3b
0.003596638 0.0032550008 0.0038009756 0.0034344704 0.0033788122 0.0032037562 0.004019985 0.0029627683
0.0030528575 0.0040654563 0.0030396713 0.0030506642 0.0037479524 0.003630511 0.0028760156 0.0033939413
0.0031330325 0.003393209 0.0036511146 0.0034886545 0.0035692104 0.002918961 0.0035053408 0.0036739884
0.0032955958 0.0033512097 0.0030941328 0.0042550047 0.0031176284 0.0032539405 0.002819564 0.003241749
0.0030596636 0.0028267927 0.0033490886 0.0034768216 0.0029426883 0.003774911 0.0033185547 0.0034596259
0.0032777968 0.0035480866 0.0034192195 0.003271103 0.003435324 0.0034028583 0.004069424 0.0035170694
0.0037669262 0.0032028654 0.0034017218 0.0033906584 0.0031014278 0.0034654108 0.00321921 0.003328057
0.003131154 0.0032949084 0.003022572 0.0034680367 0.003273129 0.0028764042 0.003363125 0.003648038

linear_layers.1.weight_fake_quant.activation_post_process.min_val f4 [64]
00000000: 93b5 ebbe da51 d5be ca19 f9be da14 e1be
00000010: 106f ddbe 1cf6 d1be 14ba 03bf 012b c2be
00000020: 7312 c8be 8537 05bf 3935 c7be a7ed c7be
00000030: 35a0 f5be deed edbe 897b bcbe 37ea d5be
00000040: 9053 cdbe 9a60 debe 8a47 efbe e9a1 e4be
00000050: 6ae9 e9be 0a4c bfbe dcb9 e5be 4cc7 f0be
00000060: ecfa d7be f89f dbbe efc6 cabe 916d 0bbf
00000070: 2051 ccbe 1040 d5be 6fc8 b8be 8673 d4be
00000080: a384 c8be b641 b9be 627c dbbe 63db e3be
00000090: 1eda c0be 7f64 f7be 1c7c d9be e4ba e2be
000000a0: 4ed0 d6be 0487 e8be fc14 e0be 0060 d6be
000000b0: 2c23 e1be 7d02 dfbe 26ac 04bf a27e e6be
000000c0: 89de f6be 2ae7 d1be 6cef debe cf35 debe
000000d0: 5341 cbbe f21b e3be 62f9 d2be 881b dabe
000000e0: 0c34 cdbe 64ef d7be 5816 c6be 0048 e3be
000000f0: fe81 d6be 0e82 bcbe e067 dcbe ec13 efbe
-0.46036968 -0.4166401 -0.48652488 -0.4396122 -0.43248796 -0.4100808 -0.5145581 -0.37923434
-0.39076576 -0.5203784 -0.38907793 -0.39048502 -0.4797379 -0.4647054 -0.36813 -0.41780254
-0.40102816 -0.43433076 -0.46734267 -0.44654778 -0.45685893 -0.373627 -0.44868362 -0.4702705
-0.42183626 -0.42895484 -0.396049 -0.5446406 -0.39905643 -0.41650438 -0.3609042 -0.41494387
-0.39163694 -0.36182946 -0.42868334 -0.44503316 -0.3766641 -0.4831886 -0.424775 -0.4428321
-0.419558 -0.4541551 -0.4376601 -0.41870117 -0.43972147 -0.43556586 -0.5182518 -0.45018488
-0.48216656 -0.40996677 -0.4354204 -0.43400428 -0.39698276 -0.44357258 -0.4120589 -0.4259913
-0.4007877 -0.42174828 -0.38688922 -0.4439087 -0.4189605 -0.36817974 -0.43048 -0.46694887

linear_layers.1.weight_fake_quant.activation_post_process.max_val f4 [64]
00000000: 943b d43e ce89 df3d 90fa ee3e 515e 593e
00000010: 5d49 323e 442a fc3d eb93 f63e 3e43 543e
00000020: c5b1 233e 2641 f43e 6827 843e 1288 053e
00000030: 316c e73e 5593 4d3e 6d1c 9e3e 09b0 dc3e
00000040: a8d9 e93d c0ca b73e e52e 263e f946 bf3e
00000050: 74f7 fe3d a8a5 803e d9a1 e23e c51e 8c3e
00000060: 82ba c73e 4e82 903e 4e96 f23d 04f1 b63e
00000070: e87b 043e 065b ef3d daf2 fe3d ea10 513e
00000080: 0388 a83e b87b f43d 2d5c 653e 554b e03e
00000090: 10a5 f03d 8bd0 b83e 2c03 f13d a6ef 033e
000000a0: c86e 703e 4e81 e43d 1c1e cc3e 1304 b03e
000000b0: 915b 8b3e a43c e03d 1b4e 043f 3ba4 9d3e
000000c0: 5bee f13e a041 a13e 9c1a 033e 6ac3 e53d
000000d0: b486 003e ca30 e73d 40c3 cb3d 5c27 ea3d
000000e0: 725f 003e ce29 f33d 3d55 383e 60e2 c73e
000000f0: 227d e93d bc28 023e 28cd f23d 826b ec3d
0.41451705 0.10914956 0.4667554 0.21227385 0.17410798 0.12312749 0.48159727 0.20728776
0.15985782 0.47705954 0.25811315 0.13040188 0.4519973 0.20075734 0.30881062 0.43103054
0.11418468 0.35896873 0.16228826 0.37358835 0.12449542 0.25126386 0.44264105 0.27367225
0.39009482 0.28224415 0.118450746 0.35730755 0.12937891 0.11687283 0.12448664 0.20416608
0.3291627 0.1193766 0.22398444 0.43807474 0.11750233 0.36096606 0.11768183 0.12884387
0.2347976 0.111574754 0.39866722 0.34378108 0.27218297 0.10949066 0.5168168 0.3078936
0.47252163 0.3149538 0.1280312 0.11218913 0.12551385 0.11288603 0.0994935 0.114332885
0.1253641 0.11873208 0.18001266 0.39039898 0.1140082 0.12710851 0.11855537 0.11543943

linear_layers.2.weight f4 [10, 64]
00000000: 286d 32bf 6bf7 c23d 0f1c 34bf 8f05 833d
00000010: bcc3 593e 47b9 00bd 17c4 0cbf 4eb2 edbd
00000020: dc7a 4fbe bdd8 33bf 8643 58bd 1071 7dbd
00000030: 981a 34bf 4a7a 5ebe 9333 adbe f3d2 f0be
00000040: c6ba 00be 0b2c edbe ff07 993e 25f8 a0be
00000050: ea2a b03d 98cb 37be d8a2 f0be e01b 33bf
00000060: 109f 2ebf 0d4b 7bbe c40c 1dbe 87c4 da3e
00000070: eabc 943d 0660 d83d 4707 37be 4c48 62be
00000080: afd1 00bf 5bfb 183d 8534 f73c 925e f03e
00000090: d24f 573e 3ef9 fbbe 14f9 43bd 1c37 9a3d
000000a0: 1bab 5fbe ea4b 97bd 9465 bb3e b35b 26bf
000000b0: 016f 013c 49b5 f33d 16e0 a1be 2ab6 4bbe
000000c0: b2e8 753e 85ad 913e c13f 32be 40c6 45bc
000000d0: 9051 193d 1468 733d aab3 80bd 9326 9dbd
000000e0: 8890 b13c fe7b 8ebd fef7 0bbd 79dc 28bf
000000f0: f878 5fbd 7f36 003b e4b5 f1bb 791e d5bc
00000100: 5daf 21bf 91f1 5fbd 29b6 f13e 411e 57be
00000110: ce11 cdbd 0655 d33b 429e c9be 0b88 babd
00000120: e605 99be 4782 2cbf 1d1a 07be 65f8 28bc
00000130: 9ae6 25bf 67ce 563e 24ae a8be c566 81be
00000140: 33f8 c4bd f147 9a3e 0ef1 5ebe 8615 97be
00000150: 7e4a a8be 40eb 91bc 39d9 c83e 3684 2cbf
00000160: 4178 2cbf 9de8 453e 3ea8 afbd 4490 2cbf
00000170: 3e22 b0ba 9434 fc3d 7169 33be ace5 c83d
00000180: 52cb c9be 795b d73d 366f b7be 4aba 09bf
00000190: e49a 1d3d 5c07 1dbf dcc9 4cbd a81a f93d
000001a0: 6c4d 2d3e 2c79 353d 202a 68bd 5314 0fbf
000001b0: b2d8 c3bd 22a2 92bd 617b ca3e 3f61 38bc
000001c0: 5c15 9ebe adf3 66be 50bf 35be 313b 57bd
000001d0: c47f 5e3d 89c0 c9bd 4082 30be c76e f03c
000001e0: f0da e83c 908c 023c b9a1 87be 0f18 9d3e
000001f0: 28c3 d03d 2a34 18be 34a0 f93b 15bc 8a3d
00000200: d75d a1be fc20 6bbd b2b9 1ebf 6f5a 723c
00000210: 30ad 60be 7bef 113e d1e8 03bf 1cc5 92bd
00000220: cab3 53be 8bf8 20bf 0461 f1bb dbee 68bd
00000230: 7f1e 51be 617a 85be 7ace 903e 8d54 a03e
00000240: 2433 b13d 019f 12bf 85d1 c23d e347 febd
00000250: 25bd 15be 7669 7cbe 8606 5fbe 55be c7be
00000260: 5191 113e 5987 b9be c182 cc3d 6f89 c63e
00000270: f27f 77bd a8ad 603d 13b2 01be 26fd 26be
00000280: ab59 05bf 0edd 8d3c caf1 a4bd 9e88 0abf
00000290: c9af 13bc 7ff9 8abe 10a8 7d3c 1e46 c63d
000002a0: 4b38 04be c0b0 2fbc 25d0 42be c20b 4a3e
000002b0: 0fee 483e 4373 073e a7a9 87be 4ea8 10be
000002c0: 899b 51be feba 98be 3491 05be 1ba5 0f3c
000002d0: 003e af39 62ce 873d f807 aa3d 7774 253d
000002e0: 8a50 d8bd 3468 743d 4a04 483e 5092 c93e
000002f0: 7006 32bc 06a7 febd 8c01 1abe 2b54 e63d
00000300: 3049 d13e 3a62 a5bd cb3c 32bf 6dc7 4ebe
00000310: c6ab 18bd 75b0 28be 5748 98be 43e4 9ebe
00000320: ec80 b7bd 786a 20bf a878 2bbd 6d07 823e
00000330: b858 32bf 22da 6cbe 3aff 633d 90b5 ff3d
00000340: e8bf 15bd 8659 0fbe ee14 133e 4994 0fbf
00000350: e3ca 6fbe 46c3 f3bd aa5a 3f3e 9439 32bf
00000360: a512 32bf 7bd8 fbbe 9177 6fbd 0b4a aabe
00000370: a7b0 f3bd 0061 a33b 126c 15be 5c64 83be
00000380: 3b5d bdbc ad2d 53bd cf3f b3be c6f4 c1be
00000390: a79b e23d aadc a13e 6088 d03b f8d8 e13c
000003a0: 0109 2abe 644f 2abd cbe6 3fbe e244 cdbe
000003b0: af84 ccbd 3423 f0bc 18f3 eebe 46aa a03c
000003c0: 5e23 3e3e a1ac 93be 14fd 14be e505 b5bd
000003d0: c0ea 39bb 4bb2 b83d 94db 2fbb 55a4 053d
000003e0: def3 adbd 84bd 49bd 53e7 8dbe 6336 1e3e
000003f0: f09e 263d 77f6 d7bd 92c0 2d3c f522 53bd
-0.6969781 0.095198475 -0.70355314 0.063975446 0.21266073 -0.031426694 -0.5498671 -0.116062745
-0.20261711 -0.7025259 -0.05279877 -0.061875403 -0.7035308 -0.21726337 -0.3382841 -0.4703594
-0.12571248 -0.46322665 0.29888913 -0.3143932 0.08601935 -0.17948759 -0.4699924 -0.6996441
-0.6821146 -0.24540348 -0.15336901 0.42728063 0.07262595 0.1056519 -0.1787387 -0.22097892
-0.5031995 0.037349086 0.03017641 0.4694715 0.21026543 -0.49213594 -0.04784496 0.075300425
-0.21842615 -0.07387526 0.36600935 -0.6498367 0.007900001 0.11899812 -0.31616277 -0.19893709
0.24014547 0.28452697 -0.17407133 -0.012071192 0.0374313 0.05942543 -0.06284268 -0.07673373
0.021675363 -0.069572434 -0.03417205 -0.65961415 -0.054558724 0.0019563732 -0.0073764194 -0.026015507
-0.6315821 -0.054673735 0.4720929 -0.21007635 -0.100131616 0.0064493446 -0.39378554 -0.091079794
-0.29887313 -0.6738629 -0.13193555 -0.010313128 -0.64804995 0.20977174 -0.3294536 -0.2527372
-0.09617653 0.30133012 -0.21771643 -0.2950861 -0.32869333 -0.017812371 0.39228228 -0.6738924
-0.6737099 0.19327016 -0.085770115 -0.6740763 -0.0013437939 0.12314716 -0.17520691 0.098094314
-0.39412934 0.10515494 -0.35827035 -0.5379988 0.038477793 -0.61339355 -0.049997196 0.121632874
0.16924065 0.04430501 -0.0566808 -0.5589039 -0.09562816 -0.07159831 0.39547256 -0.011253654
-0.3087567 -0.22553892 -0.17748761 -0.052546684 0.054321066 -0.09851176 -0.17237186 0.029349698
0.02842471 0.007968083 -0.26490572 0.30682418 0.10193473 -0.14863649 0.0076179747 0.06774155
-0.31516907 -0.057404503 -0.620021 0.014792069 -0.21941066 0.14251511 -0.51527125 -0.07166502
-0.20674053 -0.62879246 -0.0073663015 -0.056868415 -0.2042179 -0.2606993 0.2828253 0.31314507
0.086523324 -0.5727387 0.09512619 -0.12416055 -0.14622934 -0.24649605 -0.21779832 -0.390124
0.1421559 -0.36236075 0.09985877 0.3877673 -0.060424753 0.05485311 -0.12665586 -0.16307506
-0.5208995 0.017317321 -0.0805393 -0.5411471 -0.009014078 -0.27143475 0.015481964 0.096813425
-0.12912099 -0.010723293 -0.19024713 0.19731048 0.19622062 0.13227563 -0.26496622 -0.14126703
-0.20469488 -0.29830164 -0.13043672 0.008767392 0.00033424795 0.06631161 0.08302301 0.040394273
-0.105622366 0.05966969 0.19532886 0.3936944 -0.010865793 -0.12434201 -0.15039653 0.112465225
0.4087615 -0.08075376 -0.6962401 -0.20193262 -0.03727319 -0.16473563 -0.2974269 -0.31033525
-0.08960137 -0.6266246 -0.041863114 0.2539629 -0.69666624 -0.23130086 0.055663325 0.12485802
-0.03655997 -0.13998994 0.14363453 -0.5608564 -0.23417239 -0.1190248 0.1868693 -0.6961911
-0.695597 -0.491886 -0.058463637 -0.33259615 -0.11898928 0.0049859285 -0.14592007 -0.25662506
-0.023115745 -0.05155723 -0.3500962 -0.3788206 0.110648446 0.31613666 0.0063639134 0.02756928
-0.16604997 -0.04157962 -0.18740384 -0.40091616 -0.09986245 -0.029313661 -0.4666984 0.019612443
0.18568179 -0.28842643 -0.14549667 -0.08839015 -0.0028368682 0.09018382 -0.002683376 0.032627422
-0.084937796 -0.049253 -0.2771555 0.15450434 0.04067892 -0.10545056 0.010604994 -0.05154701

linear_layers.2.bias f4 [10]
00000000: 505a 30bc 5384 71bd 1ae9 433d 9512 60bd
00000010: 4b00 94bd 6410 953d 6d4c 91bd 9024 a4bd
00000020: 4cb4 d93d df87 763d
-0.01076372 -0.058964085 0.047829725 -0.05470522 -0.072266184 0.07278517 -0.07094655 -0.08014786
0.10630092 0.06018817

linear_layers.2.weight_fake_quant.scale f4 [10]
00000000: bb1a b43b 018f ac3b 79f7 a03b 5c57 b23b
00000010: ed81 b13b c568 9f3b 9491 b03b a2f1 a63b
00000020: 366d 943b a54d 983b
0.0054963506 0.005266071 0.0049123135 0.005442543 0.0054170997 0.0048647844 0.005388448 0.005094723
0.0045296205 0.004647928

linear_layers.2.weight_fake_quant.activation_post_process.min_val f4 [10]
00000000: bb1a 34bf 018f 2cbf 79f7 20bf 5c57 32bf
00000010: ed81 31bf c568 1fbf 9491 30bf a2f1 26bf
00000020: 366d 14bf a54d 18bf
-0.7035329 -0.67405707 -0.62877613 -0.6966455 -0.69338876 -0.6226924 -0.68972135 -0.6521245
-0.5797914 -0.59493476

linear_layers.2.weight_fake_quant.activation_post_process.max_val f4 [10]
00000000: ef5c f03e 5ab6 f13e e190 c93e db47 d13e
00000010: b734 153f 725c be3e 3f63 1c3f 4fe7 f73e
00000020: bca6 be3e 6043 dd3e
0.46945903 0.47209436 0.39368346 0.40875134 0.5828356 0.37179905 0.6108894 0.48418662
0.37236583 0.43215466
