snn_models/n_mnist_qat_snn/model_state_dict.pkl (torch, 241988 bytes, 15 tensors)

linear_layers.0.weight f4 [64, 784]
000000 93 7f 0a be 6a 43 07 be c4 84 0a be 84 7e 0a be
       -0.13525228 -0.1320931 -0.13527209 -0.13524824
000010 18 7e 0a be 83 7c 0a be ff 81 0a be 94 7c 0a be
       -0.13524663 -0.1352406 -0.13526152 -0.13524085
000020 7d 84 0a be 54 79 0a be 7b 7f 0a be 57 79 0a be
       -0.13527103 -0.13522846 -0.13525192 -0.1352285
000030 99 74 0a be b9 6f 0a be c8 78 0a be 3c 79 0a be
       -0.13521041 -0.13519181 -0.13522637 -0.1352281
000040 5d 7c 0a be fb 73 0a be 7e 79 0a be a3 72 0a be
       -0.13524003 -0.13520806 -0.13522908 -0.13520293
000050 df 81 0a be fe 67 0a be 17 8e 0a be 25 86 0a be
       -0.13526104 -0.13516232 -0.13530765 -0.13527735
000060 61 7f 0a be 80 83 0a be 18 76 0a be ac 81 0a be
       -0.13525154 -0.13526726 -0.13521612 -0.13526028
000070 d8 86 0a be 12 88 0a be f9 7b 0a be 75 9c 0a be
       -0.13528001 -0.13528469 -0.13523854 -0.13536246
000080 0b 82 0a be 9a 81 0a be 83 7a 0a be 54 7a 0a be
       -0.1352617 -0.13526002 -0.13523297 -0.13523227
000090 8f 78 0a be 30 81 0a be 89 83 0a be 4e 84 0a be
       -0.13522552 -0.13525844 -0.13526739 -0.13527033
0000a0 25 76 0a be 77 76 0a be 66 75 0a be c4 83 0a be
       -0.13521631 -0.13521753 -0.13521346 -0.13526827
0000b0 d6 7f 0a be 01 7a 0a be 24 65 0a be d6 79 0a be
       -0.13525328 -0.13523103 -0.13515145 -0.13523039
0000c0 6d aa 0a be f0 7d 0a be 21 95 0a be 3b 7d 0a be
       -0.13541575 -0.13524604 -0.1353345 -0.13524334
0000d0 0d 92 0a be 29 80 0a be 7a 83 0a be 68 6f 0a be
       -0.13532276 -0.13525452 -0.13526717 -0.1351906
0000e0 bf 69 0a be ba 81 0a be ce 7e 0a be d5 92 0a be
       -0.13516901 -0.1352605 -0.13524935 -0.13532574
0000f0 a9 6f 0a be 97 84 0a be 55 7b 0a be 1d 7a 0a be
       -0.13519157 -0.13527142 -0.1352361 -0.13523145
000100 75 62 0a be db 74 0a be bb 80 0a be 25 90 0a be
       -0.13514121 -0.1352114 -0.1352567 -0.1353155
000110 5f 8a 0a be 08 7f 0a be a4 86 0a be cf 88 0a be
       -0.13529347 -0.13525021 -0.13527924 -0.13528751
000120 4f 85 0a be 17 83 0a be a9 97 0a be 59 85 0a be
       -0.13527416 -0.1352657 -0.13534416 -0.1352743
000130 bf 80 0a be 18 7d 0a be 2a 71 0a be ed 16 06 be
       -0.13525675 -0.13524282 -0.13519731 -0.13094683
000140 ae 7e 0a be 39 91 0a be 46 89 0a be ae 83 0a be
       -0.13524887 -0.1353196 -0.13528928 -0.13526794
000150 2d 76 0a be 03 81 0a be a3 74 0a be 23 7c 0a be
       -0.13521643 -0.13525777 -0.13521056 -0.13523917
000160 58 7f 0a be 9c 6f 0a be 6b 7f 0a be 00 75 0a be
       -0.1352514 -0.13519138 -0.13525169 -0.13521194
000170 28 77 0a be 8f 77 0a be 62 87 0a be 17 8b 0a be
       -0.13522017 -0.1352217 -0.13528207 -0.13529621
000180 b4 8a 0a be 83 84 0a be 54 7d 0a be 92 8d 0a be
       -0.13529474 -0.13527112 -0.13524371 -0.13530567
000190 6c 85 0a be 9b 7b 0a be 91 79 0a be 54 89 0a be
       -0.13527459 -0.13523714 -0.13522936 -0.13528949
0001a0 64 7e 0a be 30 89 0a be 2f 91 0a be b7 78 0a be
       -0.13524777 -0.13528895 -0.13531946 -0.13522612
0001b0 67 8a 0a be e1 72 0a be 4f 81 0a be 53 84 0a be
       -0.13529359 -0.13520385 -0.1352589 -0.1352704
0001c0 9c 71 0a be e9 a1 0a be 74 89 0a be 76 7b 0a be
       -0.13519901 -0.13538326 -0.13528997 -0.13523659
0001d0 e5 7e 0a be 12 7d 0a be 2a 86 0a be 92 87 0a be
       -0.13524969 -0.13524273 -0.13527742 -0.13528278
0001e0 7c 83 0a be 99 8a 0a be 51 81 0a be 4a 89 0a be
       -0.1352672 -0.13529433 -0.13525893 -0.13528934
0001f0 fd 84 0a be d5 7a 0a be 52 83 0a be 40 8c 0a be
       -0.13527294 -0.13523419 -0.13526657 -0.13530064
000200 e7 83 0a be 69 80 0a be ef 9a 07 be a0 7c 0a be
       -0.13526879 -0.13525547 -0.13242696 -0.13524103
000210 9d 8c 0a be c9 1f fc bd b1 84 0a be 95 79 0a be
       -0.13530202 -0.1231075 -0.1352718 -0.13522942
000220 35 84 0a be 9f 87 0a be 0f 7a 0a be 49 61 0a be
       -0.13526995 -0.13528298 -0.13523124 -0.13513674
000230 1c 71 0a be 1e 89 0a be 4e 79 0a be 69 80 0a be
       -0.1351971 -0.13528869 -0.13522837 -0.13525547
000240 83 7e 0a be a5 83 0a be 18 71 0a be cc 7a 0a be
       -0.13524823 -0.13526781 -0.13519704 -0.13523406
000250 b5 7d 0a be cb 76 0a be 7c 7a 0a be be 7e 0a be
       -0.13524516 -0.13521878 -0.13523287 -0.13524911
000260 27 7b 0a be 1b 86 0a be 45 83 0a be 5c 82 0a be
       -0.13523541 -0.1352772 -0.13526638 -0.1352629
000270 e1 86 0a be 01 7f 0a be 24 7a 0a be 43 7f 0a be
       -0.13528015 -0.1352501 -0.13523155 -0.13525109
000280 cb 97 ed bd 79 70 0a be c4 7c 0a be 30 87 0a be
       -0.11601218 -0.13519467 -0.13524157 -0.13528132
000290 36 8a e3 bd 37 77 0a be eb 70 0a be 1e 81 0a be
       -0.11110346 -0.1352204 -0.13519637 -0.13525817
0002a0 e5 77 0a be b0 8a 0a be a8 86 0a be 7e 7e 0a be
       -0.13522299 -0.13529468 -0.1352793 -0.13524815
0002b0 29 81 0a be 98 7d 0a be 1a 89 0a be 37 80 0a be
       -0.13525833 -0.13524473 -0.13528863 -0.13525473
0002c0 9e 8f 0a be 09 7f 0a be c9 83 0a be d2 7a 0a be
       -0.13531348 -0.13525023 -0.13526835 -0.13523415
0002d0 24 82 0a be 3e 81 0a be 0d 7a 0a be 24 7c 0a be
       -0.13526207 -0.13525864 -0.13523121 -0.13523918
0002e0 b6 7e 0a be 4b 80 0a be 01 7b 0a be 98 81 0a be
       -0.13524899 -0.13525502 -0.13523485 -0.13525999
0002f0 6e 81 0a be 6a 7a 0a be ca 79 0a be d2 77 0a be
       -0.13525936 -0.1352326 -0.13523021 -0.1352227
000300 ec 3f e1 bd bd f4 d9 bd c4 7a 0a be 72 7b 0a be
       -0.1099852 -0.10642383 -0.13523394 -0.13523653
000310 d9 84 0a be b2 82 0a be 36 74 0a be dc 7a 0a be
       -0.1352724 -0.13526419 -0.13520893 -0.1352343
000320 0a 94 0a be d6 7f 0a be cc 7a 0a be c1 83 0a be
       -0.13533035 -0.13525328 -0.13523406 -0.13526823
000330 d8 74 0a be 81 78 0a be 00 7c 0a be 6c 7f 0a be
       -0.13521135 -0.13522531 -0.13523865 -0.1352517
000340 2d 80 0a be cb 7b 0a be 09 7b 0a be 30 7e 0a be
       -0.13525458 -0.13523786 -0.13523497 -0.13524699
000350 d8 81 0a be c7 7a 0a be a2 7c 0a be 27 d5 fa bd
       -0.13526094 -0.13523398 -0.13524106 -0.12247687
000360 90 7b 0a be ce 7a 0a be 79 5b fa bd 86 77 0a be
       -0.13523698 -0.13523409 -0.12224478 -0.13522157
000370 bf 72 0a be 44 db ed bd ff 6c 0a be 4b 81 0a be
       -0.13520335 -0.11614087 -0.13518141 -0.13525884
000380 3d 83 0a be 80 82 0a be 18 72 0a be ea 78 0a be
       -0.13526626 -0.13526344 -0.13520086 -0.13522688
000390 dc 83 0a be be 77 0a be 02 83 0a be 8f 7c 0a be
       -0.13526863 -0.1352224 -0.13526538 -0.13524078
0003a0 00 7d 0a be 55 7b 0a be f7 75 0a be 1f 7b 0a be
       -0.13524246 -0.1352361 -0.13521563 -0.1352353
0003b0 2b 7d 0a be 4b 7c 0a be 07 83 0a be b2 8a 0a be
       -0.1352431 -0.13523977 -0.13526545 -0.1352947
0003c0 89 82 0a be cb 83 0a be 89 7f 0a be 04 7e 0a be
       -0.13526358 -0.13526838 -0.13525213 -0.13524634
0003d0 a0 7c 0a be 48 7a 0a be 18 7d 0a be e4 a4 fa bd
       -0.13524103 -0.13523209 -0.13524282 -0.12238482
0003e0 f2 76 0a be b4 3e 05 be bb 76 0a be 18 87 0a be
       -0.13521937 -0.130122 -0.13521855 -0.13528097
0003f0 3a 81 0a be 99 7f 0a be 6f 78 0a be 4a 7a 0a be
       -0.13525859 -0.13525237 -0.13522504 -0.13523212

linear_layers.0.bias f4 [64]
000000 ad 1b 38 be 73 8d 69 be 61 ac 40 be 7d 45 23 be
       -0.17979307 -0.22807865 -0.18815757 -0.15944476
000010 4b 92 22 be 2e d4 41 be a6 32 27 be c3 e3 58 be
       -0.15876119 -0.18928596 -0.16327915 -0.21180634
000020 29 e7 61 be b3 9d 5d be fe da 53 be ba a0 63 be
       -0.22060837 -0.21642189 -0.20689008 -0.22229281
000030 ef af 2c be 7f dd 43 be 26 c0 52 be 36 04 5d be
       -0.16863988 -0.19127463 -0.20581111 -0.21583638
000040 17 6f 3c be ae 1a 54 be 78 ff 53 be 87 3a 49 be
       -0.18401752 -0.20713302 -0.20702922 -0.19651233
000050 61 50 63 be eb d9 48 be c5 12 22 be c6 b7 2a be
       -0.22198631 -0.19614379 -0.15827473 -0.16671667
000060 ec 74 3e be eb 20 62 be 21 a1 38 be af 71 56 be
       -0.1859929 -0.2208287 -0.18030216 -0.20941804
000070 79 5f 64 be af 40 54 be 9e 7e 5d be dd 1f 2f be
       -0.22302045 -0.207278 -0.21630332 -0.17101999
000080 93 62 60 be b8 b7 4b be 3f cc 3a be 7b e7 57 be
       -0.21912603 -0.19894302 -0.18241976 -0.21084397
000090 3a 00 57 be cd 18 34 be bf e3 60 be 0a 36 30 be
       -0.2099618 -0.17587586 -0.21961878 -0.17208114
0000a0 99 56 4a be 99 d1 63 be c1 05 42 be 88 cc 4b be
       -0.19759597 -0.22247924 -0.18947507 -0.19902241
0000b0 44 9e 41 be 7f 23 4f be 6e b6 3c be 08 6c 34 be
       -0.1890803 -0.20228384 -0.18428966 -0.17619336
0000c0 27 36 2a be 10 82 54 be 85 99 36 be f7 8b 25 be
       -0.1662222 -0.2075274 -0.17832 -0.16166674
0000d0 d7 fc 43 be 1b 2f 48 be a7 87 2f be 78 34 6b be
       -0.1913942 -0.1954922 -0.17141591 -0.22969234
0000e0 d2 41 5c be 3b 5f 1d be 30 65 42 be 73 d4 42 be
       -0.21509483 -0.15368359 -0.18983912 -0.19026355
0000f0 c0 a8 6d be d1 2b 60 be b0 dc 41 be 85 27 4c be
       -0.23208904 -0.21891715 -0.18931842 -0.1993695

linear_layers.0.weight_fake_quant.scale f4 [64]
000000 18 51 0b 3a 90 7f 07 3a 01 9f 05 3a 9d aa 03 3a
       0.0005314513 0.00051688496 0.0005097241 0.0005022677
000010 85 41 06 3a 47 c8 04 3a 1d 6c 05 3a 56 8c 09 3a
       0.00051214575 0.0005065244 0.00050896575 0.0005247047
000020 22 fd 02 3a e1 91 03 3a dd b0 06 3a 77 95 03 3a
       0.0004996826 0.0005018991 0.0005138049 0.00050195254
000030 8f 02 03 3a ce f7 07 3a 0e 24 05 3a 7d 3c 07 3a
       0.00049976347 0.0005186767 0.000507892 0.0005158855
000040 a4 70 02 3a d1 21 05 3a 03 59 06 3a c2 11 04 3a
       0.0004975891 0.00050785864 0.0005124958 0.00050380465
000050 d4 f1 03 3a 73 96 05 3a 84 31 06 3a 14 97 07 3a
       0.00050332886 0.0005095966 0.0005119073 0.00051723537
000060 45 6a 07 3a 4a f8 07 3a 1b 1a 05 3a 6a 94 05 3a
       0.00051656767 0.0005186839 0.00050774374 0.0005095663
000070 a8 ed 04 3a 92 37 05 3a 10 1a 04 3a ac e3 03 3a
       0.0005070814 0.0005081828 0.0005039284 0.0005031179
000080 5b a5 03 3a 52 b3 04 3a 48 12 05 3a b9 60 06 3a
       0.00050218933 0.0005062121 0.00050762715 0.0005126107
000090 cf d8 07 3a ba 33 05 3a 6a e9 08 3a f8 47 05 3a
       0.00051821483 0.0005081255 0.00052227697 0.00050842715
0000a0 5b 75 02 3a 47 01 09 3a 75 d2 03 3a 0a c6 05 3a
       0.0004976594 0.00052263256 0.0005028614 0.00051030575
0000b0 49 37 04 3a 9c 0e 08 3a e2 47 03 3a 73 36 05 3a
       0.00050436385 0.0005190165 0.0005007965 0.0005081661
0000c0 a9 22 03 3a cb f7 04 3a 7b 14 05 3a bf c0 03 3a
       0.0005002418 0.00050723244 0.0005076599 0.0005025975
0000d0 36 16 04 3a 69 0f 07 3a 79 5c 06 3a b3 ae 09 3a
       0.000503871 0.00051521376 0.0005125474 0.00052521675
0000e0 31 2d 05 3a 1c 5d 05 3a 28 54 09 3a be 7f 03 3a
       0.00050802814 0.0005087422 0.00052386755 0.00050162885
0000f0 9b 68 0c 3a b4 30 05 3a ed 07 04 3a 6b 62 04 3a
       0.00053561636 0.00050808047 0.00050365814 0.0005050066

linear_layers.0.weight_fake_quant.activation_post_process.min_val f4 [64]
000000 c7 c5 0a be 10 f8 06 be 62 19 05 be f2 26 03 be
       -0.13552009 -0.13180566 -0.12997964 -0.12807825
000010 43 bb 05 be 7f 43 04 be b1 e6 04 be ca 02 09 be
       -0.13059716 -0.12916373 -0.12978627 -0.1337997
000020 25 7a 02 be 4f 0e 03 be 2c 2a 06 be e2 11 03 be
       -0.12741907 -0.12798427 -0.13102025 -0.1279979
000030 8c 7f 02 be d6 6f 07 be ea 9e 04 be 41 b5 06 be
       -0.12743968 -0.13226256 -0.12951246 -0.1315508
000040 33 ee 01 be af 9c 04 be aa d2 05 be b0 8d 03 be
       -0.12688522 -0.12950395 -0.13068643 -0.12847018
000050 e2 6d 03 be dd 10 05 be 52 ab 05 be 7d 0f 07 be
       -0.12834886 -0.12994714 -0.13053635 -0.13189502
000060 db e2 06 be 52 70 07 be 01 95 04 be d6 0e 05 be
       -0.13172476 -0.1322644 -0.12947465 -0.1299394
000070 ba 68 04 be 5a b2 04 be f6 95 03 be c8 5f 03 be
       -0.12930575 -0.1295866 -0.12850174 -0.12829506
000080 b6 21 03 be 9f 2e 04 be 36 8d 04 be 58 da 05 be
       -0.12805828 -0.1290841 -0.12944493 -0.13071573
000090 f6 50 07 be 86 ae 04 be 81 60 08 be b0 c2 04 be
       -0.13214478 -0.129572 -0.13318063 -0.12964892
0000a0 e6 f2 01 be 46 78 08 be a3 4e 03 be 44 40 05 be
       -0.12690315 -0.1332713 -0.12822966 -0.13012797
0000b0 12 b3 03 be 8d 86 07 be 9a c4 02 be 3d b1 04 be
       -0.12861279 -0.13234921 -0.1277031 -0.12958236
0000c0 86 9f 02 be d3 72 04 be 67 8f 04 be fe 3c 03 be
       -0.12756166 -0.12934427 -0.12945329 -0.12816235
0000d0 20 92 03 be 5a 88 06 be 1d d6 05 be 04 25 09 be
       -0.12848711 -0.13137951 -0.13069959 -0.13393027
0000e0 04 a8 04 be bf d7 04 be d4 ca 08 be 3e fc 02 be
       -0.12954718 -0.12972926 -0.13358623 -0.12791535
0000f0 32 dc 0b be 83 ab 04 be e5 83 03 be 09 de 03 be
       -0.13658217 -0.12956052 -0.12843283 -0.12877668

linear_layers.0.weight_fake_quant.activation_post_process.max_val f4 [64]
000000 55 6a a7 bd 6e 16 af bd a9 8a a4 bd fd 58 96 bd
       -0.08174578 -0.085492 -0.0803426 -0.07341192
000010 33 06 a2 bd ee 59 ab bd 60 fc 95 bd 26 ef b0 bd
       -0.07911339 -0.08366762 -0.07323527 -0.08639364
000020 dc 52 90 bd 8c 66 a5 bd 6d 64 a4 bd c2 16 a9 bd
       -0.07047054 -0.080762 -0.08026967 -0.08256294
000030 7c 2e a6 bd 1a f0 bb bd f0 b2 b3 bd 53 e8 b2 bd
       -0.08114335 -0.09176655 -0.08774364 -0.087357186
000040 7a 61 b0 bd 04 bb 7f bd d2 d2 9d bd 16 52 90 bd
       -0.08612342 -0.06243421 -0.077062264 -0.07046907
000050 85 41 95 bd 00 b5 96 bd 7d 18 b3 bd 89 ea a0 bd
       -0.072878875 -0.07358742 -0.08744905 -0.07857234
000060 fc 71 a8 bd 42 b7 ad bd 20 cc 98 bd 08 a6 9a bd
       -0.08224866 -0.08482219 -0.07460809 -0.07551199
000070 9c f6 9b bd c0 6d ad bd a9 11 a4 bd f2 26 85 bd
       -0.076153964 -0.08468199 -0.08011181 -0.06501569
000080 50 b1 a1 bd f3 37 b7 bd 89 9d 98 bd e4 0c 9d bd
       -0.07895148 -0.08946218 -0.074519224 -0.07668474
000090 db 7f 8d bd da 46 b7 bd 8e 38 88 bd 6a d1 9f bd
       -0.06909152 -0.08949061 -0.06651412 -0.078036144
0000a0 46 0a ae bd 92 f5 ab bd 81 77 99 bd 3e 5f 9c bd
       -0.08498053 -0.08396448 -0.07493497 -0.076353535
0000b0 7f d9 ac bd 30 27 ae bd f2 b0 a1 bd 9c 0d 9d bd
       -0.084399216 -0.08503568 -0.07895078 -0.076686114
0000c0 ea 6b 9f bd 44 d1 99 bd d8 f9 9e bd 47 95 9a bd
       -0.07784255 -0.075106174 -0.07762498 -0.07548004
0000d0 73 27 9f bd 74 7c a4 bd 3d ea 9a bd 58 d5 c1 bd
       -0.07771196 -0.0803155 -0.07564209 -0.0946452
0000e0 84 48 a6 bd b7 0a 9b bd da ba b8 bd c3 fd 86 bd
       -0.081193 -0.07570403 -0.09020014 -0.0659137
0000f0 4e 43 d3 bd 62 16 b1 bd 41 3b bc bd 53 43 96 bd
       -0.10315572 -0.08646847 -0.09190989 -0.0733706

linear_layers.1.weight f4 [64, 64]
000000 c4 f8 5a 3d b8 97 c2 bd d0 72 46 3d 08 d2 8d bd
       0.053459898 -0.09501594 0.048449337 -0.06924826
000010 a0 3f 3b bd b8 c2 bb 3d f0 89 2e 3d c4 63 a9 bd
       -0.045714974 0.09167999 0.042612016 -0.08270982
000020 b0 3b 78 3d 88 43 18 3d 94 aa 1d bd b6 9f fc bd
       0.060603797 0.037173778 -0.038492754 -0.1233515
000030 f8 55 76 3d 72 d4 91 3d d6 b1 87 3d d0 12 43 3d
       0.06014058 0.07120599 0.066257164 0.047625363
000040 10 87 7e 3c 9e cd cc bd fa 2e b0 bd 28 f5 9c bc
       0.015535131 -0.10000156 -0.0860271 -0.019159868
000050 cc 12 17 3d 40 cc d4 bb a8 f0 7d bd 34 f9 55 3d
       0.03688316 -0.006494075 -0.061997086 0.05223961
000060 d8 16 bd 3c e6 8a b8 bd 00 b3 ca 3d fe b3 87 3d
       0.023082182 -0.09010868 0.09897423 0.06626128
000070 54 e8 cb 3d 84 a8 0e bd d4 d1 76 3d d0 b1 ba 3c
       0.099564224 -0.034828678 0.0602587 0.022789866
000080 78 70 cf 3d 50 54 bb 3d 20 e2 c2 3b 76 b1 89 3d
       0.101288736 0.09146941 0.0059473664 0.06723301
000090 f0 78 0e bd 5c c0 63 bd 38 2d 0b 3d 74 11 88 3d
       -0.034783304 -0.05560337 0.03397867 0.06643954
0000a0 52 77 96 3d 9e 3b 86 3d c6 ad e9 3d 46 c1 97 3d
       0.07346977 0.0655434 0.11410098 0.07409911
0000b0 4e 8b 83 3d c6 a1 db bd 36 7f be bd 58 bf 27 3d
       0.06423055 -0.10724215 -0.09301607 0.040953964
0000c0 14 ba b2 3d d8 73 c5 3c c0 e4 fa 3c b0 96 53 3d
       0.08726898 0.02410309 0.030626655 0.05165738
0000d0 9c 1a 85 bd 60 a5 64 bc 7e 0b 9e bd 78 56 6b bd
       -0.06499216 -0.013955444 -0.07717036 -0.05745551
0000e0 48 21 1e bd a4 f7 7a bd 40 2b 1a bc 10 0a e9 bd
       -0.03860596 -0.061271325 -0.009409726 -0.113788724
0000f0 d2 ef a4 3d b8 72 cd bd 04 92 41 bd 48 d2 b0 bc
       0.080535546 -0.100316465 -0.047258392 -0.021584645
000100 46 13 d9 bd d8 90 1f bd ac ee d0 3d 0a 9f e0 bd
       -0.10599379 -0.038956493 0.10201773 -0.10967834
000110 5a 3a bc 3d ca 8a 92 bd 48 cd d7 bd e0 43 4e 3d
       0.09190817 -0.07155378 -0.10537201 0.0503577
000120 cc 1e 10 3d 1c 6a a5 3d b0 96 68 3d 72 cc 96 3d
       0.03518562 0.080768794 0.05678433 0.073632136
000130 08 eb 33 3d 80 d3 0b bc 8e 1c bb 3d 24 88 c4 bd
       0.043925315 -0.008534312 0.09136306 -0.09596279
000140 14 9e fb bd 80 38 57 bd 3e 4f b7 bd 90 32 cf 3d
       -0.122860104 -0.052544117 -0.08950661 0.10117066
000150 d0 bf 71 3d a0 bc fe 3d b0 b4 89 bd 80 9c e0 3d
       0.059020817 0.12438321 -0.067239165 0.1096735
000160 b2 04 e2 bd f8 d7 b2 bd ba cf ee 3d 00 36 5e ba
       -0.11036052 -0.08732599 0.116607144 -0.00084766746
000170 d8 58 98 3c 6c 83 5e bd 40 09 1d 3d 78 f0 df bc
       0.018597052 -0.054324552 0.0383389 -0.027336344
000180 ac 10 cc 3d 22 93 84 3d c0 ad 0e bc 98 01 46 bd
       0.099641174 0.06473376 -0.008708417 -0.048341364
000190 d0 45 aa bd 10 43 54 3d d8 57 ab 3c 5c 07 c5 bd
       -0.08314097 0.05182177 0.02091591 -0.09620544
0001a0 98 ff 37 bd 00 2d 74 bb 6a cd bb 3d f4 8e 8f bd
       -0.044921488 -0.0037258267 0.09170039 -0.07009688
0001b0 20 8b 8e 3b 66 ee 93 bd 34 f8 dd 3d 1c 0a 64 bd
       0.004350081 -0.07223205 0.108383566 -0.055673704
0001c0 18 c7 0e bd 8e 9c ad 3d 3c eb bd 3d c4 59 85 3d
       -0.03485784 0.08477126 0.09273383 0.06511262
0001d0 b4 e4 f6 3d 7a 97 b2 bd 5c 3a 6d bd 06 4a fb 3d
       0.120553404 -0.08720298 -0.057916984 0.12269978
0001e0 22 75 ef 3d 7c 08 ec 3d 54 41 c3 bd 7c 1f 46 3d
       0.11692263 0.11525056 -0.09533945 0.04836987
0001f0 96 a7 f2 3d 66 4d 82 3d 30 bd 71 3c dc 6c d3 3d
       0.11848371 0.06362419 0.0147545785 0.10323498
000200 7c cd e2 3d 58 37 9c 3d 2c 8e 37 3d f2 64 e5 bd
       0.11074349 0.076277435 0.04481332 -0.112008944
000210 16 5e f6 bd 54 64 11 3d 4c 1d d6 bd 00 a0 5e 39
       -0.12029664 0.03549607 -0.10454807 0.00021231174
000220 34 ba 33 bd 00 ca 18 3b c0 d2 77 bd f4 50 9c 3d
       -0.04387875 0.002331376 -0.06050372 0.07632628
000230 70 98 da 3d c2 5e dd bd fc 48 df 3d 40 4a ca bd
       0.106736064 -0.10809089 0.109025925 -0.09877443
000240 44 23 a6 bd d8 14 55 3d ec 77 0a bd b4 48 c9 bd
       -0.08112195 0.05202183 -0.033805773 -0.0982832
000250 f0 75 89 bd d2 45 fc 3d c2 8d ae bd 74 39 39 bd
       -0.06711948 0.12318005 -0.08523132 -0.045220807
000260 02 21 99 bd 3c 58 55 3d 16 e1 97 3d 60 a3 65 bd
       -0.07476999 0.0520861 0.074159786 -0.05606401
000270 40 58 da 3b 70 d4 0b bc 4c a8 b7 bd d0 0e 82 3c
       0.0066633523 -0.008534536 -0.08967647 0.015876204
000280 20 be 0e 3d f8 ec be 3d 20 bc f5 3d 26 91 8c bd
       0.034849286 0.09322542 0.119987726 -0.06863622
000290 f0 99 15 bd 08 78 15 bd ce 3b ab bd a8 51 87 3d
       -0.03652376 -0.036491424 -0.08361016 0.066073716
0002a0 00 2e 2b 3d 00 50 bd bc 44 de a7 3d 80 af 0e bc
       0.041791916 -0.023109436 0.08196691 -0.008708835
0002b0 58 15 79 3d 4a 88 80 3d 30 1e f1 bd d0 6f 17 bc
       0.06081137 0.06275995 -0.11773336 -0.009242967
0002c0 66 82 88 3d b8 39 0a bd e0 e0 a6 bc 08 ca 84 3d
       0.066654965 -0.03374645 -0.0203709 0.06483847
0002d0 80 12 c5 ba 26 1a 8b bd d2 48 b9 3d ec f9 84 3d
       -0.0015035421 -0.06792097 0.090470925 0.06492981
0002e0 78 09 a8 3c 54 cd af bd 84 d4 b9 bd d8 5e 85 bc
       0.020512328 -0.08584085 -0.09073737 -0.016280577
0002f0 60 e6 e1 3b ac 46 cc 3d d0 42 67 3c 80 97 8c ba
       0.006893918 0.09974417 0.01411505 -0.0010726303
000300 70 59 10 3d 4a 86 e2 bd 20 e0 c0 bb 20 62 39 3d
       0.035241544 -0.1106077 -0.005886093 0.045259595
000310 68 ac 3b bd 88 19 fd 3c dc 24 13 bd 7e 23 fd bd
       -0.045818716 0.030895963 -0.035923824 -0.12360285
000320 68 b8 cb bd 60 fb 8d bb cc b6 e1 bd ec 7b d3 3d
       -0.09947282 -0.0043329448 -0.11021194 0.103263706
000330 a0 01 62 3d fc c1 fe 3d b4 89 12 bd ce d3 ad 3d
       0.05517733 0.12439343 -0.035775855 0.08487664
000340 86 90 e6 bd 24 67 31 3d 3c 68 65 3d e0 24 76 3c
       -0.112580344 0.043311253 0.05600761 0.01502344
000350 d0 77 6c bd 3c 7a 61 bd 6c 3e 33 bd 26 97 d0 3d
       -0.05773145 -0.055048212 -0.043760702 0.10185079
000360 5c 8a 12 3d 60 00 3f bd 3c f5 20 bd c0 f0 86 3b
       0.03577648 -0.046631217 -0.039296374 0.004118055
000370 58 a9 39 3d ae 34 ea 3d 38 14 a7 3d fe 0b d9 3d
       0.045327514 0.11435829 0.08158153 0.105979905
000380 f0 19 50 bd a8 e5 00 3d d8 0f af 3d 44 e7 d4 3d
       -0.050805986 0.031469017 0.08547944 0.10395673
000390 00 3a 8e 3c c6 74 e8 3d 1c 67 9e bd 5e ea f2 bd
       0.01736164 0.11350398 -0.0773451 -0.11861108
0003a0 14 5f 01 3d ac 32 94 3d 92 38 92 3d f4 0e c1 bd
       0.031584814 0.072362274 0.07139696 -0.0942668
0003b0 56 97 e0 3d 72 c0 d8 bd 18 fe d4 3d 8c 22 31 bd
       0.10966365 -0.10583581 0.10400027 -0.043245837
0003c0 a2 e7 f3 3d 34 f9 73 3d 94 af a8 3d 60 2f a6 3b
       0.11909415 0.05956383 0.08236614 0.0050715655
0003d0 2e 94 f9 bd 08 b7 dc bd b6 8f da bd d0 f3 38 bd
       -0.12186466 -0.10777098 -0.10671942 -0.045154393
0003e0 2c bb 1f bd a4 21 10 3d aa 3b e7 bd 40 66 c7 bd
       -0.03899686 0.035188332 -0.11290677 -0.097362995
0003f0 f0 30 4b bc a0 73 e9 bc 40 3b c3 bc d2 eb dc bd
       -0.012401804 -0.028497517 -0.023831964 -0.10787167

linear_layers.1.bias f4 [64]
000000 6d 78 bd be fd 62 bd be bc 4d bd be ea 72 bd be
       -0.3700594 -0.36989585 -0.3697337 -0.37001735
000010 6d 75 bd be 2f 70 bd be c4 77 bd be 10 5f bd be
       -0.3700365 -0.36999652 -0.37005436 -0.3698659
000020 22 76 bd be 48 6c bd be 68 91 bd be 20 6f bd be
       -0.3700419 -0.36996675 -0.37025 -0.36998844
000030 7a 51 bd be 63 71 bd be b8 81 bd be 72 7e bd be
       -0.36976224 -0.3700057 -0.3701303 -0.37010533
000040 dd 5b bd be 49 71 bd be d7 71 bd be c3 5e bd be
       -0.3698415 -0.37000492 -0.37000915 -0.3698636
000050 90 61 bd be 2e 7d bd be 3a 6e bd be ec 6f bd be
       -0.36988497 -0.37009567 -0.3699816 -0.36999452
000060 1f 7b bd be 43 4d bd be e5 64 bd be cc d4 bb be
       -0.37007996 -0.3697301 -0.3699104 -0.3668579
000070 a1 76 bd be a0 79 bd be d1 74 bd be ac 76 bd be
       -0.3700457 -0.37006855 -0.37003186 -0.37004602
000080 a8 5b bd be 05 64 bd be 4f 81 bd be 44 6d bc be
       -0.3698399 -0.3699037 -0.37012717 -0.36802113
000090 6e 51 bd be 4b 74 bd be 70 63 bd be 36 54 bd be
       -0.36976188 -0.37002787 -0.36989927 -0.3697831
0000a0 ba 69 bd be 31 29 bd be 24 77 bd be e8 56 b9 be
       -0.36994725 -0.3694549 -0.3700496 -0.36199117
0000b0 d9 6c bd be 84 50 bd be f4 52 bd be 97 73 bd be
       -0.36997107 -0.3697549 -0.3697735 -0.3700225
0000c0 c6 70 bd be e5 70 bd be 9f 61 bd be 17 75 bd be
       -0.37000102 -0.37000194 -0.3698854 -0.37003395
0000d0 08 51 bd be dd 7f bd be a3 72 bd be 2f 83 bd be
       -0.36975884 -0.37011614 -0.37001523 -0.37014148
0000e0 5b 58 bd be 29 4e bd be 5b 60 bd be 5c 75 bd be
       -0.36981472 -0.36973694 -0.36987576 -0.370036
0000f0 bb b6 bd be 48 63 bd be fa 5d bd be 85 52 bd be
       -0.37053475 -0.36989808 -0.3698576 -0.3697702

linear_layers.1.weight_fake_quant.scale f4 [64]
000000 b6 9f 7c 3a 0e 5f 80 3a 57 42 7e 3a c2 61 80 3a
       0.0009636836 0.0009793954 0.00096992165 0.0009794759
000010 2a 84 7d 3a 92 83 7e 3a f0 2e 80 3a 36 be 7e 3a
       0.0009670878 0.00097089366 0.0009779613 0.00097176747
000020 3a 31 7f 3a 42 63 7f 3a 00 1a 7c 3a 9a 04 7a 3a
       0.00097348134 0.00097422686 0.00096169114 0.0009537429
000030 f8 e1 7f 3a 2c 45 7a 3a de 52 7b 3a 9a c7 80 3a
       0.000976115 0.00095470506 0.00095872383 0.0009825111
000040 18 89 80 3a b0 f5 7d 3a 2c c5 7c 3a 18 1f 7f 3a
       0.0009806482 0.00096877944 0.0009642418 0.00097321114
000050 2e f4 7b 3a 70 19 73 3a 9d a3 7d 3a 18 43 80 3a
       0.0009611276 0.0009273505 0.00096755644 0.000978562
000060 5f 47 7f 3a cb ba 80 3a db 12 80 3a 3d 4c 80 3a
       0.0009738113 0.0009821294 0.0009771244 0.0009788346
000070 ee bc 7c 3a 52 1a 78 3a c8 72 77 3a 6b 4a 7c 3a
       0.000964119 0.0009464371 0.0009439406 0.0009624126
000080 b9 39 7b 3a 9a 45 7e 3a fc c0 7c 3a b5 a5 7e 3a
       0.00095834915 0.00096997025 0.0009641794 0.00097140233
000090 f8 80 7e 3a 3a d4 7b 3a 78 7e 7e 3a 47 45 78 3a
       0.0009708549 0.00096065144 0.00097081764 0.00094707723
0000a0 e2 cb 7d 3a 41 01 78 3a 9d 9b 73 3a fa 6c 7e 3a
       0.0009681565 0.0009460636 0.00092929025 0.000970557
0000b0 c8 6a 7d 3a b1 bd 7e 3a 98 57 79 3a e6 7a 7c 3a
       0.0009667096 0.0009717597 0.00095116487 0.00096313504
0000c0 81 3c 7f 3a cc 67 7c 3a 2a e4 7a 3a c3 73 80 3a
       0.0009736494 0.0009628504 0.0009570742 0.0009800125
0000d0 3e 4b 7e 3a ca 99 7c 3a 9b 22 7e 3a 2c be 7a 3a
       0.0009700543 0.00096359535 0.00096944877 0.0009565081
0000e0 c9 38 80 3a 89 8d 78 3a 91 04 7d 3a 01 79 80 3a
       0.0009782548 0.00094815396 0.00096518645 0.0009801687
0000f0 4a e7 7e 3a 0a 83 78 3a ca df 7f 3a 57 64 7b 3a
       0.0009723796 0.00094799756 0.0009760825 0.0009589842

linear_layers.1.weight_fake_quant.activation_post_process.min_val f4 [64]
000000 b6 9f fc bd 14 9e fb bd 16 5e f6 bd 7e 23 fd bd
       -0.1233515 -0.122860104 -0.12029664 -0.12360285
000010 3a 4f fc bd 92 83 fe bd 16 d6 f0 bd 36 be fe bd
       -0.12319799 -0.12427439 -0.11759584 -0.124386236
000020 3a 31 ff bd 42 63 ff bd 00 1a fc bd 9a 04 fa bd
       -0.12460561 -0.12470104 -0.123096466 -0.12207909
000030 b6 7e fb bd 4a 91 f1 bd de 52 fb bd 9e e1 fb bd
       -0.122800276 -0.1179529 -0.12271665 -0.122988924
000040 1e 33 e5 bd b0 f5 fd bd 7c a1 de bd 18 1f ff bd
       -0.111913905 -0.12400377 -0.108706445 -0.124571025
000050 60 ac f1 bd 70 19 f3 bd 26 28 db bd b4 b3 fd bd
       -0.11800456 -0.11870086 -0.10701017 -0.12387791
000060 ea e8 fe bd 04 7c f6 bd 86 82 e5 bd 56 f6 fb bd
       -0.124467686 -0.12035373 -0.11206536 -0.12302844
000070 ee bc fc bd 52 1a f8 bd 26 ee ed bd 84 15 da bd
       -0.12340723 -0.12114395 -0.11617689 -0.10648635
000080 54 ef f7 bd 9a 45 fe bd be 73 fa bd 50 37 fb bd
       -0.12106195 -0.12415619 -0.12229107 -0.122664094
000090 f8 80 fe bd 6a b7 f3 bd 78 7e fe bd a4 50 ea bd
       -0.124269426 -0.11900218 -0.12426466 -0.11441162
0000a0 e2 cb fd bd 0a 90 e3 bd 5e e5 e5 bd 0a 28 f6 bd
       -0.12392403 -0.11111458 -0.11225389 -0.120193556
0000b0 c8 6a fd bd ce 0d fd bd 98 57 f9 bd c8 71 f4 bd
       -0.123738825 -0.12356149 -0.1217491 -0.119357646
0000c0 3c df f9 bd e8 61 fc bd bc 77 f8 bd 94 6d f9 bd
       -0.12200782 -0.12323362 -0.121322125 -0.121791035
0000d0 ac 4f fd bd d6 d1 f6 bd e6 27 f9 bd 7e 37 ee bd
       -0.12368712 -0.12051742 -0.12165813 -0.11631678
0000e0 64 dc f2 bd 9e be ed bd fc 7d fa bd c6 06 fc bd
       -0.118584424 -0.11608623 -0.12231061 -0.123059794
0000f0 4a e7 fe bd 0a 83 f8 bd a2 81 e3 bd 1c 4b e5 bd
       -0.12446459 -0.12134369 -0.1110871 -0.111959666

linear_layers.1.weight_fake_quant.activation_post_process.max_val f4 [64]
000000 c6 ad e9 3d a0 bc fe 3d d2 45 fc 3d fc c1 fe 3d
       0.11410098 0.12438321 0.12318005 0.12439343
000010 22 89 fb 3d c0 2d f7 3d 24 5d fe 3d 8c 4d fb 3d
       0.122820154 0.12069273 0.12420109 0.1227065
000020 12 cf f7 3d aa bb fb 3d f6 f1 f9 3d 98 ed e3 3d
       0.121000424 0.122916535 0.122043535 0.11129302
000030 34 e2 fd 3d a2 50 f8 3d f6 a6 d1 3d 16 8c ff 3d
       0.123966604 0.121247545 0.102369234 0.12477891
000040 0c 10 ff 3d dc 22 f8 3d a2 cb fa 3d e6 21 f2 3d
       0.124542326 0.12116024 0.12245871 0.11822872
000050 46 fc f9 3d 88 5a e5 3d 56 a8 fb 3d 24 85 fe 3d
       0.122063205 0.11198908 0.12287967 0.12427738
000060 d0 48 fd 3d aa 72 ff 3d 6a 25 fe 3d 4a 97 fe 3d
       0.123674035 0.12473042 0.1240948 0.124312
000070 46 85 dd 3d 3e 87 ee 3d e2 83 f5 3d d6 51 fa 3d
       0.108164355 0.11646889 0.11988045 0.1222264
000080 46 43 f9 3d 46 cf e8 3d 7a c7 fa 3d 6a a8 fc 3d
       0.121710345 0.11367659 0.122450784 0.1233681
000090 78 45 fb 3d 92 dc f9 3d ec a9 f6 3d bc 54 f6 3d
       0.122691095 0.122002736 0.12044129 0.120278805
0000a0 34 5d fb 3d 3e 11 f6 3d 66 b4 f1 3d 20 70 fc 3d
       0.122736365 0.120150074 0.118019864 0.12326074
0000b0 26 0c f3 3d 36 c0 fc 3d 0e 45 f5 3d f0 81 fa 3d
       0.118675515 0.12341349 0.11976062 0.12231815
0000c0 08 3e fd 3d fc 6e fa 3d 62 ee f8 3d b6 e5 fe 3d
       0.12365347 0.122282 0.12154843 0.12446158
0000d0 a8 4e fc 3d 96 a0 fa 3d 56 26 fc 3d b0 c8 f8 3d
       0.1231969 0.122376606 0.123119995 0.12147653
0000e0 ae 70 fe 3d 6e 9c f6 3d 88 0a fb 3d 1e f0 fe 3d
       0.12423836 0.12041555 0.12257868 0.124481425
0000f0 26 3f fb 3d 10 03 f0 3d 0a e0 fd 3d 8e 6d f9 3d
       0.12267904 0.11719334 0.12396248 0.12179099

linear_layers.2.weight f4 [10, 64]
000000 48 91 9b bd a8 c8 23 bd 52 df f7 3d f8 5b 67 3d
       -0.075960696 -0.039986283 0.12103142 0.056484193
000010 40 2a 0f 3b 60 f7 51 3c 04 36 a3 3d e0 54 ec bb
       0.0021845251 0.012815326 0.07969287 -0.0072122663
000020 9a 40 ca 3d 90 5a e9 3c a8 08 ae 3d ec 8d 23 3d
       0.09875603 0.028485566 0.08497745 0.03993027
000030 00 5b 2b bb 90 09 8e 3d a0 6d 9e bc 40 eb e6 3c
       -0.002614677 0.06935418 -0.019339383 0.028188348
000040 0e 8a 93 bd 60 ee a6 bc b0 b2 20 3c 4c 7b 6e bd
       -0.07204066 -0.020377338 0.009808227 -0.058223054
000050 b8 8d c3 bd 6c 3b 0b bd d8 40 94 3d 60 4b c0 3c
       -0.09548515 -0.033992216 0.072389305 0.023473442
000060 ae 14 ab 3d d8 aa 94 bc d0 5e 33 3c 50 68 f0 3c
       0.08353554 -0.01814787 0.010947898 0.029346615
000070 48 2f b6 bd b0 5a 30 3d 82 47 a4 bd aa 5c 8e bd
       -0.08895737 0.043055236 -0.080214515 -0.06951268
000080 06 1b d5 bd bc e5 6f 3d 36 62 ed bd 60 3e 7f bd
       -0.10405545 0.0585687 -0.11590998 -0.062315345
000090 60 ae e5 bd f4 38 29 3d 1a 28 a0 bd 22 02 ce bd
       -0.112149 0.04131408 -0.07820149 -0.100590006
0000a0 38 b1 bc bc 88 17 d2 bd b2 1a c3 3d ea 7f eb bd
       -0.023033723 -0.102583945 0.09526576 -0.11499007
0000b0 a2 b3 bc 3d f0 1a 9e bd f8 4c 2c bd 6e 67 c9 bd
       0.0921395 -0.07719982 -0.04206559 -0.09834181
0000c0 2c 79 b7 bd fc 59 32 bd 90 37 5e bc 1a 79 a8 bd
       -0.089586586 -0.043542847 -0.013563052 -0.08226223
0000d0 ac db c1 bd 44 be 70 3d 66 6b dc 3d c0 84 af 3b
       -0.09465727 0.0587752 0.10762672 0.005356401
0000e0 3c bc 87 3d cc 95 02 bd 04 ab 3e bd 30 bb 99 3c
       0.066277 -0.03188114 -0.046549812 0.018766016
0000f0 80 6d 46 3d b8 67 82 3d 56 4c 8e 3d 8a a2 ef bd
       0.04844427 0.06367439 0.06948154 -0.11700924
000100 00 0b b3 3c 78 80 29 bd fc 17 4b bd 3c 34 c5 bd
       0.021855831 -0.041382283 -0.04958342 -0.096291035
000110 7c 36 2c 3d ba 29 f8 bd da cf 92 3d b0 39 e1 3c
       0.042044148 -0.12117334 0.07168551 0.027493328
000120 88 eb ac 3c ac 12 fe 3d 08 c1 29 bd f0 8a 41 bd
       0.021108404 0.12405905 -0.041443855 -0.04725164
000130 24 e5 e7 bd 62 ed ce bd 4e 1a bd 3d 48 3f 9f bc
       -0.11323002 -0.10103871 0.09233533 -0.019439355
000140 18 99 ef bd 72 0b df 3d 32 6f 8a bd 6c 36 36 3d
       -0.11699122 0.10890855 -0.0675949 0.044485494
000150 7a 84 d6 3d c0 b4 93 3c 0c 06 b2 3d 94 b4 1b 3d
       0.10474487 0.018030524 0.086925596 0.03801401
000160 00 1d 80 ba ec b6 c2 3d e4 a1 b2 3d 56 8d f6 bd
       -0.0009774268 0.09507546 0.087222844 -0.120386764
000170 aa be b2 3d b4 1e ed 3d 80 58 59 bc 40 59 a1 bd
       0.087277725 0.11578122 -0.013265729 -0.07878351
000180 80 15 f1 3b 10 a6 37 bc cc b0 93 3d c2 0e e4 bd
       0.0073572993 -0.011209026 0.07211456 -0.11135627
000190 00 c6 84 bd 92 45 be 3d 60 d1 ac 3c 7e c4 dc 3d
       -0.06483078 0.09290613 0.021095932 0.107796654
0001a0 18 c6 9a 3c 70 4f 43 3d 60 58 49 3c 6c 51 6b bd
       0.018893287 0.04768318 0.012289137 -0.057450697
0001b0 8a 80 f5 3d 98 a2 8c bd d8 32 63 bd 14 8e b6 bd
       0.119874075 -0.0686695 -0.05546841 -0.08913818
0001c0 70 2d 9b bd 8c 5d 08 bd ac 71 18 bd 8e aa e7 bd
       -0.07577026 -0.03329234 -0.03721778 -0.113118276
0001d0 d0 e8 8a bc 90 34 91 3d b0 81 fa 3c 36 6c dc bd
       -0.016956717 0.070901036 0.030579418 -0.10762827
0001e0 e4 b9 b8 3d 80 96 f3 3a 00 54 a3 bb 32 c3 b4 3d
       0.09019831 0.0018584281 -0.004984379 0.08826293
0001f0 f0 bb 44 3c f0 fc 6d 3c 10 d7 fe 3d 54 ca dd bd
       0.012007698 0.014525637 0.12443364 -0.10829607
000200 e4 57 85 bd 48 42 5e 3d d2 ab d8 3d e2 b2 96 bd
       -0.065109044 0.05426243 0.10579647 -0.07358338
000210 30 e8 d8 3d c4 bc de 3d 38 65 37 bd 98 f2 d1 3d
       0.10591161 0.10875848 -0.044774264 0.10251349
000220 5a 89 f2 3d 60 70 4f 3c 08 49 f6 3c e0 b8 90 bb
       0.11842604 0.01266107 0.03006412 -0.00441657
000230 9a 7e be 3d 2c f6 bb 3d 58 7e 46 3d e0 a6 e5 bd
       0.09301491 0.09177813 0.048460335 -0.112134695
000240 e8 28 95 bd 0e e7 af bd 30 ff 9a bc f8 9d 88 bc
       -0.07283193 -0.08588992 -0.018920511 -0.016676888
000250 e0 5c ff bc 8c d1 56 bd 06 33 c1 3d ba 98 f4 3d
       -0.031172216 -0.052445933 0.0943356 0.11943193
000260 84 88 f8 3d 70 f0 71 bc 1a 01 d4 3d 28 04 35 3d
       0.12135413 -0.014766797 0.103517726 0.044193417
000270 9c 78 76 3d a8 bc 5e bd 40 0f fd 3c 44 78 69 bd
       0.060173616 -0.054379135 0.03089106 -0.05699946
000280 be 83 e4 3d fc ea 97 bd 5c 08 79 bd 00 40 6d bd
       0.1115794 -0.074178666 -0.060798988 -0.057922363
000290 20 b0 3b 3d 22 51 88 bd c0 65 8d bc 14 da 1b bd
       0.045822263 -0.066561 -0.017260432 -0.038049772
0002a0 6a 39 e3 bd 00 c1 8e bd e2 e6 8a bd 46 51 df bd
       -0.11094935 -0.069704056 -0.06782319 -0.109041736
0002b0 72 e1 a3 bd b4 3f 6d 3d a6 6d fc bd 12 05 dc 3d
       -0.08001985 0.05792208 -0.12325601 0.107431546
0002c0 80 56 3b 3d d8 c4 9c bc c0 a6 a1 bc 38 4d 0a bd
       0.04573679 -0.019136831 -0.019732833 -0.033765048
0002d0 2a ea 97 3d 3c f2 74 3d 5c ad f6 bd b0 51 b5 bc
       0.0741771 0.059801325 -0.120447844 -0.022133678
0002e0 00 0c 65 b9 68 3f ed 3d b0 d5 93 bc 34 14 79 3d
       -0.00021843612 0.115843594 -0.01804623 0.060810283
0002f0 68 50 7c bd e8 32 75 3d ce ea d1 bd 00 ab 74 3a
       -0.06160012 0.059863 -0.102498636 0.00093333423
000300 4c 86 34 3d 5a 94 85 bd 14 0e 9e bd e0 83 be bc
       0.044073388 -0.065224364 -0.07717529 -0.023256242
000310 00 3f 43 3d 28 18 1c 3d 48 d7 05 bd 24 2c 7f 3d
       0.047667503 0.038108975 -0.03267601 0.062297955
000320 78 ce 82 3d 48 be 01 bd b6 f7 fe 3d 40 cd 49 bc
       0.06387037 -0.031675607 0.12449591 -0.012317002
000330 a4 e5 9c bd be 38 c5 bd 2c 32 7b bd 18 e7 f0 3d
       -0.07660988 -0.09629963 -0.061327145 0.11762828
000340 d6 df ce 3d b0 bb d5 3d d4 49 b3 bd 46 72 b4 3d
       0.10101287 0.10436189 -0.08754316 0.088108584
000350 84 d0 b5 bd ec 33 1a 3d 96 fc d7 3d a4 be 99 bd
       -0.08877662 0.037647173 0.10546224 -0.07507065
000360 d8 70 f0 3d 82 37 9d 3d a6 8a c8 3d 62 29 c9 bd
       0.11740273 0.07676603 0.0979207 -0.09822346
000370 1a 48 d4 3d 68 75 e3 3d 7e c5 80 bd 00 0a 98 bb
       0.10365315 0.11106378 -0.06287669 -0.004639864
000380 1e be b6 3d 0c 2f 57 3d 58 df 0b bd d0 78 4c bd
       0.08922981 0.0525351 -0.034148544 -0.049919903
000390 36 87 f2 bd e0 fc e8 3d 80 55 c0 3d f0 07 c3 bd
       -0.11842196 0.11376357 0.09391308 -0.09522998
0003a0 c0 f6 37 bc bc ba 6e bd d4 27 de 3d be 71 9f 3d
       -0.011228263 -0.058283553 0.1084744 0.077853665
0003b0 da 08 c8 3d 7c fa 20 bd 5a b7 cc bd ac 2b d4 bd
       0.09767313 -0.03930138 -0.09995909 -0.10359892
0003c0 7e 6f f4 bd 0c 76 3b 3d 10 80 ec bc 60 88 52 bc
       -0.11935328 0.045766875 -0.028869659 -0.012849897
0003d0 a0 2c 8a bc ca 9c c9 3d 18 32 4a 3d aa 08 c4 3d
       -0.016866982 0.09844358 0.04936418 0.09571965
0003e0 a6 e0 d0 3d 8e b0 dc bd f0 f8 dc bc fa 05 ee bd
       0.10199098 -0.10775863 -0.026974171 -0.11622234
0003f0 0a a9 f6 bd 00 fd 28 3b 26 e0 eb 3d 78 cf 13 bd
       -0.120439604 0.0025785565 0.11517362 -0.03608653

linear_layers.2.bias f4 [10]
000000 d1 f3 95 be 1d fa 49 3e 06 55 52 be b7 8f c6 bd
       -0.2928758 0.19724317 -0.20540246 -0.0969538
000010 06 bd 9a be 53 be 9a be 2a 2e 9b be 2c 7f 82 3c
       -0.30222338 -0.3022333 -0.30308658 0.01592978
000020 d3 f1 88 be 51 8e 9f bd
       -0.26746997 -0.077908166

linear_layers.2.weight_fake_quant.scale f4 [10]
000000 f8 d2 79 3a 61 6c 80 3a a6 6d 7c 3a d5 7c 80 3a
       0.0009530033 0.0009797924 0.0009629376 0.0009802828
000010 aa 43 7d 3a 84 ce 7e 3a cc 32 80 3a cc 6a 7e 3a
       0.0009661267 0.0009720104 0.0009780764 0.0009705245
000020 f2 57 77 3a 74 80 7e 3a
       0.0009435407 0.0009708472

linear_layers.2.weight_fake_quant.activation_post_process.min_val f4 [10]
000000 8a a2 ef bd ba 29 f8 bd a6 6d fc bd 0a a9 f6 bd
       -0.11700924 -0.12117334 -0.12325601 -0.120439604
000010 aa 43 fd bd 84 ce fe bd e8 b3 ef bd cc 6a fe bd
       -0.123664215 -0.124417335 -0.11704236 -0.12422714
000020 f2 57 f7 bd 74 80 fe bd
       -0.12077321 -0.12426844

linear_layers.2.weight_fake_quant.activation_post_process.max_val f4 [10]
000000 52 df f7 3d 10 d7 fe 3d 84 88 f8 3d b6 f7 fe 3d
       0.12103142 0.12443364 0.12135413 0.12449591
000010 58 57 f3 3d 6c 64 e0 3d cc 64 fe 3d 58 9d f7 3d
       0.11881894 0.10956654 0.12421569 0.12090558
000020 70 ed f4 3d 3e 05 e1 3d
       0.1195935 0.10987328
