snn_models/n_mnist_qat_snn/model_state_dict.pkl (torch, 230011 bytes, 6 tensors)

linear_layers.0.weight f4 [64, 784]
00000000: 6c76 1fbd 39aa 15be 5c96 58bd a341 38be
00000010: 5d10 c4bd d946 bdbd 0f59 ccbd 6842 1cbe
00000020: 12ed f3bd 71d1 adbd 464a 11be a6aa bfbd
00000030: 8373 57bd 7525 cfbd 88e4 15be 37b7 c3bd
00000040: 1471 8bbd 8346 dabc c801 a3bd 51e4 88bd
00000050: d4fe 2bbd c554 7ebd 559f 35bd d24b debd
00000060: d989 47bd cadd 5abd a2f3 3cbd ab6a bebd
00000070: 06b2 67bd 6e72 c8bd 2978 90bd 3a55 37be
00000080: 265b 07be d35b 70bd be77 39be fd9c ffbd
00000090: 1bc0 b1bd efcd 12be 025d ddbd 7654 2dbe
000000a0: c900 c4bd 531a e7bd d5c0 a7bd 6aa9 b4bd
000000b0: a638 14bd 310b adbd 45a5 3cbd f621 44bd
000000c0: 3353 2abd cf63 abbd e9a1 aabc ea0e d5bd
000000d0: 3152 3cbd 0516 73bd 09d1 a5bd f5d5 14bd
000000e0: 8d99 3dbd 87a4 aebd 4acb d3bd fddf c1bd
000000f0: fd9e 1abe afd5 0fbe 96c4 aabd 00c8 91bd
00000100: 5d4d 76bd 6525 cfbd 8913 10be 59f2 ecbd
00000110: 16f9 9fbd ea17 87bd 4bd9 f9bd 25fe b0bd
00000120: 3670 76bd 8eda a3bd e3ea bbbc a388 a2bd
00000130: f722 9bbd acc4 9bbd b220 51bd 2d78 8abd
00000140: 5cff b3bd 8a00 e2bd c2c6 c7bd b156 16be
00000150: 9c56 3bbd 7ea8 83bd 6c92 a3bd e333 e5bd
00000160: c5d2 aabd 68ce aabd 425c 78bd 3254 88bd
00000170: 23f3 c9bd 085d 12be 82e9 b5bd 9abd a8bd
00000180: ef68 c6bd 75de e0bd bcea fabd 5e64 a4bd
00000190: 6a44 dcbd 92a6 49bd aaf6 13bd 6745 7cbd
000001a0: eaaf c6bc d567 09bd d4bf b4bd 75f5 b1bd
000001b0: c32b 92bd 8c89 f3bb 672c 94bd e8f3 8fbd
000001c0: 6ecf 97bd be25 debd 028f abbd f815 aebd
000001d0: b813 d3bd d1b2 89bd 60a6 f9bd 394c cfbd
000001e0: f46b f9bd 8b50 adbd cec6 e9bd e82d dcbd
000001f0: 2a4e 78bd 151a efbd 4f9e 8bbd 987a b3bd
00000200: 5e75 fbbc f0ba 84bd d47a 7cbd a6e5 26bd
00000210: 3d5e 1cbc 1d6b 6ebd b85a b7bc a05e b1bd
00000220: 1ba1 c83b f338 8fbc 7b17 17bd ce6c 24bd
00000230: 2850 94bd 1413 d3bd 21b2 7dbd 7619 4fbd
00000240: 0113 d5bd 5646 8cbd 6d63 67bd 7bd0 c1bd
00000250: bdb7 61bd 0e9b f6bd 641e c4bd e7e1 d3bd
00000260: e71b 58bd 3d8e b0bd ef84 a3bd fda7 9abd
00000270: e330 1fbd ea55 83bd 0bfe 92bc d5ce e2bc
00000280: a32b 5cbc 8800 8fbc 280e a6bd 54bb dcbc
00000290: 4f25 19bd a719 99bb 3cf4 013c a0f1 0dbe
000002a0: 60d3 5fbd 406a d1bd bc49 a8bd bfd6 49bd
000002b0: 3fd2 2ebd 5a02 c5bd 822f c3bd 427a a6bd
000002c0: bd9a 4fbd bede afbd bc40 99bd 4bed 66bd
000002d0: 0664 cbbd b8ae cdbd 7590 b6bd c910 33bd
000002e0: 8ed6 a4bd d711 61bd 27f7 cdbc 0e95 8cbd
000002f0: 66df 9fbd 9e00 8fbd 3d80 40bd c5c4 2abc
00000300: 75e9 3cbd 3265 a4bd 526f 98bd eb29 363b
00000310: 8062 82bd 2266 9bbd 3054 d7bd 044f 74bd
00000320: 3e5e 9bbd 091d bdbd 575b cabd f0e1 a7bd
00000330: 478e 15bd 0a29 31bd 2b97 cfbd 66f8 d2bd
00000340: 5ba2 8ebd f1f8 97bd d02c 51bd 01dd 85bd
00000350: 4ea5 5bbd c1a2 74bd 0d1c 2cbd 5e00 b1bc
00000360: a1ce 44bd 2d97 c9bc 906f 4ebd 62da 57bd
00000370: 1145 aabd e5a3 a7bd 112f 9abc 3e19 f9bd
00000380: 8b49 6dbd 70cc 98bd 8243 2abd 2483 0cbd
00000390: 07ea 64bd f50e 99bd 165b bfbd 888a 38bd
000003a0: 40c9 bfbd 2d89 a3bd e2d9 31bd ec13 c6bd
000003b0: 7dbf f9bc 8fff cabd 2a27 a9bd 01a1 36bd
000003c0: aac4 9abd 3672 63bc c0a8 44bd 9f60 c5bc
000003d0: c13b 80bd 8bfd 35bd 164a 18bd b553 40bd
000003e0: 054b 1bbd 0e0c 97bd 4349 ebbd a7e5 efbd
000003f0: e5cf 91bd a4e7 c4bd 8721 2ebd 63cc 9cbd
-0.038931295 -0.14615716 -0.05287777 -0.17993788 -0.095734335 -0.09242029 -0.09977924 -0.15259707
-0.11910452 -0.084872134 -0.1418849 -0.093587205 -0.052600395 -0.10114566 -0.14637959 -0.0955643
-0.06808677 -0.02664495 -0.07959324 -0.06684173 -0.04199107 -0.06209256 -0.044341404 -0.10854305
-0.048715446 -0.05343417 -0.046130784 -0.09297689 -0.05656626 -0.09787451 -0.07054169 -0.17903605
-0.13218364 -0.05868132 -0.18112084 -0.12481115 -0.08679219 -0.1433637 -0.108087555 -0.1692675
-0.09570462 -0.11284318 -0.08191077 -0.08821376 -0.036186837 -0.084494 -0.04605605 -0.04788395
-0.04158325 -0.08368646 -0.020829158 -0.10403235 -0.04597682 -0.05934717 -0.08096511 -0.036336858
-0.046289016 -0.08527475 -0.10341509 -0.094665505 -0.15099712 -0.14046358 -0.08338277 -0.07118225
-0.060132373 -0.10114554 -0.14069952 -0.11569662 -0.07811181 -0.06596358 -0.121996485 -0.08642224
-0.060165606 -0.080006704 -0.022939151 -0.07936218 -0.075750284 -0.076058716 -0.05105657 -0.06761203
-0.0878894 -0.11035259 -0.09754707 -0.14681508 -0.045736894 -0.06428622 -0.07986912 -0.11191537
-0.08340982 -0.0834015 -0.06063486 -0.06656684 -0.09860828 -0.14293301 -0.08882429 -0.08239289
-0.09687983 -0.1097993 -0.12251803 -0.08026956 -0.107552364 -0.04923112 -0.03612391 -0.061589625
-0.024253804 -0.033546288 -0.08825651 -0.08689395 -0.07137253 -0.0074321683 -0.072350316 -0.07028943
-0.07412611 -0.108470425 -0.08376886 -0.08500284 -0.103064954 -0.0672356 -0.12189937 -0.1012196
-0.121787935 -0.08462628 -0.11414872 -0.107509434 -0.060621418 -0.11674897 -0.06817304 -0.08763617
-0.030695613 -0.06480968 -0.061640576 -0.040746354 -0.0095439525 -0.05820762 -0.022382125 -0.086606264
0.006122721 -0.01748321 -0.036887627 -0.040142827 -0.07241851 -0.10306373 -0.061937455 -0.05056139
-0.10404015 -0.06849353 -0.056491304 -0.094635926 -0.055106867 -0.12041293 -0.09576109 -0.10345822
-0.052760985 -0.0862088 -0.079843394 -0.075515725 -0.03886498 -0.06412871 -0.017943403 -0.027686516
-0.013438138 -0.017456308 -0.08108169 -0.026944794 -0.037389096 -0.0046722475 0.007931765 -0.13861704
-0.054644942 -0.10225344 -0.08217189 -0.049277063 -0.042680975 -0.09619589 -0.09530546 -0.081287876
-0.05068468 -0.085874066 -0.0748305 -0.056378644 -0.09931187 -0.100430906 -0.08914272 -0.04371718
-0.080487356 -0.054948654 -0.025142265 -0.068643674 -0.07806282 -0.069825396 -0.046997298 -0.01042289
-0.04612108 -0.08027114 -0.07443108 0.002779598 -0.06366444 -0.0758784 -0.10514104 -0.059645668
-0.07586335 -0.09234054 -0.09880703 -0.08197391 -0.03651264 -0.04325203 -0.10136255 -0.103012845
-0.069645606 -0.07420529 -0.051068127 -0.06536294 -0.053624444 -0.059725527 -0.04201894 -0.02160662
-0.04804862 -0.024608219 -0.050399363 -0.0526985 -0.083139546 -0.08185557 -0.018821271 -0.12163018
-0.057931464 -0.07460868 -0.041568287 -0.034304753 -0.05588725 -0.07473556 -0.09343545 -0.04505399
-0.09364557 -0.079851486 -0.04342068 -0.096717685 -0.030486817 -0.09912025 -0.08259423 -0.04458714
-0.07557042 -0.0138822105 -0.048012495 -0.024093924 -0.06261397 -0.04443125 -0.03718003 -0.04695483
-0.03791334 -0.07375346 -0.11488583 -0.117137246 -0.07119731 -0.096144944 -0.042512443 -0.07656171

linear_layers.0.bias f4 [64]
00000000: b244 b1bd 0054 753b 427d 88be f56d ac3d
00000010: cbb4 4cbe 51be 39be 8f71 2cbe 3652 e5bd
00000020: 1775 41be 0644 cfbd 6dbc 3dbe 63e4 1b3e
00000030: fc33 49be 92db afbd 48d0 b8bd 3749 aabd
00000040: 8c33 303d bae6 06be 81da ae3e 8adf 443c
00000050: ee01 03be af67 00be 44e7 19be 75ba c4bd
00000060: 77ed b0bd 5739 3bbd 9350 413d 4d5b 0e3e
00000070: 6b28 86be d0ac 82be afa3 46be 3739 10be
00000080: 037b 54be 61fe fdbd f5c0 17be 64f0 c8bd
00000090: f571 52be 51f3 90bd ea2e 0cbe bc5a 3bbe
000000a0: c81f b5bd 9edc 1cbe 3ee7 f13d a0f1 efbd
000000b0: 7cd3 a0bd e4ee 04be 5db6 cbbd 7463 0bbe
000000c0: d459 103d 1715 863d 2d11 b53e c01b 36be
000000d0: 30ec 2cbe 9def cbbd 92c7 1bbe 9333 09bd
000000e0: e35a 16be 68d2 0bbe f731 c4bd 0614 e43d
000000f0: cf71 bc3d 672d e4bd b2b4 54be acd6 09be
-0.08655681 0.00374341 -0.26658064 0.0841941 -0.19990842 -0.18139006 -0.16840194 -0.11197321
-0.18892322 -0.10120396 -0.1852891 0.15223841 -0.19648737 -0.085868016 -0.090241015 -0.08314746
0.04301791 -0.13173953 0.3415108 0.0120161865 -0.12793705 -0.12539552 -0.15029627 -0.09605876
-0.08639043 -0.04570898 0.047195982 0.13902016 -0.2620271 -0.2552247 -0.19398378 -0.14084326
-0.2075005 -0.124020346 -0.14819701 -0.09811476 -0.20551284 -0.07077659 -0.13689771 -0.18296331
-0.088439524 -0.15318534 0.11811684 -0.11716008 -0.078528374 -0.12981755 -0.099468924 -0.13612157
0.035241917 0.06546991 0.35364667 -0.17784023 -0.16886973 -0.09957812 -0.15212849 -0.03349645
-0.14683108 -0.13654482 -0.095798425 0.11136632 0.09201395 -0.11141472 -0.20772055 -0.13460797

linear_layers.1.weight f4 [64, 64]
00000000: e364 ddbd 903c 633c 8ee7 c8bd 7fcb 92be
00000010: 77d2 85be abcc a0bc 62cb b43d 7578 d9bd
00000020: 7469 f03d 4abb b23d 3364 07bf 8ad9 1a3e
00000030: db77 3abc 28a0 e73d f62b 1fbd 990f 053e
00000040: 353b b4be 8f99 5bbb b5a1 033e 1f6a f0be
00000050: 5845 023e 7da0 c3bd 5fb5 b43d a210 d0be
00000060: 0e35 f2bd ce19 bdbd c9f1 fdbe 602e e5be
00000070: fc8c ff3c cdf8 f0bd 5547 cebd ec67 333d
00000080: c124 90bc d258 b0bd 4149 adbc 52c9 88bd
00000090: 8c4a b0bd 842f 893d f99a 04be 37e0 e3bd
000000a0: a328 febd 9441 d8bd 0be9 85be 56b5 c2bd
000000b0: bf23 dabe 0456 f0bd 5a00 21bd 0eac 783b
000000c0: 2820 a5be 1ffd e7bd 2b7a 74bf beea 4bbe
000000d0: a25d 5ebd af35 80be 4825 9dbd 144a aabe
000000e0: 3c91 8bbd 45ed e53d d5d9 e73d 0ac1 a5be
000000f0: c431 ccbe 6893 66bc de65 023e a47e 98bd
00000100: de12 c33d 80aa d8bd 1c0e 493d e5fa 6fbd
00000110: b5d5 0a3f fc4d 683c 92fb 2cbd dd0d b23d
00000120: 5275 173d 7abf c33c 9b16 e13e bd17 25bf
00000130: 2928 213e 7d82 68bd 883e a63d 093e d13d
00000140: ee9d 87be 3fb8 9c3c 2cb1 0dbf 444e 73be
00000150: 07d0 37bd 15bf e43d efa5 d43d 5ead 453e
00000160: 1d5d e7bc 0719 26be 59a1 2ebf 09e5 58be
00000170: 719b 9ebd b7b7 24bd b9f3 e53d e5ac a93c
00000180: cb97 053c e0c8 2abd 88e9 86bd 7724 d3bc
00000190: 4e7d 00be 3b82 3bbd 11e4 eabd e539 1f3d
000001a0: a166 41bc ba00 e2bd 2ba5 49be bedb d7b9
000001b0: c132 b5bd e470 ecbd 598c f6bb 0de3 75bd
000001c0: b18c 203e be45 3f3e 06a5 3dbe c148 d23e
000001d0: bf3c 3b3d 2ad4 b83e d6d1 82bd c7af 3b3e
000001e0: 0ac3 0fbd b631 99bd c2c2 e43d 2d8d 4e3d
000001f0: 3191 383e dd1c ebbc 8893 c23d 07c4 1cbd
00000200: 4099 bf3d 3d99 bcbd e8e5 d3bc ec94 8dbd
00000210: 7832 93be c5aa 183d 84b3 8fbd a889 db3d
00000220: 9993 383d 485d 4bbd 8573 edbe 7a33 02be
00000230: 81c3 bcbd 92a7 29bc c87f d13d 24fe cc3d
00000240: 356f 88be 60f4 05be 95da 88be 3277 abbe
00000250: 1daa 573c 71f5 4cb9 44a3 a9bc 228e d2be
00000260: 5cd7 81bc 1824 bfbd a3de 93be 4eb1 12bf
00000270: 77c1 b4bd 025c d6bd 9c36 7e3d 9399 e43c
00000280: c596 dd3d ea61 b03d 448a 3a3d 91dd 933d
00000290: 7e9a d3bd 8afc cd3d 772f 173d 8e88 00be
000002a0: 5c81 a33b c207 e83d 03cc adbe 4cfe d23d
000002b0: b1d4 b1be f800 813c 3c09 7fbc 9cde 99bc
000002c0: 0480 43be 59be 67bf 88ff 84bf 1e17 73be
000002d0: bb1d 973d e162 8ebc 7d6e c23d 7406 9fbe
000002e0: 194e 523d 7653 f13d 2f86 35bd 0477 81be
000002f0: 2aa5 f6be 6bc2 60bc c621 8c3c e22f 92bd
00000300: 4872 e1bd dd75 81be 1445 3fbd 5bbd 07bf
00000310: f756 a4bd bb9b 603d 0225 dcbc 61c8 b83b
00000320: d398 0e3d e449 d33d be8b 11bf c387 babd
00000330: 004f 6abe 5753 e13d 18be e13d 1066 aabd
00000340: 7401 8cbe ec7a e93d ed0b 9cbe 4a1c 13bf
00000350: 2a77 e33d 3b66 483d 0d8b 183d a344 d4be
00000360: 11e7 adbd 2712 6bbd fec7 56be a20d bf3d
00000370: d5e8 19bb 7059 b73d a188 0dbd cfc4 883d
00000380: e863 a23d 18b1 9d3d 7ef7 a53c 1359 e13d
00000390: 6e37 03bd 1327 71bd 0924 df3d b701 613d
000003a0: ff17 263a 6e59 393d ac2b 9fbe 14f8 be3c
000003b0: c138 f8be d229 c33d 34e4 8c3d 12ed 08bd
000003c0: 50df b2be 147b 37bf 3940 8c3c 163c 91be
000003d0: fc6c a73d 36b8 1abe 6808 efbd dcf3 c5be
000003e0: 718d 703d 7394 5cbd bc29 dfbd 7629 4ebc
000003f0: 5300 04bf 4dcf acbd ab39 bcbd 6e61 a23c
-0.10810258 0.01386942 -0.098097906 -0.2867088 -0.26137134 -0.019628843 0.08827855 -0.106186785
0.117388636 0.08727129 -0.52887267 0.15122047 -0.011381115 0.11309844 -0.038860284 0.12994231
-0.3520142 -0.0033508276 0.12854655 -0.46955964 0.12721765 -0.09552095 0.08823656 -0.4063769
-0.11826526 -0.092334375 -0.4959853 -0.44761944 0.031195156 -0.11766205 -0.10072199 0.04380028
-0.01759565 -0.08610691 -0.021153094 -0.06679024 -0.08607969 0.06698516 -0.12949742 -0.1112675
-0.124100946 -0.10559383 -0.2615436 -0.09507243 -0.42605397 -0.11735156 -0.039306976 0.003794435
-0.32251096 -0.11327576 -0.95498914 -0.19913766 -0.054288514 -0.25040957 -0.076731265 -0.33259642
-0.06814811 0.11226896 0.11320845 -0.3237384 -0.39881718 -0.01407323 0.12734172 -0.0744603
0.09525083 -0.10579395 0.04908572 -0.05858888 0.5423234 0.014178749 -0.042232104 0.086940505
0.03697712 0.023895014 0.4396256 -0.64489347 0.15737976 -0.05676507 0.08117396 0.102169104
-0.26487678 0.019130824 -0.5534847 -0.23760325 -0.044876125 0.111692585 0.10383212 0.19304416
-0.028242642 -0.16220485 -0.68214947 -0.2118112 -0.07744492 -0.040214267 0.11228127 0.020712325
0.008153866 -0.041695476 -0.06587511 -0.025774224 -0.125478 -0.045778494 -0.114692815 0.038873572
-0.011804254 -0.11035295 -0.19691913 -0.00041171716 -0.08847571 -0.1154497 -0.007524055 -0.060030986
0.1567867 0.18678948 -0.18519983 0.41071132 0.04571223 0.36099368 -0.06387679 0.18328772
-0.035098113 -0.07480185 0.111699596 0.050427604 0.18024136 -0.028700287 0.095007956 -0.038272884
0.09355402 -0.092089154 -0.025866464 -0.0691317 -0.28749442 0.037272234 -0.07016662 0.10719615
0.045062635 -0.049649507 -0.46377197 -0.12714949 -0.09216977 -0.010354893 0.102294505 0.10009411
-0.26647344 -0.13081503 -0.26729265 -0.33489376 0.013163117 -0.0001954639 -0.020707734 -0.41124064
-0.015849762 -0.09333056 -0.28880796 -0.57301795 -0.08825963 -0.10466768 0.0620638 0.027905261
0.10819773 0.086124256 0.045542017 0.07219995 -0.103322014 0.10057934 0.0369105 -0.12552091
0.004989786 0.11329605 -0.3394471 0.103024095 -0.34732583 0.015747532 -0.0155661665 -0.018782906
-0.19091803 -0.9052482 -1.0390482 -0.23739287 0.073787175 -0.017381134 0.0949373 -0.3105961
0.05134401 0.11783497 -0.04431742 -0.25286114 -0.48172885 -0.013718228 0.017105948 -0.07138039
-0.110081255 -0.25285235 -0.046696737 -0.5302331 -0.080244 0.054836016 -0.026873115 0.0056391214
0.034813713 0.10316828 -0.56853855 -0.09107926 -0.22881699 0.11002224 0.11022586 -0.08320248
-0.2734486 0.114003986 -0.3047785 -0.5746504 0.11106713 0.04892562 0.037241984 -0.41458616
-0.08491338 -0.05739036 -0.20974728 0.09328772 -0.0023484726 0.08952606 -0.034554128 0.06678163
0.07929212 0.076997936 0.020259615 0.11003318 -0.032035284 -0.058875155 0.10895545 0.054933276
0.0006335973 0.045251302 -0.31088006 0.023311652 -0.484808 0.09529461 0.06879464 -0.033429213
-0.34936 -0.7167218 0.017120467 -0.28366154 0.08175084 -0.15109333 -0.11671525 -0.38662612
0.05872864 -0.05385251 -0.10896632 -0.012583127 -0.51562995 -0.08437977 -0.09190687 0.019821849

linear_layers.1.bias f4 [64]
00000000: 5f81 9bbe e0bd 93bd 5f76 93be 989d 63be
00000010: bf69 afbe 7839 76be 2ab9 7dbe e35d 47be
00000020: b0ae 33be 006b d2be d977 0abd 8c2d e63c
00000030: 8fd1 edbe ba92 51bd 27f0 babe 222f b4bd
00000040: 7d2b d0be e999 67be e48b 4dbe cf61 92be
00000050: cd22 20bd 6a20 60be e445 abbd a8e8 ecbe
00000060: 2179 fabd 894e 30be 0519 91be e7fb 8cbe
00000070: 8523 adbe 219c b4bd 3c78 52be 7d4a 2cbc
00000080: f56d 27be 44ab 453d 91a1 35be 966b a7be
00000090: 91ff afbe 6c13 35be 138d babe 3d04 afbe
000000a0: 725d 3bbe 0a76 2cbe 9bd4 f1be 6daa 64be
000000b0: d881 59be 3a75 83be 4ce4 5ebe 3bc0 d3be
000000c0: 6c05 bebc 71cb 4abe 91f4 6fbe d58b acbe
000000d0: 6df0 99be 4945 22bd 9017 67be 8a6c 3abe
000000e0: 0ede f9bd 622d 24be 6a48 62be 9dde f1be
000000f0: fada 523d bfe0 0fbe 4be7 62be 56b2 a3be
-0.3037214 -0.0721395 -0.28801247 -0.22228086 -0.34260365 -0.2404536 -0.24777666 -0.19469409
-0.17547107 -0.4109726 -0.033805702 0.02809789 -0.46448943 -0.05116532 -0.36511347 -0.08798052
-0.4065818 -0.22617306 -0.20072895 -0.28590247 -0.03909569 -0.21887365 -0.0836294 -0.46271253
-0.12230135 -0.17217459 -0.283394 -0.27535936 -0.33816162 -0.08818842 -0.20553678 -0.010515806
-0.16350539 0.048259035 -0.17737414 -0.3269927 -0.3437467 -0.1768319 -0.36435756 -0.3418292
-0.18297365 -0.16841903 -0.47232518 -0.22330637 -0.21240938 -0.25675374 -0.21766776 -0.41357598
-0.023195945 -0.19804169 -0.23433138 -0.33700433 -0.30066243 -0.039616857 -0.22567582 -0.18205467
-0.12200557 -0.16032937 -0.22097936 -0.47240153 0.051478364 -0.14050578 -0.22158544 -0.31971997

linear_layers.2.weight f4 [10, 64]
00000000: 9b7a 02be 4f16 82bf e25d dfbd 25bd 45bd
00000010: 04d4 633e bb3f 7fbe d795 a9bd 5a9f 48be
00000020: f13f 06bf e907 c9bd dfd4 a2bf 3dfe 08bf
00000030: e683 f1bc 8a85 3dbf f0cb dc3d b0b1 9ebf
00000040: c2ef 753e f797 003d 1b8c b23e 88d0 d9bd
00000050: a935 f6be 8f55 9f3d 2b02 b83d 3051 51be
00000060: 6f73 a6be df39 51be dbcb 90bc 853e 51be
00000070: bc56 55bd 32ea 7b3e 597d a73d ed63 d23e
00000080: 213c a2bd 1bc9 65be 1198 7fbe 717c d63d
00000090: 8716 c5bd f699 ec3d a324 e4bd a785 fabd
000000a0: 637e 44bd 141c 8ebe de82 ec3d b9c2 6e3d
000000b0: 90df 13bc 1d93 543d f63a fdbe b528 053d
000000c0: 956e d63e dbac f1bd 9a82 38be 008c c53b
000000d0: 94a3 b3bd 8d0f 67bf ac5f ebbd 2a25 d53c
000000e0: 3385 50bf 5056 763e 4387 2cbd cc73 7a3d
000000f0: a77a 28bf 4dd2 87bd 917e a8bd f20a c13c
00000100: 13da 673e 61aa 9dbf 86bf d1bd 7b19 aabe
00000110: f55d 1fbe 70ac bfbe 647b 25be cba4 19be
00000120: 8296 43bf 2409 213d ecfd 0e3f 3249 bd3e
00000130: c901 503d 9af9 033f 9a45 c33d 1cb0 82bf
00000140: 1850 24bd 8d4d 7ebd 4d1f 87be 4eab e73c
00000150: f951 9fbe c2d3 13bd 52bf 553e 8863 45bd
00000160: ee7b 353e a612 5f3e f2fb 3d3e a2b6 8abe
00000170: bbf0 7bbe 3039 e7be 11ca 2c3d 3d14 48bf
00000180: cc6b bdb9 3165 143e 5b92 e5be 767d 33be
00000190: eedc f9ba 1f88 833d f6f6 b3bd 6e16 99be
000001a0: 1d51 293d aa41 09bd 12ee 903d 69f9 2cbe
000001b0: b996 b0bc 120e 50be 57df ddbe c342 a7bd
000001c0: 2110 31bf 0bd0 fcbd a207 8bbd a02a b6bd
000001d0: 5d9b ffbc b2bf 45bf 0517 aebe baea 30be
000001e0: 12b1 34bf 6101 8abe fb4f 353e e028 0fbd
000001f0: 4e56 36bf 3adc 95bc 9e42 59be 2aa5 97bd
00000200: 5a06 43bd 1fe3 27bf 29fe 953d dfd3 5fbe
00000210: f6e8 e23c 64d2 a0be 10b6 453d e460 8b3e
00000220: 2f9f 8a3e b1ff a63d dd81 a5bf c7d9 0fbf
00000230: 0027 2f3e b230 403e 5005 23bc 28d0 67bd
00000240: 3275 babd 757e a13d 2db4 033e f58f e7bd
00000250: 13a8 45bf 1775 e3bc c891 b03c 3555 2c3e
00000260: eb7c e13e af8c f4bc 003d ef3d 7a11 583e
00000270: a1c2 51be 9768 85be 8c7a 0ebe 38b1 36bf
00000280: 9143 4abe 0c3e 1c3f 7d8e 363e a423 3c3d
00000290: 35a5 e6bd 0a4e d9bb 1225 643c 4631 d53c
000002a0: 916d a5bd 3115 9dbe 1069 96bd 92f6 adbc
000002b0: fded d63d dd36 a8bd c1c4 443d ac21 64bd
000002c0: 09d6 873e 7707 2abe 924b 24be 7061 58bd
000002d0: b2cb 71bd be88 cd3d a6f4 9c3d 929c 0f3e
000002e0: 1050 b8be b805 25bb 2065 82bd f096 883d
000002f0: 32cd 3abf 61d0 233d 7f74 3a3e b3cd 89bd
00000300: 5441 72bd a743 f53e 05ca 93bb dd3a 86be
00000310: 806c 933d 302f 12be 8148 bd3c ae53 753d
00000320: 0a68 74bf 8cfb e1bd 2671 a5bf 7ae2 303d
00000330: e365 f5bc 7625 42be 80d8 d6bd ed4c b6bf
00000340: 31b6 d53d 3913 573d c4d0 82bd 8fc4 203e
00000350: 7395 24bf 0e11 7fbd 6176 1fbe b5b6 ddbd
00000360: fe8e 2d3e 88fe 77be a66a 333e 1908 13be
00000370: 96b4 94be 0ddb a0bd 99ed 173d bc98 48bf
00000380: 695b f9bb 6fe0 22bf 188a b53e bad7 c9bc
00000390: e42f 6b3c 1bfa febc 3387 f3bb 0af9 343e
000003a0: be03 853d 9680 46be e756 4ebc ad85 37be
000003b0: 614b 303e 7123 5c3e bf38 39bf 0d68 863d
000003c0: 37f6 01bf 2da6 8dbd 5480 053d 9072 c1bc
000003d0: 583a 923d b32c a13d c8e7 943e c403 8fbb
000003e0: 0db9 cc3e d51a a7be 4de8 73bd 38ec abbc
000003f0: 8a08 183e 4b88 ee3d 48f9 30be 9150 13bd
-0.12742083 -1.0163058 -0.109065786 -0.048276085 0.22248846 -0.24926655 -0.08280533 -0.19592038
-0.52441317 -0.09815962 -1.2721213 -0.53512937 -0.02948184 -0.7403189 0.107810855 -1.2397976
0.24017242 0.031394925 0.34872517 -0.10635477 -0.48087814 0.07779991 0.089847885 -0.20441127
-0.32509944 -0.20432232 -0.01767533 -0.20434006 -0.05208467 0.24601057 0.08178205 0.41091862
-0.07921625 -0.22439997 -0.24960352 0.10472954 -0.096234374 0.11552803 -0.111398004 -0.122325234
-0.047972094 -0.27755797 0.115483984 0.05829117 -0.009025469 0.05189811 -0.49459046 0.032509524
0.41881242 -0.11800548 -0.1801857 0.006028652 -0.087714344 -0.90258104 -0.11492857 0.026018698
-0.81453246 0.24056363 -0.042121183 0.06114559 -0.6581215 -0.066319086 -0.082272656 0.02356479
0.22641782 -1.231762 -0.10241608 -0.33222565 -0.15563186 -0.37436247 -0.16160351 -0.1500427
-0.7640153 0.039315358 0.55856204 0.36969906 0.050782952 0.51552737 0.0953476 -1.0209994
-0.040115446 -0.062085677 -0.26391068 0.028279927 -0.31117228 -0.03609062 0.20873764 -0.048190624
0.17723057 0.21784458 0.18553141 -0.27092463 -0.2460355 -0.45160818 0.042184893 -0.7815588
-0.00036129204 0.14491726 -0.44838223 -0.17528328 -0.0019063035 0.064224474 -0.087873384 -0.29899925
0.04133712 -0.033509888 0.07076658 -0.16892017 -0.021556245 -0.20317867 -0.43334457 -0.08167031
-0.69165236 -0.123443685 -0.06788565 -0.08894849 -0.031202013 -0.7724563 -0.34001938 -0.17277041
-0.7058269 -0.26954177 0.17706291 -0.03495109 -0.7122544 -0.018293489 -0.21216819 -0.074045494
-0.04761348 -0.65580934 0.07323868 -0.21858166 0.027698975 -0.31410515 0.04826933 0.2722236
0.27074572 0.08154238 -1.2930256 -0.56191677 0.17104721 0.18768576 -0.009949997 -0.056594998
-0.091043845 0.07885448 0.128617 -0.113067545 -0.77209586 -0.027765794 0.021553889 0.16829379
0.44040617 -0.02985224 0.11681557 0.21100417 -0.20484401 -0.26056358 -0.13913935 -0.71364164
-0.19752337 0.61032176 0.17827792 0.045932427 -0.112619795 -0.0066316174 0.013924854 0.026024472
-0.08077539 -0.3068023 -0.07344258 -0.021235738 0.104946114 -0.08213589 0.0480392 -0.055696175
0.26530483 -0.1660441 -0.16044453 -0.0528273 -0.05903215 0.10035847 0.076638505 0.1402457
-0.35998583 -0.002518041 -0.06366944 0.06669414 -0.72969353 0.039993647 0.18208502 -0.06728687
-0.059144333 0.47903177 -0.0045101666 -0.26216784 0.07198429 -0.14275813 0.023105862 0.059894256
-0.9547125 -0.11034307 -1.2925155 0.043184735 -0.02995581 -0.18959603 -0.10490513 -1.4242226
0.10435141 0.052508567 -0.06387475 0.15699981 -0.6429054 -0.062272124 -0.15572502 -0.10825864
0.16949078 -0.2421819 0.17521152 -0.14358558 -0.29044026 -0.078542806 0.037091825 -0.78358054
-0.007609774 -0.6362371 0.3545692 -0.024639 0.01435468 -0.031125119 -0.0074318885 0.17673126
0.064948544 -0.19384989 -0.012593961 -0.17922087 0.17216255 0.21497895 -0.7235221 0.06562815
-0.5076632 -0.06916461 0.032593086 -0.023614198 0.071400344 0.07869854 0.29083085 -0.0043644626
0.39984933 -0.3263766 -0.05954771 -0.020986661 0.14847007 0.116470896 -0.17282593 -0.035965506

linear_layers.2.bias f4 [10]
00000000: 7881 c03c a380 d2bc 3ddb 64bb 1a36 ff3c
00000010: 9cd9 bdb7 bea2 063e ed74 293c 4a64 06bd
00000020: ade4 be3d 2831 883d
0.023499236 -0.025696104 -0.0034920715 0.031153727 -2.2631888e-05 0.13148019 0.010342819 -0.032810487
0.0932096 0.06650001
